results/companionv3 — kopia/CompanionBehavior.onnx (onnx, 91694 bytes, 9 tensors)

discrete_act_size_vector f4 [1, 2]
4.0 3.0
00000000: 0000 8040 0000 4040

network_body._body_endoder.seq_layers.0.weight f4 [128, 28]
0.73425156 -0.2042174 -0.0570891 -0.2308745 -0.15975021 0.20523714 -0.27875206 0.0071177487
-0.24504405 -0.11023313 0.061115872 0.34492183 0.23302567 -0.17952153 -0.24986266 0.084979385
0.24441238 -0.22424744 0.23423551 0.15893786 -0.18579608 0.122798204 0.028445749 -0.26380166
0.07458787 0.0839236 -0.007997322 0.17451768 -0.076969676 -0.027217172 -0.07113303 0.114186496
0.054965068 0.09556583 -0.1502555 0.17448154 0.007702067 -0.24717788 -0.026189901 0.20440793
-0.1634596 0.084785245 -0.28705254 0.26636973 -0.12528296 0.4302485 -0.17636685 0.44450888
-0.1571181 -0.06693894 0.22078112 0.0057452996 0.09581481 0.19511403 -0.122777335 -0.37414795
0.16030665 0.24673459 0.012419574 0.14243829 -0.0043335683 -0.47736034 -0.023685863 -0.14777859
-0.1379077 -0.44251695 -0.07871128 0.31155545 -0.09090127 0.2549192 -0.056882896 0.26565474
0.21006821 -0.23525678 0.19748694 -0.1864593 0.22063379 0.29784518 -0.048758727 -0.15665807
-0.06950774 0.2723185 -0.2376981 0.12888418 0.20427212 -0.17775042 0.01191383 0.03538719
0.03884424 0.1044402 -0.24125001 0.12342216 0.06277141 0.32239762 -0.11841757 -0.39215672
0.35434505 0.06286273 0.23412234 0.165709 0.16959292 -0.07143055 0.4368013 -0.19447698
-0.052975893 0.22290228 -0.2789957 -0.2515136 0.17734829 -0.06359414 0.17063181 0.34026948
0.060679413 0.24109457 0.031447455 -0.017358908 0.22406462 -0.37944454 0.12957276 -0.0589183
-0.016975189 -0.017256495 0.06676461 -0.09090978 -0.8062422 0.047059048 0.036918573 0.27034461
-0.086989604 0.08203938 0.15089563 0.35147262 -0.1971439 0.14329214 0.031094842 0.1876832
-0.0047862865 0.2802835 -0.17457196 -0.072613224 0.08781722 0.068022534 -0.46600592 -0.044801895
0.16801555 -0.3575354 -0.27088758 -0.46607152 0.04063874 0.19559826 -0.1945174 -0.32462284
0.08107854 0.10659857 -0.19103144 -0.014453595 0.16314813 -0.06678296 -0.24561825 -0.016924517
-0.25335276 -0.13007027 0.039985776 -0.47038752 -0.17258194 0.048299212 0.050907206 0.24853916
0.35448474 -0.008785985 0.33369493 -0.13718061 0.19325793 0.021880414 -0.09522788 0.64082766
-0.49105987 -0.15931962 0.21643803 -0.33385664 0.27750146 -0.42930734 -0.49322373 -0.29987136
-0.12415496 -0.0027424973 -0.0021497041 -0.52568716 -0.2669284 -0.22705841 0.24041252 0.26845276
0.034224164 0.15651955 0.14648946 0.032633755 0.053775705 -0.49579874 -0.13416612 -0.09395061
-0.1561255 -0.32018903 -0.42790094 0.3200517 -0.15612952 -0.15401165 0.2806451 0.20129718
0.27762064 -0.08110839 0.122174926 0.010722873 -0.110282324 -0.16842236 0.030290456 0.06608193
0.065199606 0.20210025 0.20406929 0.27228495 -0.14692213 0.30233636 -0.3350297 0.31032354
0.16976142 -0.071201965 -0.07369405 -0.037696682 -0.031420935 0.100283824 -0.2200803 0.08970343
-0.1340239 -0.17822489 -0.04543646 0.2762142 0.8138788 -0.2981722 0.090553954 -0.40344518
0.37568703 -0.35542977 0.2035573 -0.68268806 0.032948263 0.13095684 -0.5579168 -0.56604326
-0.03158488 -0.099817954 -0.043375503 -0.16645175 0.27488127 0.32002708 -0.21272363 0.11705386
00000000: e9f7 3b3f 5e1e 51be 43d6 69bd 5d6a 6cbe
00000010: 8f95 23be af29 523e 97b8 8ebe 013c e93b
00000020: d4ec 7abe e8c1 e1bd a354 7a3d 9899 b03e
00000030: 489e 6e3e 7ed4 37be ffdb 7fbe ac09 ae3d
00000040: 3d47 7a3e 1fa1 65be 6fdb 6f3e 9bc0 223e
00000050: 5441 3ebe a07d fb3d 0f07 e93c 0311 87be
00000060: 86c1 983d 23e0 ab3d 3307 03bc c3b4 323e
00000070: 47a2 9dbd 8cf6 debc 32ae 91bd 9cda e93d
00000080: 0d23 613d 05b8 c33d 94dc 19be 4aab 323e
00000090: 9f61 fc3b 331c 7dbe 348c d6bc 5050 513e
000000a0: f461 27be e3a3 ad3d 8df8 92be 9d61 883e
000000b0: 2d4a 00be 8849 dc3e 8399 34be ab96 e33e
000000c0: 91e3 20be 4817 89bd 7214 623e 1143 bc3b
000000d0: 8e3a c43d f9cb 473e af72 fbbd 5290 bfbe
000000e0: 6d27 243e fea7 7c3e 787b 4b3c 58db 113e
000000f0: 9b00 8ebb 9368 f4be db08 c2bc 4553 17be
00000100: ad37 0dbe 9591 e2be 6133 a1bd 3284 9f3e
00000110: 722a babd c584 823e 0afe 68bd e603 883e
00000120: 1f1c 573e 27e7 70be 043a 4a3e 30ef 3ebe
00000130: d3ed 613e 2a7f 983e 3bb7 47bd f96a 20be
00000140: 135a 8ebd 556d 8b3e 2167 73be 37fa 033e
00000150: b62c 513e 3504 36be 3a32 433c 28f2 103d
00000160: 231b 1f3d bee4 d53d 3e0a 77be c2c4 fc3d
00000170: 4c8e 803d 4d11 a53e e984 f2bd c4c8 c8be
00000180: b76c b53e 2dbe 803d c4bd 6f3e 9faf 293e
00000190: c4a9 2d3e 2e4a 92bd 6ca4 df3e f924 47be
000001a0: 40fd 58bd 7f40 643e 86d8 8ebe 64c6 80be
000001b0: ca9a 353e a53d 82bd 1bba 2e3e cd37 ae3e
000001c0: fa8a 783d 7fe1 763e 0ccf 003d 4534 8ebc
000001d0: 3271 653e 8e46 c2be b9ae 043e 5154 71bd
000001e0: 8d0f 8bbc 7e5d 8dbc e2bb 883d e82e babd
000001f0: e465 4ebf fdc0 403d ee37 173d 9c6a 8a3e
00000200: 9b27 b2bd 4304 a83d 6284 1a3e 38f4 b33e
00000210: 17e0 49be 2dbb 123e 9cba fe3c 0630 403e
00000220: 48d6 9cbb 5281 8f3e fec2 32be 3eb6 94bd
00000230: 84d9 b33d 664f 8b3d 5498 eebe 3182 37bd
00000240: 450c 2c3e e10e b7be c7b1 8abe eda0 eebe
00000250: cf74 263d e94a 483e 922f 47be f734 a6be
00000260: 810c a63d 5a50 da3d bf9d 43be c5ce 6cbc
00000270: 4e10 273e 81c5 88bd 5a83 7bbe 49a5 8abc
00000280: 74b7 81be 2431 05be 20c8 233d a2d6 f0be
00000290: 52b9 30be 65d5 453d 1384 503d 0d81 7e3e
000002a0: 067f b53e 18f3 0fbc 10da aa3e 1379 0cbe
000002b0: 68e5 453e 8e3e b33c d606 c3bd 480d 243f
000002c0: 336c fbbe af24 23be eea1 5d3e 42ef aabe
000002d0: ac14 8e3e 2cce dbbe d287 fcbe bd88 99be
000002e0: f544 febd 78bb 33bb 0de2 0cbb 6f93 06bf
000002f0: d7aa 88be 0082 68be b32e 763e a472 893e
00000300: a32e 0c3d a946 203e 5501 163e f9aa 053d
00000310: ea43 5c3d 55d9 fdbe d862 09be 2d69 c0bd
00000320: 5ddf 1fbe d1ef a3be d515 dbbe d1dd a33e
00000330: 6be0 1fbe 3bb5 1dbe b7b0 8f3e d920 4e3e
00000340: 4b24 8e3e 281c a6bd d936 fa3d fdae 2f3c
00000350: b3db e1bd e976 2cbe b123 f83c f755 873d
00000360: 5f87 853d 5ef3 4e3e 8af7 503e ef68 8b3e
00000370: c172 16be d5cb 9a3e 0389 abbe bae2 9e3e
00000380: f0d5 2d3e 56d2 91bd e8ec 96bd d667 1abd
00000390: 3db3 00bd 9b61 cd3d bb5c 61be 6fb6 b73d
000003a0: 903d 09be 9680 36be 951b 3abd f36b 8d3e
000003b0: 5c5a 503f 07aa 98be 5a74 b93d 5e90 cebe
000003c0: 0d5a c03e e4fa b5be 5371 503e a5c4 2ebf
000003d0: c2f4 063d 8d19 063e a3d3 0ebf 36e8 10bf
000003e0: 265f 01bd 5b6d ccbd 83aa 31bd 5472 2abe
000003f0: 3dbd 8c3e 97da a33e 39d4 59be efb9 ef3d

network_body._body_endoder.seq_layers.0.bias f4 [128]
0.014385812 0.00056601217 -0.106117554 0.056729082 -0.038309738 -0.13869564 0.14818761 -0.068536565
0.16518947 0.056448136 -0.013767749 -0.040987514 0.11019374 0.0023646813 -0.03573021 0.008264324
0.033412185 0.036473006 -0.009243151 -0.22116432 -0.14877 -0.0059818584 -0.11680739 0.05986536
0.014197374 0.11339104 -0.10474705 -0.022409407 0.11757623 -0.13724233 -0.0481059 -0.03539301
0.0055309767 0.04091062 -0.029761042 0.019392595 -0.029406138 -0.15981413 0.08024212 0.0022001618
0.07400825 0.054655485 -0.007998118 0.12029221 0.11353656 -0.06934848 0.06180924 -0.0775244
0.09421493 0.0023001186 0.07879296 0.09888045 0.023830097 -0.11859423 0.032059412 0.10041685
-0.05032401 0.010296626 0.027552621 -0.032589562 0.030015346 -0.06544991 0.018156577 0.005303797
0.08053487 -0.026583213 -0.012200108 0.20009471 0.16373004 -0.08777739 0.12649369 -0.0826022
-0.08472933 -0.007234115 0.015902964 0.08775184 -0.012257746 0.060077723 -0.10693489 0.10439842
0.05906463 0.05109405 -0.0064364756 -0.027516734 -0.07735384 0.047539458 -0.16797023 0.05278478
0.028500082 0.03162582 -0.00028995945 0.03912374 0.04891657 0.01713209 -0.015924005 0.047042515
-0.004602887 0.0040494143 0.017685557 0.054012876 0.020421397 0.004849758 -0.0046477537 0.20698689
0.08116206 0.087639265 0.16761704 0.10895843 0.021810895 0.10941861 0.034170505 0.060445357
0.055521887 -0.116086505 -0.05132851 0.12478329 -0.0018183447 0.07660715 -0.18516119 -0.01043646
0.018820738 0.039783996 0.091155306 0.116033174 -0.01558276 0.16165784 0.007624435 0.047913916
00000000: 78b2 6b3c 6f60 143a 2954 d9bd c15c 683d
00000010: acea 1cbd 3b06 0ebe 7ebe 173e e65c 8cbd
00000020: 6e27 293e 2936 673d 2092 61bc 86e2 27bd
00000030: 41ad e13d c5f8 1a3b d759 12bd 1667 073c
00000040: 37db 083d b864 153d 9670 17bc e678 62be
00000050: 2a57 18be 7703 c4bb b638 efbd 6135 753d
00000060: 1a9c 683c 9039 e83d 9f85 d6bd ef93 b7bc
00000070: cecb f03d 4189 0cbe b10a 45bd 43f8 10bd
00000080: 323d b53b e591 273d 6ecd f3bc 38dd 9e3c
00000090: 24e5 f0bc 51a6 23be fb55 a43d 9730 103b
000000a0: a391 973d 6ede 5f3d 8a0a 03bc c35b f63d
000000b0: db85 e83d 9306 8ebd b02b 7d3d 1dc5 9ebd
000000c0: c2f3 c03d 96bd 163b 345e a13d d581 ca3d
000000d0: 5637 c33c 88e1 f2bd bb50 033d 59a7 cd3d
000000e0: 8d20 4ebd 2eb3 283c 09b6 e13c a27c 05bd
000000f0: bee2 f53c 9a0a 86bd 1abd 943c 79cb ad3b
00000100: 77ef a43d 0ac5 d9bc f6e2 47bc a1e5 4c3e
00000110: d9a8 273e a2c4 b3bd 9087 013e 582b a9bd
00000120: 9286 adbd 280c edbb ef46 823c 3db7 b33d
00000130: b7d4 48bc 0f14 763d ae00 dbbd d7ce d53d
00000140: c1ed 713d ff47 513d 12e9 d2bb c66a e1bc
00000150: b16b 9ebd bcb8 423d 6300 2cbe da34 583d
00000160: 0179 e93c 138a 013d b305 98b9 3740 203d
00000170: be5c 483d 9958 8c3c 0f73 82bc a7af 403d
00000180: d1d3 96bb f3b0 843b 4de1 903c 9b3c 5d3d
00000190: c64a a73c b8ea 9e3b 2f4c 98bb 5ff4 533e
000001a0: 4b38 a63d 377c b33d cda3 2b3e 9925 df3d
000001b0: c3ac b23c dd16 e03d 5ff6 0b3d 8d95 773d
000001c0: eb6a 633d c3be edbd d83d 52bd 628e ff3d
000001d0: 8655 eeba 36e4 9c3d e59a 3dbe b0fd 2abc
000001e0: f32d 9a3c 8bf4 223d a2af ba3d cda2 ed3d
000001f0: d54e 7fbc a289 253e 65d6 f93b 6241 443d

network_body._body_endoder.seq_layers.2.weight f4 [128, 128]
-0.09672221 -0.07251551 -0.005706006 0.068177305 0.07612739 -0.08424701 -0.30309522 -0.08158425
-0.061550286 0.17464036 -0.08610652 -0.03925163 -0.12579134 0.025877235 -0.048987202 -0.1794463
-0.008943049 -0.08893793 -0.061979476 0.26548928 -0.01586226 0.10756238 -0.03234238 0.06382736
-0.1431583 -0.042025656 0.037809733 -0.04019922 -0.22226343 0.10510804 0.046011362 0.08056684
0.004123368 0.13178001 0.12233329 0.10738482 -0.08582421 0.06767251 -0.07007932 -0.01130334
-0.16130285 -0.23911642 0.18381414 0.049205013 -0.055924308 0.03070901 0.08650927 0.027770327
-0.19154726 -0.08351099 0.086890146 -0.24241243 0.048040215 0.0154348165 -0.008527249 -0.16142996
-0.13477187 0.007292108 -0.024294963 -0.1428234 0.01134711 0.049400277 -0.059979282 0.058091816
0.06767136 -0.028194739 0.020611295 0.014881473 -0.21502465 0.13318078 -0.11065455 0.01291313
-0.037739407 -0.0056520994 0.038813196 -0.12029157 0.08264637 0.027039418 -0.071395844 -0.11672186
-0.067992486 0.07025641 -0.0033505093 -0.0001415069 -0.03429439 0.1300797 0.06267194 0.05442626
-0.046515357 0.07369985 0.11400302 0.16393016 -0.0020714293 0.017730633 0.22525655 0.043404438
-0.21067703 0.11277775 0.033355277 0.033951387 0.10657892 0.124164045 0.070281245 -0.14731622
-0.013888738 0.08912172 -0.03792996 -0.1397714 -0.0063053905 -0.12266304 -0.028257092 0.08467675
0.06709972 -0.07321589 0.1045055 -0.24825455 0.22990835 -0.09557736 0.22949766 -0.027982727
0.15840913 0.16776095 -0.08095659 0.04100903 0.18555191 -0.04033356 0.068406 0.13627304
0.0143701695 0.0082296105 -0.037515864 0.20007361 0.10569113 -0.12805912 -0.13245769 -0.024003142
-0.09500911 -0.013270503 0.09900075 0.04393953 -0.12759641 0.15502276 0.010602692 -0.041835733
0.0004259889 0.016947877 0.039228227 -0.13977826 -0.049612615 -0.08784912 -0.06724018 0.023535816
0.030246262 0.018519955 -0.065392666 -0.042614136 -0.17505656 0.040560428 0.00871775 -0.122156225
-0.018445615 0.052408375 0.018438702 0.052036725 -0.04142562 -0.03134356 0.06816557 0.027857007
0.13964422 0.053461008 -0.04087707 0.042968802 -0.07242728 0.10107917 -0.04875287 0.050962683
0.0540502 0.07961055 0.0069193244 -0.13194115 0.0080270665 -0.12064231 -0.026189316 -0.16941078
0.072384305 0.15117799 -0.07117144 0.10539134 0.1530034 -0.047699805 -0.061432116 -0.014650129
0.02746118 -0.14937676 -0.078378975 0.03889453 -0.047950044 0.030619912 -0.011094771 -0.034417823
0.117589004 -0.06250434 0.24589881 -0.04598726 0.10803603 0.0035216818 -0.008967291 0.0013385717
0.10503734 0.0012049539 -0.007696244 0.023197088 0.023047008 0.02445533 -0.0063943486 -0.1500345
0.17821689 -0.08579787 -0.03655032 0.11968541 0.2712092 0.06442461 0.024002606 -0.030235128
-0.06628223 0.037707586 0.10784908 0.077576295 -0.20654099 0.1054547 -0.07021909 -0.15723567
-0.12056953 -0.0023245527 -0.12738223 -0.28067866 -0.14786887 -0.0023061873 0.16830844 -0.07649446
0.19534591 0.04115049 0.059044734 0.012801916 0.13592137 -0.02876975 -0.034198727 0.10824443
0.055836074 0.047435172 -0.0033112268 0.12696847 0.04787919 -0.15756686 -0.0077630477 0.10782045
00000000: 4b16 c6bd 0383 94bd 73f9 babb 8ba0 8b3d
00000010: ade8 9b3d b289 acbd 4c2f 9bbe a515 a7bd
00000020: 271c 7cbd ecd4 323e 9d58 b0bd 51c6 20bd
00000030: 72cf 00be 7ffc d33c cea6 48bd c5c0 37be
00000040: de85 12bc 1725 b6bd 31de 7dbd 36ee 873e
00000050: 92f1 81bc aa49 dc3d 7279 04bd ebb7 823d
00000060: 1798 12be 1823 2cbd 61de 1a3d f0a7 24bd
00000070: 0699 63be e242 d73d 6976 3c3d 3a00 a53d
00000080: 511d 873b 57f1 063e e089 fa3d 93ec db3d
00000090: 9ac4 afbd e397 8a3d bf85 8fbd a531 39bc
000000a0: 932c 25be efda 74be c639 3c3e 328b 493d
000000b0: e310 65bd 7691 fb3c c62b b13d 997e e33c
000000c0: f724 44be cf07 abbd 76f3 b13d f73a 78be
000000d0: d1c5 443d 50e2 7c3c e0b5 0bbc e54d 25be
000000e0: a301 0abe a3f2 ee3b 3b06 c7bc 4c40 12be
000000f0: 3be9 393c f257 4a3d d6ac 75bd aff1 6d3d
00000100: 4897 8a3d a7f8 e6bc 05d9 a83c 6cd1 733c
00000110: 6c2f 5cbe 8b60 083e da9e e2bd 9891 533c
00000120: a394 1abd 3f35 b9bb 96fa 1e3d 6d5b f6bd
00000130: 8042 a93d c581 dd3c fc37 92bd df0b efbd
00000140: a53f 8bbd 98e2 8f3d 3894 5bbb 7861 14b9
00000150: 4678 0cbd 9d33 053e 255a 803d 12ee 5e3d
00000160: e386 3ebd f2ef 963d 6a7a e93d 4fdd 273e
00000170: d1c0 07bb d53f 913c a7a9 663e dac8 313d
00000180: b8bb 57be 05f8 e63d 8b9f 083d 9c10 0b3d
00000190: 0c46 da3d b849 fe3d 9def 8f3d 10da 16be
000001a0: 978d 63bc 7385 b63d 725c 1bbd 3c20 0fbe
000001b0: 739d cebb c336 fbbd 6b7b e7bc 016b ad3d
000001c0: 946b 893d 36f2 95bd fb06 d63d 7136 7ebe
000001d0: 186d 6b3e 10be c3bd 6f01 6b3e 083c e5bc
000001e0: 0136 223e 87c9 2b3e 92cc a5bd 16f9 273d
000001f0: 5201 3e3e ce34 25bd 7218 8c3d 298b 0b3e
00000200: dc70 6b3c 7dd5 063c 3caa 19bd 19e0 4c3e
00000210: 9774 d83d ee21 03be fda2 07be 3da2 c4bc
00000220: 2394 c2bd 866c 59bc e8c0 ca3d f0f9 333d
00000230: a2a8 02be 49be 1e3e eab6 2d3c f25b 2bbd
00000240: 4357 df39 46d6 8a3c c7ad 203d 0822 0fbe
00000250: 9936 4bbd 3dea b3bd 38b5 89bd 2fce c03c
00000260: 02c7 f73c 29b7 973c 97ec 85bd 298c 2ebd
00000270: 0742 33be b122 263d e5d4 0e3c 0b2d fabd
00000280: 421b 97bc 2aaa 563d c30c 973c 7624 553d
00000290: e9ad 29bd 1b62 00bd 649a 8b3d 6134 e43c
000002a0: e5fe 0e3e eef9 5a3d b76e 27bd 0e00 303d
000002b0: c154 94bd 9902 cf3d 17b1 47bd 3fbe 503d
000002c0: be63 5d3d db0a a33d 80bb e23b 951b 07be
000002d0: f583 033c 5113 f7bd fa8a d6bc 057a 2dbe
000002e0: 393e 943d 67ce 1a3e 55c2 91bd 6ad7 d73d
000002f0: ecac 1c3e df60 43bd 3ea0 7bbd 1807 70bc
00000300: 45f6 e03c 39f6 18be 2885 a0bd df4f 1f3d
00000310: 4467 44bd 9cd6 fa3c d8c6 35bc b4f9 0cbd
00000320: 81d2 f03d 4702 80bd e6cc 7b3e 235d 3cbd
00000330: fe41 dd3d 04cc 663b 8beb 12bc 0373 af3a
00000340: d11d d73d 8bef 9d3a c630 fcbb d207 be3c
00000350: 14cd bc3c 8b56 c83c af87 d1bb a5a2 19be
00000360: 7d7e 363e cbb6 afbd cab5 15bd a01d f53d
00000370: efdb 8a3e 0df1 833d 1da1 c43c a9af f7bc
00000380: fabe 87bd 4573 1a3d fadf dc3d 52e0 9e3d
00000390: 7b7f 53be a2f8 d73d 07cf 8fbd 6302 21be
000003a0: 28ed f6bd 8657 18bb 7d70 02be 1db5 8fbe
000003b0: f06a 17be 6723 17bb 0c59 2c3e 21a9 9cbd
000003c0: c208 483e 6b8d 283d e4d8 713d 21bf 513c
000003d0: f92e 0b3e 8aae ebbc f713 0cbd 41af dd3d
000003e0: 5eb4 643d 624b 423d 2b01 59bb 0604 023e
000003f0: f81c 443d 3559 21be 2a61 febb f8d0 dc3d

network_body._body_endoder.seq_layers.2.bias f4 [128]
0.0057303067 -0.0012842118 0.06297996 -0.0046579493 0.06936952 0.0048042363 -0.0037404061 0.13681771
0.046202846 0.047123242 0.09676532 0.08509111 0.10976578 0.073884316 -0.021285105 0.067198634
0.015430854 -0.022711543 0.0379526 0.089791246 0.03173782 0.028834822 0.1164271 -0.00042121264
-0.014147277 0.0045392583 0.004164202 0.0005427034 0.007889043 0.058692995 -0.0036201691 0.004267555
0.016405165 0.056185897 -0.05048147 0.103768036 0.0676776 0.04603874 -0.0006875872 0.010326413
-0.044864934 0.10927945 -0.0028654863 0.038458552 -0.00033082097 -0.023053654 -0.0038773604 0.05303625
0.007227076 0.072584085 0.030504657 0.01818969 0.083226025 -0.018069224 0.021357808 -0.0027532435
0.09020291 -0.027479684 0.010362171 0.0275336 0.0063922843 0.025028612 0.059036564 0.08314955
-0.0067689875 0.087189585 0.0032722973 0.0003263895 0.03386732 0.058654163 0.05634283 -0.006307748
0.04371697 0.06348041 -0.003733327 -0.036694024 0.0070076194 0.030997068 0.026866153 -0.012086828
0.057908524 -0.02941856 0.015001394 -0.013271714 -0.0127629135 0.004538914 -0.0049323183 0.072838075
-0.045103863 -0.0071472437 0.10169822 0.07066211 0.070697024 -0.0029443402 0.08324739 0.08718845
0.011596154 0.04637707 0.066852614 0.03648809 -0.04359949 0.04179909 0.12666276 0.0033507536
0.024533706 -0.053350873 0.067015134 0.06611634 -0.010316823 -0.01801808 0.06992041 0.052757666
0.05737565 0.08482801 0.0042964104 0.06977841 -0.001042758 0.048179843 0.03937173 0.03365642
0.05395546 -0.0054536215 0.011779502 0.037591346 0.097178735 0.037293933 -0.0142877465 0.00240641
00000000: 4cc5 bb3b ff52 a8ba a3fb 803d b6a1 98bb
00000010: 9b11 8e3d db6c 9d3b 9a21 75bb f119 0c3e
00000020: 323f 3d3d 4d04 413d e52c c63d 3f44 ae3d
00000030: e2cc e03d a950 973d 1a5e aebc 709f 893d
00000040: b1d1 7c3c 8f0d babc 2f74 1b3d 79e4 b73d
00000050: 84ff 013d 0137 ec3c 5571 ee3d 34d6 dcb9
00000060: fbc9 67bc 0fbe 943b dc73 883b 3544 0e3a
00000070: 0b41 013c 1168 703d 5c40 6dbb d9d6 8b3b
00000080: 2064 863c 2f23 663d a8c5 4ebd 5684 d43d
00000090: 8e9a 8a3d 1e93 3c3d 323f 34ba 1e30 293c
000000a0: 4bc4 37bd e7cd df3d e2ca 3bbb b786 1d3d
000000b0: 0a72 adb9 04db bcbc 501b 7ebb 8a3c 593d
000000c0: 1cd1 ec3b f7a6 943d e7e4 f93c 8b02 953c
000000d0: 6872 aa3d e905 94bc 92f6 ae3c c36f 34bb
000000e0: 4ebc b83d 131d e1bc 18c6 293c 258e e13c
000000f0: 5e76 d13b ce08 cd3c 53d0 713d 504a aa3d
00000100: 62ce ddbb 7490 b23d 0a74 563b 421f ab39
00000110: 75b8 0a3d 593f 703d bdc7 663d 3ab1 cebb
00000120: 9110 333d 0402 823d d5aa 74bb 794c 16bd
00000130: 2ca0 e53b 90ed fd3c 6816 dc3c d507 46bc
00000140: 7d31 6d3d 31ff f0bc 68c8 753c 9a71 59bc
00000150: 8a1b 51bc 2cbb 943b 499f a1bb 212c 953d
00000160: d4be 38bd 6d33 eabb 2847 d03d 4cb7 903d
00000170: 9ac9 903d d5f5 40bb 9c7d aa3d dc8f b23d
00000180: ccfd 3d3c e2f5 3d3d 06ea 883d 8974 153d
00000190: 6195 32bd 8635 2b3d e2b3 013e 5198 5b3b
000001a0: e9fa c83c 7286 5abd 3b3f 893d 0168 873d
000001b0: e407 29bc a79a 93bc 6f32 8f3d 6c18 583d
000001c0: bb02 6b3d 4fba ad3d e7c8 8c3b fce7 8e3d
000001d0: 27ad 88ba 3a58 453d 4044 213d 50db 093d
000001e0: 6700 5d3d 4bb4 b2bb d0fe 403c 62f9 193d
000001f0: a505 c73d 86c1 183d 2717 6abc dcb4 1d3b

action_model._discrete_distribution.branches.0.weight f4 [4, 128]
0.024176247 0.013075504 0.033051293 0.020735428 -0.032278992 0.13273728 0.0062208604 -0.13721474
-0.039997723 -0.03927572 -0.11363991 -0.050301064 -0.068329215 -0.09683642 0.057356138 -0.007070398
0.007315417 0.093798645 -0.030605102 0.06646393 0.07378902 -0.015056445 -0.04804396 0.0935423
0.03302797 0.03942769 -0.011077484 0.048544593 0.046013884 -0.037225552 -0.008050709 0.030898232
0.03493437 -0.05332783 0.058939163 -0.056840613 0.016003953 0.039930727 0.07758001 0.016058283
0.109116845 -0.07914856 0.08341772 -0.039033417 0.057183817 0.04412233 0.06593978 -0.015756149
0.046834536 -0.039431546 0.04541782 0.021855943 -0.08749703 0.090831675 0.019952014 0.06759459
-0.13742325 0.09387557 0.065171674 0.00013914022 0.036570795 0.00393578 0.02780252 -0.051387962
0.031346228 -0.04395353 0.07233869 0.09319916 0.013047523 -0.02538616 -0.035317652 0.03281566
-0.042313773 -0.058159947 0.055234056 0.11552217 0.010690998 -0.02150826 -0.030400269 0.015159103
-0.045987744 0.091034986 0.07125964 0.056454636 -0.009232006 0.062135663 0.056255843 0.088756
0.050403185 0.07292442 -0.11010731 -0.061298393 -0.01926842 0.045647252 -0.0776659 -0.1192894
0.0090404125 -0.0040993984 -0.055911515 0.052487608 0.092877954 -0.027749013 -0.1479826 0.022504935
-0.027474286 0.079063125 -0.03511854 0.07484334 0.055024497 0.04478112 -0.0048981714 0.101094775
0.064987436 -0.043258693 0.013137851 -0.024115684 0.04697655 0.060826283 0.08607088 0.012236717
-0.061911434 0.1240194 0.032950513 -0.046089645 -0.07185922 -0.007350683 0.075002216 0.055271678
-0.031293124 0.0037206907 0.0013927678 0.002215719 0.057189308 -0.06910884 0.005295319 0.11155976
0.014416518 -0.0020608685 0.07651561 0.06599624 0.068679765 0.0202493 -0.025066312 0.026936743
0.02007638 -0.05682726 0.03704486 -0.001199801 -0.011720976 0.008729713 0.056773912 -0.07104876
-0.03818798 -0.016022302 0.044673573 -0.055852495 0.015730828 -0.0015500938 0.011559975 -0.04898566
0.0037457638 -0.0041482532 -0.0745089 0.11240162 0.018859936 0.03280679 0.011393459 0.00865005
-0.053902887 0.084979326 -0.0830601 0.0021587566 -0.035877407 -0.016342826 -0.00048668616 0.06246536
-0.07251873 0.002711435 0.031503316 0.023027893 0.07350026 -0.053464755 -0.009727739 0.018182173
0.05390799 -0.041935816 -0.08428986 -0.037976626 -0.04846836 -0.07428848 0.0359467 0.042894043
-0.037837155 0.026306998 -0.033476654 -0.06823063 0.025216961 -0.017854579 0.034192406 0.004986555
0.00042760922 0.043591186 -0.052391194 -0.04599025 -0.014333855 -0.0035494477 0.028043497 -0.0032676323
0.008162142 -0.07507964 -0.01790483 -0.018587323 0.018106991 -0.07090509 -0.049520425 -0.03165775
-0.05745585 -0.05567509 0.06512313 0.019607747 0.0020229889 -0.044329457 0.0042816605 0.09083654
0.020534288 0.019732911 0.014730762 0.013074957 -0.058814067 0.02167795 0.08006351 -0.041440986
0.028522417 -0.07107686 0.05461012 -0.02821372 -0.011487467 0.013182864 0.04710812 -0.023068486
0.026893513 0.042933173 -0.0333437 0.05474661 0.016274625 -0.03702539 -0.041256152 0.040396642
0.004375415 -0.07857134 -0.058507815 0.017412934 0.055353522 -0.034868654 -0.014791713 -0.06358352
00000000: 440d c63c a43a 563c cb60 073d 58dd a93c
00000010: fa36 04bd 48ec 073e 5cd8 cb3b 0582 0cbe
00000020: a7d4 23bd 94df 20bd 0bbc e8bd 7d08 4ebd
00000030: 30f0 8bbd 2c52 c6bd 45ee 6a3d ccae e7bb
00000040: 2ab6 ef3b 8119 c03d 8db7 fabc 3e1e 883d
00000050: b31e 973d 4faf 76bc bec9 44bd 1b93 bf3d
00000060: 5648 073d ee7e 213d 567e 35bc b2d6 463d
00000070: 0e79 3c3d d279 18bd 1fe7 03bc 4a1e fd3c
00000080: 5817 0f3d 486e 5abd 316a 713d b4d1 68bd
00000090: b91a 833c 678e 233d 45e2 9e3d a98c 833c
000000a0: a778 df3d a418 a2bd e9d6 aa3d 81e1 1fbd
000000b0: 9439 6a3d 9eb9 343d 6f0b 873d 0a13 81bc
000000c0: 92d5 3f3d f982 21bd 0908 3a3d 3c0b b33c
000000d0: a531 b3bd f505 ba3d 6872 a33c 086f 8a3d
000000e0: aeb8 0cbe d641 c03d ba78 853d 2be6 1139
000000f0: 42cb 153d b7f7 803b 1cc2 e33c 2f7c 52bd
00000100: e764 003d 9e08 34bd 4f26 943d 34df be3d
00000110: 47c5 553c a3f6 cfbc 3ea9 10bd b769 063d
00000120: 3551 2dbd 2039 6ebd 1b3d 623d e396 ec3d
00000130: 4c29 2f3c 1732 b0bc fc09 f9bc e35d 783c
00000140: a55d 3cbd 8d70 ba3d 93f0 913d fa3c 673d
00000150: d741 17bc f781 7e3d 876c 663d b5c5 b53d
00000160: 9273 4e3d 6659 953d f17f e1bd 0614 7bbd
00000170: ced8 9dbc 9df8 3a3d 4d0f 9fbd 004e f4bd
00000180: 3d1e 143c 3f54 86bb 7903 65bd 3ffd 563d
00000190: cc36 be3d e651 e3bc c088 17be 455c b83c
000001a0: c111 e1bc d9eb a13d 75d8 0fbd 7747 993d
000001b0: 5e61 613d 686c 373d d780 a0bb c70a cf3d
000001c0: 2218 853d 0730 31bd 2440 573c 418e c5bc
000001d0: 7c6a 403d fb24 793d ee45 b03d 837c 483c
000001e0: d896 7dbd e2fd fd3d 1ef7 063d 7fc8 3cbd
000001f0: ed2a 93bd 00de f0bb c39a 993d 8e64 623d
00000200: 382d 00bd d5d6 733b 888d b63a 9935 113b
00000210: 563f 6a3d ef88 8dbd 5b84 ad3b 7279 e43d
00000220: 4233 6c3c a30f 07bb 37b4 9c3d 0929 873d
00000230: faa7 8c3d dce1 a53c de57 cdbc 72aa dc3c
00000240: 3877 a43c b3c3 68bd 5abc 173d a442 9dba
00000250: 5609 40bc 1207 0f3c c38b 683d 0382 91bd
00000260: 006b 1cbd 3441 83bc a3fb 363d 96c5 64bd
00000270: f0dd 803c 842c cbba 0d66 3d3c 30a5 48bd
00000280: 7d7b 753b 12ee 87bb 1f98 98bd d232 e63d
00000290: 2780 9a3c 6a60 063d a1ab 3a3c f0b8 0d3c
000002a0: 46c9 5cbd a409 ae3d 6a1b aabd ed79 0d3b
000002b0: 30f4 12bd 64e1 85bc e929 ffb9 addb 7f3d
000002c0: b384 94bd 55b2 313b 9f09 013d fea4 bc3c
000002d0: 4e87 963d dcfd 5abd 1861 1fbc c8f2 943c
000002e0: a0ce 5c3d e4c4 2bbd 2aa0 acbd 618d 1bbd
000002f0: c286 46bd 8f24 98bd d93c 133d aab1 2f3d
00000300: 22fb 1abd c681 d73c d11e 09bd 80bc 8bbd
00000310: cd93 ce3c c443 92bc 560d 0c3d 4166 a33b
00000320: bd30 e039 ac8c 323d 2698 56bd 4660 3cbd
00000330: 8cd8 6abc da9d 68bb 7abb e53c c625 56bb
00000340: 81ba 053c 5bc3 99bd 26ad 92bc 7144 98bc
00000350: 1d55 943c b036 91bd eed5 4abd 8fab 01bd
00000360: d356 6bbd 900b 64bd 475f 853d 6da0 a03c
00000370: 1f94 043b ce92 35bd 2c4d 8c3b 8208 ba3d
00000380: 8637 a83c eaa6 a13c 4b59 713c 5838 563c
00000390: 05e7 70bd f595 b13c 56f8 a33d 06be 29bd
000003a0: d8a7 e93c bf90 91bd dcae 5f3d 7620 e7bc
000003b0: ee35 3cbc f0fc 573c 72f4 403d 1ffa bcbc
000003c0: c94f dc3c b2da 2f3d 6793 08bd fb3d 603d
000003d0: 5d52 853c efa7 17bd 36fc 28bd f376 253d
000003e0: a45f 8f3b 03ea a0bd e4a5 6fbd 92a5 8e3c
000003f0: 60ba 623d 6fd2 0ebd f158 72bc 1438 82bd

action_model._discrete_distribution.branches.0.bias f4 [4]
-0.062587224 0.050798144 0.0061438517 0.012929391
00000000: bb2d 80bd b711 503d 5d52 c93b ccd5 533c

action_model._discrete_distribution.branches.1.weight f4 [3, 128]
-0.05661826 -0.05888274 0.06727149 0.01051184 0.06671952 0.021713737 -0.026637347 0.021356741
0.05036706 0.06330329 0.054016814 0.017803878 0.043517824 0.08789363 -0.02147013 0.1330174
0.04123104 0.020650735 -0.0010964056 0.045809638 0.042946216 -0.0028381473 -0.040503316 0.009010143
-0.0013749003 -0.067230076 0.009064166 -0.021959709 -0.038336936 -0.020752775 0.019621307 -0.04623173
-0.05455211 0.04900083 -0.01973238 0.0051428913 0.028601114 -0.03939513 -0.02220078 -0.019072527
-0.01077846 0.015549866 -0.010458009 0.026993277 -0.020011345 -0.02721933 -0.00721115 0.025708163
-0.045226928 0.057735894 -0.06509562 -0.05514159 0.0009932237 -0.008399758 -0.035076384 -0.044639524
0.004921907 -0.014719033 -0.015324869 0.037438016 -0.018879514 -0.049923785 0.033724822 0.010036401
0.027739337 0.06641044 0.02793621 -0.039324902 -0.04597138 0.07080782 -0.013877276 -0.029396687
0.02918339 0.09229867 -0.03417146 -0.0008062486 0.048142668 0.050215364 0.05027281 0.0047976766
0.111762255 -0.016938087 -0.0118096825 -0.034478355 -0.014721846 -0.04773673 -0.027859092 0.013818553
0.0028993895 -0.038948733 0.010050564 -0.002246206 -0.06864515 -0.029951138 0.050530378 0.032094005
0.029218096 0.00591769 0.050977714 0.013314909 0.07212323 0.02745282 0.05311469 -0.053150173
0.04312787 0.023146728 -0.030189728 0.026224364 -0.02908915 -0.028372359 -0.05215346 0.037317164
-0.06754601 -0.045479275 -0.05096581 -0.054642063 -0.060401183 0.017407984 0.007278671 0.054380234
0.027379971 -0.009569742 -0.013938828 0.06743324 -0.02179289 -0.02729512 -0.046728272 -0.031859566
-0.034231905 -0.020158809 0.05390069 -0.000315105 0.09665101 -0.11530391 0.012960159 0.03955033
0.072678745 0.047778554 0.10794693 0.01453312 0.046009894 0.15268272 -0.026091894 0.06649187
-0.038307436 -0.060431894 0.01662959 -0.0279376 -0.021314489 -0.00743056 0.029111827 -0.05334091
-0.04835766 -0.03579474 0.006549878 -0.05265779 -0.048918083 0.000939791 0.00052812055 -0.008697148
-0.04230545 0.08331003 0.003064661 0.04326116 -0.0073927366 0.031935047 -0.0141696995 0.0018717758
-0.0039497763 0.08407011 -0.02782484 0.073968664 -0.064799964 -0.013926917 0.014729451 -0.006874753
0.021796813 0.12609354 -0.011363383 -0.039971855 0.05321034 -0.0057829483 -0.04628711 -0.04852844
0.06862678 -0.0010911165 -0.016914608 0.13765213 -0.03043625 0.0141986795 0.0033184686 0.083840646
-0.07422768 0.07591269 -0.10746636 -0.069567844 0.01807318 0.046580303 0.06368239 0.022357745
0.055755638 0.055699173 -0.07471153 -0.011083346 0.042791814 0.04369409 0.0051181423 -0.0015646088
0.072352454 0.0067492467 -0.104488686 -0.03521606 0.026448397 -0.053770468 -0.0577513 -0.008723701
-0.029902657 -0.07270593 0.093785726 0.15427935 -0.0001803154 -0.023320124 0.11486877 0.037026055
-0.00812932 -0.0036354873 0.09894417 0.018975828 -0.07667997 -0.028292192 0.12939675 -0.036479574
-0.01513442 -0.03399134 0.037182145 0.017180018 -0.03922491 0.009933808 0.096683554 0.0034348269
-0.015927525 0.093501806 0.0028263174 0.035377085 -0.04868796 -0.02282625 0.015758753 -0.03652189
0.0831841 -0.08241211 -0.051786277 -0.008569723 -0.014620949 -0.015152657 -0.0512793 -0.039089456
00000000: 8ce8 67bd 072f 71bd a3c5 893d da39 2c3c
00000010: 3ea4 883d 02e1 b13c 9136 dabc 55f4 ae3c
00000020: b14d 4e3d 28a5 813d bc40 5d3d 70d9 913c
00000030: bf3f 323d 9301 b43d 20e2 afbc b735 083e
00000040: e1e1 283d bb2b a93c 44b5 8fba e3a2 3b3d
00000050: 5fe8 2f3d 3600 3abb cee6 25bd 479f 133c
00000060: 0036 b4ba ecaf 89bd de81 143c d9e4 b3bc
00000070: 3107 1dbd b901 aabc ddbc a03c 7c5d 3dbd
00000080: 0972 5fbd 18b5 483d cda5 a1bc b385 a83b
00000090: e24c ea3c ca5c 21bd 69de b5bc fd3d 9cbc
000000a0: 2398 30bc ddc4 7e3c 1258 2bbc 0121 dd3c
000000b0: d5ee a3bc 13fb debc 834b ecbb ed99 d23c
000000c0: df3f 39bd 797c 6c3d da50 85bd 26dc 61bd
000000d0: 0f2f 823a 239f 09bc 41ac 0fbd efd7 36bd
000000e0: f347 a13b 1928 71bc 2915 7bbc 9b58 193d
000000f0: 36a9 9abc e27c 4cbd 0a23 0a3d b86f 243c
00000100: 9b3d e33c 3202 883d 7bda e43c 2613 21bd
00000110: 7c4c 3cbd b103 913d 845d 63bc 52d1 f0bc
00000120: 0112 ef3c 1607 bd3d 5ff7 0bbd 6d5a 53ba
00000130: 3f31 453d a0ae 4d3d ddea 4d3d d435 9d3b
00000140: 9ce3 e43d bec1 8abc 667d 41bc 2d39 0dbd
00000150: e633 71bc 9787 43bd c038 e4bc 3667 623c
00000160: af03 3e3b b588 1fbd 1fab 243c 1535 13bb
00000170: d495 8cbd 175c f5bc f1f8 4e3d 0175 033d
00000180: ca5a ef3c 2fe9 c13b 02ce 503d c726 5a3c
00000190: 58b5 933d bde4 e03c ca8e 593d ffb3 59bd
000001a0: d9a6 303d 359e bd3c 7350 f7bc 7ad4 d63c
000001b0: 5e4c eebc 266d e8bc de9e 55bd e2d9 183d
000001c0: 9055 8abd 7a48 3abd 86c1 50bd 5bd0 5fbd
000001d0: 3b67 77bd 309b 8e3c eb81 ee3b cfbd 5e3d
000001e0: f64b e03c 68ca 1cbc af5f 64bc 701a 8a3d
000001f0: 0187 b2bc 049a dfbc 2566 3fbd 2d7f 02bd
00000200: c136 0cbd 1624 a5bc f8c6 5c3d ad34 a5b9
00000210: f7f0 c53d 7524 ecbd d956 543c 87ff 213d
00000220: 98d8 943d 72b3 433d 4813 dd3d 531c 6e3c
00000230: df74 3c3d dc58 1c3e abbe d5bc e42c 883d
00000240: 42e8 1cbd 6f87 77bd c73a 883c 65dd e4bc
00000250: b99b aebc 0e7c f3bb ed7b ee3c ff7b 5abd
00000260: af12 46bd 819d 12bd 5ca0 d63b b2af 57bd
00000270: 545e 48bd 4e5c 763a 9271 0a3a 7c7e 0ebc
00000280: 7b48 2dbd 739e aa3d 7bd8 483b 9d32 313d
00000290: c53e f2bb 53ce 023d 0728 68bc 6056 f53a
000002a0: 206d 81bb f32c ac3d ebf0 e3bc e27c 973d
000002b0: d8b5 84bd b92d 64bc cc53 713c 9c45 e1bb
000002c0: 3b8f b23c aa1e 013e 7c2d 3abc 87b9 23bd
000002d0: 16f3 593d e37e bdbb 8d97 3dbd c2c5 46bd
000002e0: 328c 8c3d cb03 8fba 8190 8abc aef4 0c3e
000002f0: 7155 f9bc 94a1 683c aa7a 593b a5b4 ab3d
00000300: af04 98bd 1d78 9b3d 5317 dcbd 9679 8ebd
00000310: 350e 943c fdca 3e3d ea6b 823d 9727 b73c
00000320: 0660 643d d124 643d 5c02 99bd ec96 35bc
00000330: 7846 2f3d 93f8 323d 17b6 a73b 8f13 cdba
00000340: 862d 943d c928 dd3b 2afe d5bd b73e 10bd
00000350: 4faa d83c 6c3e 5cbd a18c 6cbd dbed 0ebc
00000360: 6bf6 f4bc d9e6 94bd bb12 c03d 68fb 1d3e
00000370: 0c13 3db9 d809 bfbc 5140 eb3d a2a8 173d
00000380: d730 05bc 5b41 6ebb 3ea3 ca3d 3273 9b3c
00000390: 630a 9dbd 07c5 e7bc 9580 043e 9b6b 15bd
000003a0: 5cf6 77bc 813a 0bbd 4e4c 183d 1cbd 8c3c
000003b0: 4daa 20bd 69c1 223c 0702 c63d d51a 613b
000003c0: 717a 82bc e07d bf3d bd39 393b 90e7 103d
000003d0: 076d 47bd 1efe babc 8018 813c fa97 15bd
000003e0: 6d5c aa3d aec7 a8bd d91d 54bd 0668 0cbc
000003f0: b48c 6fbc da42 78bc 3e0a 52bd 441c 20bd

action_model._discrete_distribution.branches.1.bias f4 [3]
0.002203077 -0.0052018133 0.007659466
00000000: 8061 103b f973 aabb 42fc fa3b
