results/companionv2/CompanionBehavior.onnx (onnx, 91694 bytes, 9 tensors)

discrete_act_size_vector f4 [1, 2]
4.0 3.0
00000000: 0000 8040 0000 4040

network_body._body_endoder.seq_layers.0.weight f4 [128, 28]
0.5349427 -0.023225078 -0.0570891 -0.2504376 -0.1237232 0.22159381 -0.29586977 -0.0024161616
-0.18916383 -0.07600977 0.061115872 0.314311 0.006788063 -0.037843473 -0.24986266 0.05970921
0.18247339 -0.28953344 0.23423551 0.17504092 -0.19754373 0.08877957 0.028445749 -0.24391823
0.11077912 0.0017672963 -0.007997322 0.19839457 0.03237808 -0.0996449 -0.07113303 0.15429111
0.027370648 0.084146574 -0.13784567 0.1765911 -0.014372099 -0.20410742 -0.026189901 0.20324904
-0.043634083 -0.10500714 -0.28705254 0.25614166 -0.16507873 0.3013367 -0.17636685 0.42605683
-0.1675336 -0.15993948 0.22078112 -0.002283746 0.11456987 0.09216278 -0.122777335 -0.35372484
0.12802978 0.2884533 0.012419574 0.12888706 -0.013034853 -0.47199258 -0.030357685 -0.15491351
-0.12928668 -0.39818668 -0.07871128 0.29661357 -0.1168411 0.21035767 -0.056882896 0.23188126
0.13438135 -0.35599524 0.19748694 -0.20664679 0.20118792 0.22817996 -0.048758727 -0.15504614
-0.060534578 0.14924894 -0.2376981 0.16409399 0.008682648 -0.058194812 0.01191383 -0.0069119968
0.07312188 0.11763319 -0.23595706 0.13013949 0.07925222 0.31903094 -0.11841757 -0.39458358
0.15730461 0.15593192 0.23412234 0.13927007 0.08280969 -0.07789461 0.4368013 -0.16092342
-0.09039024 0.19716768 -0.2789957 -0.21613741 0.18555675 -0.13971646 0.17063181 0.37819055
0.11639657 0.19210924 0.031447455 0.017535074 0.20317186 -0.3800426 0.13509648 -0.051883608
-0.02886932 0.019176442 0.06676461 -0.08854396 -0.7376434 -0.096161336 0.036918573 0.25896338
-0.14962701 -0.031242307 0.15089563 0.33733517 -0.22534563 0.059408747 0.031094842 0.18052194
-0.005899644 0.19303764 -0.17457196 -0.052657597 0.049482163 0.110923044 -0.46600592 -0.05479851
0.17189166 -0.35870516 -0.27479896 -0.45880237 0.013778935 0.2003755 -0.1945174 -0.31159416
0.03508427 0.18881378 -0.19103144 -0.012136064 0.10131029 -0.07331041 -0.24561825 -0.004616444
-0.24933589 -0.0052713538 0.039985776 -0.40234306 -0.21640514 0.07797123 0.050907206 0.30761337
0.28247625 0.018087627 0.33369493 -0.17101133 0.20720369 0.030646522 -0.11161202 0.6270431
-0.4452601 -0.18083173 0.21643803 -0.33920866 0.1979509 -0.3001543 -0.49322373 -0.29690275
-0.057853285 0.08795555 -0.0021497041 -0.5185593 -0.23279496 -0.1378652 0.24041252 0.27297384
0.028444154 0.23909898 0.14648946 0.018015431 -0.0038720006 -0.31353736 -0.13416612 -0.1140096
-0.15169469 -0.28682792 -0.4423155 0.29105264 -0.10554514 -0.064988054 0.2806451 0.16771707
0.18637867 -0.043792624 0.122174926 -0.020382615 -0.12631558 -0.28358012 0.030290456 0.053369533
0.06778683 0.13488495 0.20406929 0.26846516 -0.11779504 0.19656783 -0.3350297 0.33262336
-0.090211876 0.08680873 -0.07369405 -0.1053902 0.0032472764 0.10830424 -0.25706655 0.06482768
-0.06913908 -0.18929064 -0.04543646 0.23151623 0.5490217 -0.09698362 0.090553954 -0.4322587
0.37774378 -0.26330113 0.2035573 -0.6481463 0.0029841429 0.19399029 -0.5579168 -0.51092494
-0.038462184 -0.07364226 -0.043375503 -0.16624963 0.2898881 0.2547954 -0.21272363 0.105081946
00000000: 01f2 083f 8542 bebc 43d6 69bd 5b39 80be
00000010: 9762 fdbd 7de9 623e 3e7c 97be 7758 1ebb
00000020: 2ab4 41be 03ab 9bbd a354 7a3d 5fed a03e
00000030: 666e de3b c201 1bbd ffdb 7fbe a591 743d
00000040: 4eda 3a3e ba3d 94be 6fdb 6f3e ed3d 333e
00000050: e748 4abe 10d2 b53d 0f07 e93c b3c5 79be
00000060: 2ae0 e23d a0a4 e73a 3307 03bc f227 4b3e
00000070: e19e 043d a012 ccbd 32ae 91bd 7dfe 1d3e
00000080: 6938 e03c 0a55 ac3d 6a27 0dbe 4cd4 343e
00000090: f478 6bbc 8901 51be 348c d6bc 8420 503e
000000a0: a7b9 32bd fc0d d7bd 8df8 92be 0025 833e
000000b0: 660a 29be ce48 9a3e 8399 34be 1f24 da3e
000000c0: ee8d 2bbe 2dc7 23be 7214 623e e6aa 15bb
000000d0: 9ca3 ea3d d7bf bc3d af72 fbbd 6c1b b5be
000000e0: 3d1a 033e 27b0 933e 787b 4b3c f8fa 033e
000000f0: 2390 55bc 03a9 f1be aeb0 f8bc a6a1 1ebe
00000100: ba63 04be 20df cbbe 6133 a1bd bcdd 973e
00000110: 634a efbd 0068 573e 0afe 68bd 4872 6d3e
00000120: 449b 093e 0245 b6be 043a 4a3e 379b 53be
00000130: 3504 4e3e 02a8 693e 3bb7 47bd 6ac4 1ebe
00000140: 1bf3 77bd b7d4 183e 2167 73be 4108 283e
00000150: aa41 0e3c af5d 6ebd 3a32 433c 087e e2bb
00000160: edc0 953d abe9 f03d ba9e 71be 4943 053e
00000170: fd4e a23d 0658 a33e e984 f2bd dc06 cabe
00000180: 7614 213e 9eac 1f3e c4bd 6f3e d09c 0e3e
00000190: 2098 a93d 3687 9fbd 6ca4 df3e 1cc9 24be
000001a0: 851e b9bd 53e6 493e 86d8 8ebe 2053 5dbe
000001b0: 9702 3e3e d511 0fbe 1bba 2e3e 31a2 c13e
000001c0: 5361 ee3d 49b8 443e 0ccf 003d b7a5 8f3c
000001d0: 490c 503e f294 c2be bb56 0a3e e883 54bd
000001e0: 5a7f ecbc ea17 9d3c e2bb 883d 8956 b5bd
000001f0: 33d6 3cbf 3cf0 c4bd ee37 173d d996 843e
00000200: d337 19be deef ffbc 6284 1a3e 32b7 ac3e
00000210: 01c1 66be 9656 733d 9cba fe3c beda 383e
00000220: cd51 c1bb a9ab 453e fec2 32be 7eaf 57bd
00000230: cfad 4a3d 9f2b e33d 5498 eebe 6774 60bd
00000240: 5e04 303e 34a8 b7be 73b2 8cbe 25e8 eabe
00000250: 0bc1 613c 3c2f 4d3e 922f 47be 4589 9fbe
00000260: 86b4 0f3d 6658 413e bf9d 43be 57d6 46bc
00000270: c57b cf3d c523 96bd 5a83 7bbe 8a45 97bb
00000280: e851 7fbe 52bb acbb 20c8 233d e9ff cdbe
00000290: 4f99 5dbe 61af 9f3d 1384 503d 807f 9d3e
000002a0: baa0 903e 812c 943c 10da aa3e 981d 2fbe
000002b0: 342d 543e 6a0e fb3c d894 e4bd e685 203f
000002c0: 22f9 e3be f42b 39be eea1 5d3e c2ac adbe
000002d0: a4b3 4a3e d3ad 99be d287 fcbe a303 98be
000002e0: 91f7 6cbd 0a22 b43d 0de2 0cbb 4dc0 04bf
000002f0: cd61 6ebe 892c 0dbe b32e 763e 3ac3 8b3e
00000300: b703 e93c 5dd6 743e 5501 163e 1995 933c
00000310: 64c1 7dbb f887 a0be d862 09be dd7d e9bd
00000320: da55 1bbe 1cdb 92be 2d77 e2be da04 953e
00000330: 0d28 d8bd 7518 85bd b7b0 8f3e 06be 2b3e
00000340: 0dda 3e3e e55f 33bd d936 fa3d 71f9 a6bc
00000350: df58 01be 6a31 91be b123 f83c 039a 5a3d
00000360: d2d3 8a3d 481f 0a3e 8af7 503e 4474 893e
00000370: 873e f1bd 1449 493e 0389 abbe 9c4d aa3e
00000380: 01c1 b8bd c7c8 b13d e8ec 96bd d1d6 d7bd
00000390: 42d0 543b 9dce dd3d 3a9e 83be 60c4 843d
000003a0: ca98 8dbd 68d5 41be 951b 3abd 9712 6d3e
000003b0: b08c 0c3f 599f c6bd 5a74 b93d 0351 ddbe
000003c0: a267 c13e 68cf 86be 5371 503e eaec 25bf
000003d0: 9c91 433b 64a5 463e a3d3 0ebf facb 02bf
000003e0: 868a 1dbd c1d1 96bd 83aa 31bd 583d 2abe
000003f0: 376c 943e 8b74 823e 39d4 59be 3435 d73d

network_body._body_endoder.seq_layers.0.bias f4 [128]
-0.0026313807 0.008032176 -0.11261934 0.05471476 -0.030802086 -0.13821074 0.1363173 -0.08523485
0.13032304 0.049264837 -0.010497268 -0.035450984 0.09658557 -0.016129015 -0.028923372 -0.0043398454
-0.020550622 0.028211454 -0.016893584 -0.20085597 -0.14298868 -0.0050674495 -0.12639397 0.043535713
0.008688837 0.10886654 -0.10303779 -0.016006023 0.10546274 -0.14536922 -0.05516744 -0.024230285
-0.0038051119 0.045209587 -0.033941202 0.018261967 -0.10385698 -0.18012615 0.07203216 -0.0057646357
-0.017302524 0.042528123 -0.0108548915 0.050531145 0.09889065 -0.06445185 0.037014917 -0.06493055
0.082863964 0.009480301 0.054948047 0.06871422 0.031698678 -0.12532106 0.0210391 0.0913346
-0.036091287 0.018169947 0.011128614 -0.028414533 0.036274645 -0.055130202 0.014120551 0.0027204826
0.047764067 -0.02071753 -0.018798893 0.15248013 0.08758943 -0.086365156 0.10725186 -0.08938575
-0.08313621 -0.00794735 0.010663797 0.07667896 -0.0037908626 0.049573854 -0.1071298 0.013503981
0.060951468 0.062443193 -0.00032545012 -0.023277672 -0.07528814 0.048307974 -0.15823376 0.037978556
0.03474163 0.030453548 0.010245099 0.044529952 0.056342784 0.020420209 -0.012426467 0.041336443
-0.008231534 0.00870346 0.01924166 0.061023865 0.02674824 0.011644547 -0.009278846 0.19605848
0.04965082 0.088449076 0.15789688 0.09439239 0.0147997355 0.101827845 0.031658288 0.07014795
0.060512073 -0.11219272 -0.050066747 0.10416041 0.005168374 0.028340798 -0.1718996 0.00086305296
0.030223347 0.042945348 0.052345283 0.0549051 -0.012484195 0.15165295 0.017067287 0.040952064
00000000: 3e73 2cbb 6399 033c f8a4 e6bd 961c 603d
00000010: a854 fcbc 1e87 0dbe c396 0b3e 9c8f aebd
00000020: 6773 053e edc9 493d bcfc 2bbc 0d35 11bd
00000030: a8ce c53d ff20 84bc b5f0 ecbc 4335 8ebb
00000040: c759 a8bc b51b e73c 6a64 8abc 30ad 4dbe
00000050: a06b 12be d90c a6bb 6c6d 01be 8152 323d
00000060: a05b 0e3c 6cf5 de3d 7a05 d3bd 101f 83bc
00000070: d9fc d73d abdb 14be 41f7 61bd 977e c6bc
00000080: 2f5f 79bb b02d 393d ee05 0bbd 1f9a 953c
00000090: f8b2 d4bd fd72 38be 9985 933d 45e5 bcbb
000000a0: 06be 8dbc f831 2e3d b7d8 31bc bff9 4e3d
000000b0: 2e87 ca3d 55ff 83bd f49c 173d 4ffa 84bd
000000c0: 95b4 a93d 4453 1b3c 3411 613d 0aba 8c3d
000000d0: 79d6 013d 2a54 00be 315a ac3c a20d bb3d
000000e0: 75d4 13bd 24d9 943c ca54 363c 98c5 e8bc
000000f0: b994 143d 35d0 61bd e259 673c 204a 323b
00000100: 41a4 433d cfb7 a9bc 2300 9abc c023 1c3e
00000110: 1662 b33d 37e0 b0bd dda6 db3d e00f b7bd
00000120: 5143 aabd 9a35 02bc 35b7 2e3c dc09 9d3d
00000130: 1f70 78bb f40d 4b3d de66 dbbd cd3f 5d3c
00000140: 3fa8 793d 6fc4 7f3d 2da1 aab9 d1b0 bebc
00000150: ab30 9abd 95de 453d 0808 22be 678f 1b3d
00000160: 3d4d 0e3d b879 f93c 0fdb 273c 0a65 363d
00000170: b1c7 663d 4848 a73c 6198 4bbc 6750 293d
00000180: 8edd 06bc f598 0e3c b0a0 9d3c 29f4 793d
00000190: 201f db3c c5c8 3e3c 4d06 18bc 8ec3 483e
000001a0: a95e 4b3d ca24 b53d b8af 213e cc50 c13d
000001b0: 977a 723c 1e8b d03d 1fac 013d baa9 8f3d
000001c0: 82db 773d 4cc5 e5bd ca12 4dbd 0e52 d53d
000001d0: 775b a93b f62a e83c 7306 30be 813e 623a
000001e0: f496 f73c 76e7 2f3d 0268 563d 2ce4 603d
000001f0: 828a 4cbc e94a 1b3e b2d0 8b3c 5abd 273d

network_body._body_endoder.seq_layers.2.weight f4 [128, 128]
-0.08949662 -0.07063422 0.014522335 0.0587596 0.07097168 -0.092185676 -0.28598192 -0.072633244
-0.04473106 0.17728148 -0.09235553 -0.044079993 -0.110381596 0.012220453 -0.047827832 -0.18652007
0.0043173186 -0.08634707 -0.06619523 0.2570754 -0.030498859 0.10143149 -0.03994069 0.07641978
-0.1443137 -0.036439706 0.030031927 -0.0076526995 -0.20912921 0.10151093 0.04179479 0.10028517
-0.0013548541 0.1421196 0.121933304 0.10506399 -0.08396859 0.058733206 -0.05255405 -0.011999447
-0.14560816 -0.22693518 0.19386563 0.059155118 -0.053566065 0.006713513 0.08124369 0.034100827
-0.18256968 -0.08723337 0.09135658 -0.17854461 0.052313615 0.004129092 -0.0057152067 -0.15454231
-0.13361795 0.011411391 -0.022114282 -0.15132459 0.009432814 0.050355244 -0.0653568 0.06261755
0.061248574 -0.032581314 0.02707654 0.02958891 -0.19011764 0.12409434 -0.10250419 0.006074734
-0.042576324 0.00094128476 0.040145434 -0.12345404 0.07835954 0.042295244 -0.086048275 -0.11466949
-0.07028559 0.07247953 -0.008323206 -0.011826777 -0.05508641 0.1407692 0.05353348 0.06370073
-0.045927234 0.07640238 0.11158371 0.15795499 0.0051727146 0.01666324 0.22878587 0.043783326
-0.2100494 0.102776706 0.042075887 0.031403214 0.104331054 0.119251505 0.06571792 -0.14361893
-0.0056586517 0.09228283 -0.030530753 -0.106258176 -0.004799731 -0.123115934 -0.03440317 0.080957256
0.068936996 -0.07815645 0.11252749 -0.21631551 0.23472537 -0.08257156 0.22215155 -0.03406625
0.16424108 0.16785926 -0.066103995 0.04544513 0.18547387 -0.07062063 0.07437807 0.13502498
0.0292837 0.0071782363 -0.04524473 0.19254623 0.097158685 -0.1402164 -0.11028239 -0.026390085
-0.077414304 -0.002798661 0.08822406 0.03544941 -0.104573235 0.18589522 0.0062771356 -0.053570807
-0.006873742 0.023803148 0.064522915 -0.15366243 -0.06495605 -0.07482557 -0.07973849 0.030102449
0.03120468 0.034121037 -0.074508905 -0.03650979 -0.14765956 0.029616876 0.011446978 -0.11869593
-0.02141496 0.053997442 0.028649438 0.070483185 -0.046827246 -0.046222106 0.083974466 0.032614958
0.14099994 0.06194093 -0.02761161 0.042199668 -0.06855399 0.08356048 -0.060400315 0.05438861
0.067382395 0.08269221 0.00293622 -0.08500145 0.0070059113 -0.13027297 -0.015034365 -0.16503271
0.08418947 0.14435078 -0.06539628 0.10573808 0.15049265 -0.021513555 -0.06736728 -0.0022291648
0.017338853 -0.14209399 -0.030843189 0.026820647 -0.03905955 0.02963678 -0.0049562426 -0.04539327
0.10309677 -0.050835997 0.25730124 -0.04434898 0.11089547 0.007813829 -0.026633838 -0.0028396572
0.110318944 0.0016031376 -0.01359007 0.0001437577 0.009341446 0.029134357 -0.019729987 -0.13691103
0.17913489 -0.087925285 -0.032764338 0.13291489 0.26844504 0.055866558 0.038829934 -0.028531035
-0.059687488 0.019696336 0.093921855 0.08546615 -0.21014209 0.104723714 -0.06644341 -0.15660098
-0.109541 0.01701332 -0.1272191 -0.21021341 -0.12065955 0.01293981 0.19896989 -0.07372652
0.19428952 0.02943477 0.07118442 0.0544108 0.15409938 -0.014790286 -0.046878505 0.11947145
0.060869344 0.050181743 0.005076563 0.123552 0.053700797 -0.20262058 0.0046234718 0.12730634
00000000: 014a b7bd ada8 90bd 16ef 6d3c e8ad 703d
00000010: 9a59 913d d8cb bcbd 396c 92be bdc0 94bd
00000020: ea37 37bd 4789 353e e524 bdbd 398d 34bd
00000030: bf0f e2bd 4b38 483c 1ee7 43bd 1eff 3ebe
00000040: 4b78 8d3b bcd6 b0bd 5d91 87bd 639f 833e
00000050: bed8 f9bc 50bb cf3d d998 23bd f981 9c3d
00000060: f8c6 13be cd41 15bd 8405 f63c 7fc3 fabb
00000070: f825 56be f6e4 cf3d 0431 2b3d 5062 cd3d
00000080: 5c95 b1ba cd87 113e 2bb8 f93d ca2b d73d
00000090: b9f7 abbd 3b92 703d ea42 57bd 5499 44bc
000000a0: 4e1a 15be b261 68be b684 463e a34c 723d
000000b0: 1768 5bbd 07fd db3b 1763 a63d 4fad 0b3d
000000c0: 8cf3 3abe 69a7 b2bd 2919 bb3d 66d4 36be
000000d0: cd46 563d 564d 873b a146 bbbb 5740 1ebe
000000e0: 25d3 08be d8f6 3a3c 0329 b5bc d5f4 1abe
000000f0: 178c 1a3c 4d41 4e3d c9d9 85bd a13d 803d
00000100: c9df 7a3d fc73 05bd 9fcf dd3c 7164 f23c
00000110: 33ae 42be 2c25 fe3d b7ed d1bd 900e c73b
00000120: 8364 2ebd 8dc0 763a 8a6f 243d 79d5 fcbd
00000130: f77a a03d c73d 2d3d 143a b0bd d6d7 eabd
00000140: e4f1 8fbd 2670 943d 0e5e 08bc 19c5 41bc
00000150: 4aa2 61bd cd25 103e ec45 5b3d 8775 823d
00000160: 321e 3cbd da78 9c3d 0086 e43d f4be 213e
00000170: e07f a93b 5981 883c d846 6a3e 2556 333d
00000180: 3117 57be 987c d23d c457 2c3d a8a0 003d
00000190: 85ab d53d 223a f43d 1e97 863d d710 13be
000001a0: 366c b9bb c8fe bc3d a11b fabc e39d d9bd
000001b0: 1047 9dbb 3524 fcbd 57ea 0cbd ebcc a53d
000001c0: d72e 8d3d 7d10 a0bd d074 e63d d081 5dbe
000001d0: d95b 703e 471b a9bd b27b 633e 0d89 0bbd
000001e0: d02e 283e 4ce3 2b3e 8861 87bd ac24 3a3d
000001f0: ddec 3d3e 8da1 90bd 8853 983d fd43 0a3e
00000200: 5fe4 ef3c 6937 eb3b 8a52 39bd d72a 453e
00000210: 22fb c63d e394 0fbe bcdb e1bd 0530 d8bc
00000220: 648b 9ebd bd69 37bb d1ae b43d 6733 113d
00000230: 7e2a d6bd 515b 3e3e 6eb0 cd3b 106d 5bbd
00000240: 213d e1bb d2fe c23c 9724 843d af59 1dbe
00000250: ad07 85bd 263e 99bd ef4d a3bd 6999 f63c
00000260: f5a0 ff3c 80c2 0b3d 2098 98bd 4a8b 15bd
00000270: 1134 17be 179f f23c 1b8c 3b3c da16 f3bd
00000280: 6d6e afbc 6c2c 5d3d 3ab2 ea3c 7d59 903d
00000290: edcd 3fbd 6453 3dbd cefa ab3d 4397 053d
000002a0: 4a62 103e c6b5 7d3d be31 e2bc 8fd9 2c3d
000002b0: 0966 8cbd c221 ab3d 5266 77bd 97c6 5e3d
000002c0: c8ff 893d 895a a93d 996d 403b 3d15 aebd
000002d0: d891 e53b 4766 05be b252 76bc 56fe 28be
000002e0: 876b ac3d b1d0 133e 7cee 85bd 358d d83d
000002f0: bf1a 1a3e 323d b0bc dbf7 89bd 2e17 12bb
00000300: 360a 8e3c 1681 11be dbaa fcbc f9b6 db3c
00000310: e8fc 1fbd d5c8 f23c fa67 a2bb 4bee 39bd
00000320: 6624 d33d 6839 50bd fdbc 833e 47a7 35bd
00000330: 2a1d e33d 9305 003c 352f dabc 8b19 3abb
00000340: e6ee e13d 5f20 d23a e3a8 5ebc aabd 1639
00000350: dd0c 193c 2dab ee3c c8a0 a1bc 6832 0cbe
00000360: 236f 373e 2c12 b4bd e633 06bd d71a 083e
00000370: a171 893e 55d4 643d 230c 1f3d ebb9 e9bc
00000380: de7a 74bd 365a a13c 1a5a c03d e008 af3d
00000390: 7d2f 57be 6379 d63d 7c13 88bd 025c 20be
000003a0: 0857 e0bd 855f 8b3c b945 02be 2f42 57be
000003b0: 5b1c f7bd 7f01 543c c3be 4b3e eefd 96bd
000003c0: d5f3 463e 3021 f13c 23c9 913d dcdd 5e3d
000003d0: 3acc 1d3e f552 72bc ad03 40bd 73ad f43d
000003e0: 2252 793d 5f8b 4d3d 4c59 a63b d508 fd3d
000003f0: 5ef5 5b3d c57b 4fbe 7e80 973b 985c 023e

network_body._body_endoder.seq_layers.2.bias f4 [128]
0.013778645 0.0118839955 0.027826345 -0.027297093 0.06502711 0.0074555012 0.008218156 0.12683648
0.043334235 0.044742044 0.09462378 0.0822887 0.09235325 0.07469752 -0.014861724 0.04861922
-0.020282185 -0.02315502 0.03995854 0.013008335 -0.016953537 0.035791863 0.12107517 0.006539773
-0.0110532995 0.010246518 0.012858382 0.005990896 0.009570931 0.06075374 -0.014018675 0.014576008
0.019799255 0.055656858 -0.024038378 0.08514602 0.009154369 0.022202859 -0.005203823 0.020691508
-0.050875135 0.098772526 0.008507008 0.03788823 0.0065936795 -0.02255717 -0.00018536564 0.041046865
0.027421137 0.067417406 0.0294322 0.02215696 0.08887853 -0.046703763 0.023998875 -0.0010305104
0.09587198 -0.040792488 0.02121401 0.030702211 0.009612546 0.03636396 0.016426709 0.08065251
-0.0131347105 0.072467715 -1.9876248e-05 0.011073126 -0.0031000597 0.056963712 0.05907939 0.003504532
0.04615642 0.05908623 0.0025659618 -0.05050096 0.004507652 0.03795097 0.019022737 -0.010345557
0.05578011 -0.040762533 0.0132408785 -0.004254202 -0.0118973125 0.01573278 0.003143695 -0.0012403653
-0.044347655 0.0015387884 0.09936534 0.07134795 0.07293319 0.009399519 0.08381471 0.09033712
-0.005735042 0.012419657 0.07144989 0.0028395294 -0.050216444 0.02806958 0.12087441 0.011408815
0.015236649 -0.042828128 0.076748125 0.00036786532 -0.00017856088 -0.014657429 0.06699869 -0.019643512
0.04659084 0.092366084 0.0170634 0.07406918 0.0024837356 -0.021731311 -0.011817545 0.008182769
0.057286896 0.0010472664 0.018700367 0.026342282 0.105933845 0.04730889 -0.0096787065 0.014300422
00000000: d3bf 613c 17b5 423c 13f4 e33c 279e dfbc
00000010: ef2c 853d 474d f43b 72a5 063c 6ce1 013e
00000020: 3d7f 313d 6f43 373d 1dca c13d fa86 a83d
00000030: b323 bd3d 03fb 983d 977e 73bc f224 473d
00000040: d326 a6bc 99af bdbc 91ab 233d e920 553c
00000050: 25e2 8abc 7d9a 123d 42f6 f73d 984b d63b
00000060: e618 35bc 03e1 273c f7ab 523c 474f c43b
00000070: 65cf 1c3c ead8 783d 96ae 65bc 35d0 6e3c
00000080: 0c32 a23c 72f8 633d 22ec c4bc 0961 ae3d
00000090: 35fc 153c c5e2 b53c d584 aabb 3d81 a93c
000000a0: 7262 50bd 4049 ca3d fa60 0b3c b030 1b3d
000000b0: cb0f d83b d0c9 b8bc b65e 42b9 c220 283d
000000c0: 4ba2 e03c 2312 8a3d cc1b f13c 8382 b53c
000000d0: f205 b63d 724c 3fbd 4a99 c43c 3112 87ba
000000e0: 8758 c43d 0616 27bd 01c9 ad3c 3483 fb3c
000000f0: f17d 1d3c 60f2 143d 4e91 863c 252d a53d
00000100: f832 57bc f469 943d ebbb a6b7 0f6c 353c
00000110: 5f2a 4bbb c852 693d 3bfd 713d 4aac 653b
00000120: 840e 3d3d 6704 723d b229 283b 18da 4ebd
00000130: edb4 933b 7a72 1b3d 92d5 9b3c 6980 29bc
00000140: af79 643d 9df6 26bd 45f0 583c d566 8bbb
00000150: f2ec 42bc 08e2 803c 7306 4e3b c193 a2ba
00000160: e3a5 35bd 2cb1 c93a 0e80 cb3d e01e 923d
00000170: ff5d 953d 7100 1a3c 0ca7 ab3d ab02 b93d
00000180: 05ed bbbb d17b 4b3c 5254 923d 6617 3a3b
00000190: c2af 4dbd 2df2 e53c 018d f73d 0aec 3a3c
000001a0: 23a3 793c 8c6c 2fbd 1f2e 9d3d 0cde c039
000001b0: 123c 3bb9 b725 70bc 9c36 893d 6eeb a0bc
000001c0: 09d6 3e3d 6e2a bd3d 8bc8 8b3c 95b1 973d
000001d0: 2bc6 223b dd05 b2bc 609e 41bc 0511 063c
000001e0: aaa5 6a3d 6e44 893a 8331 993c c5cb d73c
000001f0: d8f3 d83d f7c6 413d 7093 1ebc 514c 6a3c

action_model._discrete_distribution.branches.0.weight f4 [4, 128]
0.013741085 0.0051447973 0.019770524 0.021491712 -0.041483536 0.12664658 -0.004986759 -0.1255503
-0.03238927 -0.029409355 -0.11693935 -0.063341 -0.06661057 -0.09822973 0.047676064 -0.0013331621
0.011746502 0.08755582 -0.028434055 0.049758993 0.063080214 -0.036629654 -0.058028065 0.08866424
0.031163266 0.031090003 -0.007884129 0.03804003 0.03543987 -0.04633625 -0.0044824798 0.02100198
0.025988989 -0.04565772 0.058660433 -0.042919256 0.009123536 0.010244081 0.075316206 0.0023010524
0.09446568 -0.08941224 0.074392155 -0.023705876 0.050214875 0.023854924 0.06567956 0.015550016
0.039947245 -0.030589115 0.03771189 0.012886556 -0.095990226 0.073049165 0.0016447591 0.059000786
-0.13918477 0.07917987 0.058190122 0.00349517 0.026072333 -0.006884784 0.023611207 -0.047323775
0.011877135 -0.035451386 0.06527167 0.08635019 0.016122034 -0.020417174 -0.033605944 0.015204319
-0.038979314 -0.069353804 0.049440797 0.0969522 0.0044020237 -0.020984845 -0.012530272 0.014280398
-0.043127414 0.07618828 0.053846836 0.050245374 0.0001705667 0.059719574 0.052746657 0.06981111
0.05311434 0.06462804 -0.109397836 -0.048703298 -0.031954587 0.037126575 -0.07536673 -0.13544045
0.01730567 -0.004774495 -0.05648992 0.04358189 0.09103433 -0.038122192 -0.13536035 0.01840099
-0.01090487 0.111846566 -0.05826455 0.053331655 0.05024378 0.03902855 -0.02825459 0.08546148
0.051416505 -0.062045995 0.0026722956 -0.03203549 0.04185531 0.05065146 0.0697839 0.01630378
-0.051246766 0.12143452 0.022034513 -0.02644252 -0.08480332 -0.019591149 0.064354934 0.05114876
-0.028645474 0.01101212 0.012592089 0.0013399712 0.06212758 -0.07918889 0.012366698 0.108676374
0.025348406 0.0075209057 0.07792962 0.057945166 0.066074274 0.024590936 -0.022657424 0.03906777
0.008650909 -0.05103256 0.04389347 -0.008475626 -0.008902645 0.02221311 0.051502973 -0.06941444
-0.04559298 -0.008962546 0.058500018 -0.054781966 0.018771237 0.0030470353 0.015130823 -0.037543315
0.012792219 0.0044837985 -0.06963887 0.102866724 0.010701208 0.020226333 0.0065485733 0.015670314
-0.045733947 0.07993906 -0.08311446 0.010252481 -0.038906246 -0.009643895 0.006668177 0.04150638
-0.066282935 0.012567494 0.026426326 0.030552452 0.07345305 -0.041563515 0.00073002855 0.029241957
0.054973137 -0.03435102 -0.07860819 -0.032261197 -0.03609108 -0.066983335 0.026772015 0.042519882
-0.026551876 0.029756395 -0.047109123 -0.068424754 0.0035008984 -0.0045692516 0.03538614 0.00922595
0.005709301 0.04375213 -0.05574789 -0.035330925 -0.0040015825 0.0034456807 0.032259658 -0.0011871206
0.012575336 -0.065440826 -0.0033096147 -0.015226532 0.029384881 -0.07414948 -0.049141075 -0.025142517
-0.057953637 -0.05794483 0.06398762 0.023086421 0.0048474907 -0.045283705 0.0120080365 0.08885195
0.016187279 0.016936459 0.019345889 0.016384654 -0.06373942 0.027981693 0.07682941 -0.031864047
0.022700142 -0.06910698 0.0520376 -0.022254618 -0.020474212 0.0241779 0.051518988 -0.020319324
0.014017655 0.04839458 -0.02786813 0.05489083 0.023431657 -0.035593934 -0.03044314 0.029975817
0.010495667 -0.08205273 -0.059000302 0.020783372 0.056757186 -0.036362365 -0.0045960722 -0.057222642
00000000: 4a22 613c b095 a83b cbf5 a13c 630f b03c
00000010: a4ea 29bd a4af 013e f767 a3bb 4290 00be
00000020: 9caa 04bd e3eb f0bc e67d efbd edb8 81bd
00000030: 1f6b 88bd ab2c c9bd fa47 433d 7fbd aeba
00000040: 6674 403c 7750 b33d 89ee e8bc 16d0 4b3d
00000050: 3330 813d fa08 16bd d6ae 6dbd 9995 b53d
00000060: 1b4a ff3c 76b0 fe3c 6f2c 01bc ddcf 1b3d
00000070: 6629 113d 14cb 3dbd c4e1 92bb 580c ac3c
00000080: dce6 d43c 9703 3bbd ec45 703d 1acc 2fbd
00000090: e27a 153c cad6 273c 623f 9a3d 41cd 163b
000000a0: 3977 c13d c41d b7bd ea5a 983d d332 c2bc
000000b0: 1dae 4d3d 676b c33c 0183 863d 7fc5 7e3c
000000c0: b99f 233d 0696 fabc c877 1a3d 2222 533c
000000d0: 8696 c4bd cd9a 953d f594 d73a cfaa 713d
000000e0: 7486 0ebe 0e29 a23d c458 6e3d 390f 653b
000000f0: a595 d53c c199 e1bb 4a6c c13c 93d6 41bd
00000100: 5198 423c 7935 11bd 27ad 853d 5ed8 b03d
00000110: 5b12 843c eb41 a7bc 63a6 09bd 891b 793c
00000120: c6a8 1fbd 5e09 8ebd 6f82 4a3d e08e c63d
00000130: da3e 903b 69e8 abbc c54b 4dbc 55f8 693c
00000140: 5fa6 30bd 9a08 9c3d 808e 5c3d 18ce 4d3d
00000150: 26da 3239 839c 743d e10c 583d 21f9 8e3d
00000160: 6c8e 593d b55b 843d f90b e0bd 1c7d 47bd
00000170: d0e2 02bd 0912 183d df59 9abd e7b0 0abe
00000180: 9fc4 8d3c 5e73 9cbb f961 67bd ed82 323d
00000190: 3570 ba3d 0426 1cbd e79b 0abe acbd 963c
000001a0: 57aa 32bc d00f e53d cfa6 6ebd 4b72 5a3d
000001b0: 6ccc 4d3d 67dc 1f3d 2c76 e7bc 6e06 af3d
000001c0: 1d9a 523d f123 7ebd ae21 2f3b a537 03bd
000001d0: 7970 2b3d e877 4f3d ddea 8e3d 818f 853c
000001e0: 21e8 51bd a9b2 f83d b981 b43c fc9d d8bc
000001f0: 5dad adbd 9e7d a0bc 85cc 833d 5d81 513d
00000200: eaa9 eabc 2e6c 343c 0d4f 4e3c f9a1 af3a
00000210: 7d79 7e3d c92d a2bd b19d 4a3c b891 de3d
00000220: 76a7 cf3c ee71 f63b 9199 9f3d e957 6d3d
00000230: f351 873d ee72 c93c 109c b9bc 8705 203d
00000240: 8bbc 0d3c 8507 51bd a4c9 333d 5add 0abc
00000250: 66dc 11bc 45f8 b53c c8f4 523d 2829 8ebd
00000260: b4bf 3abd a4d7 12bc b79d 6f3d 0e63 60bd
00000270: 23c6 993c c5b0 473b 45e7 773c 05c7 19bd
00000280: 7596 513c d4ec 923b d39e 8ebd caab d23d
00000290: 1f54 2f3c b2b1 a53c 6a95 d63b 085f 803c
000002a0: 8553 3bbd 17b7 a33d ea37 aabd 06fa 273c
000002b0: 285c 1fbd 6d01 1ebc b980 da3b 9802 2a3d
000002c0: 59bf 87bd e4e7 4d3c 067c d83c 2349 fa3c
000002d0: 8d6e 963d 813e 2abd 635f 3f3a d48c ef3c
000002e0: 832b 613d a8b3 0cbd 55fd a0bd 5124 04bd
000002f0: 3ed4 13bd 8f2e 89bd fc50 db3c 5429 2e3d
00000300: 5283 d9bc afc3 f33c 7ff5 40bd 4722 8cbd
00000310: 546f 653b a9b9 95bb 0ff1 103d 7028 173c
00000320: 1715 bb3b 6f35 333d e657 64bd 29b7 10bd
00000330: b51f 83bb eed0 613b b422 043d 2899 9bba
00000340: c808 4e3c d705 86bd 1fe6 58bb b478 79bc
00000350: 90b8 f03c afdb 97bd 2748 49bd aef7 cdbc
00000360: cb60 6dbd 8f57 6dbd f10b 833d bc1f bd3c
00000370: b3d7 9e3b 687b 39bd 5bbd 443c 03f8 b53d
00000380: 2f9b 843c 54be 8a3c 457b 9e3c 1c39 863c
00000390: d089 82bd dd39 e53c bd58 9d3d e083 02bd
000003a0: a6f5 b93c f687 8dbd 6125 553d 514f b6bc
000003b0: 89b9 a7bc bb10 c63c 9305 533d b674 a6bc
000003c0: 4eaa 653c 6539 463d b44b e4bc 35d5 603d
000003d0: bff3 bf3c f2ca 11bd e463 f9bc d88f f53c
000003e0: 05f6 2b3c 430b a8bd 4daa 71bd e441 aa3c
000003f0: 397a 683d b4f0 14bd a69a 96bb 4a62 6abd

action_model._discrete_distribution.branches.0.bias f4 [4]
-0.05906794 0.045611076 -0.00046199045 0.017745283
00000000: 39f1 71bd aed2 3a3d 4f37 f2b9 8e5e 913c

action_model._discrete_distribution.branches.1.weight f4 [3, 128]
-0.06428535 -0.06301765 0.059651144 0.018867193 0.05218585 -0.03044035 -0.018179204 0.015042532
0.027777161 0.022091836 0.0404129 0.021450233 0.04046986 0.06463259 -0.027718266 0.072752625
0.006627637 -0.0073918975 -0.008591929 0.027114924 0.046470016 -0.018622573 -0.016613305 -0.030991206
-0.020099767 -0.047790647 0.0074967756 -0.03842918 -0.0413985 -0.03365397 0.0067770686 -0.06434414
-0.041412596 0.02146663 0.00081438484 0.037247237 0.018341918 0.007107933 0.0055210176 -0.030308738
0.01723613 0.013380164 -0.033544958 0.009375461 -0.047667764 -0.007294685 0.016108122 0.02437171
-0.06125073 0.0508637 -0.033345066 -0.054791674 -0.010915797 0.019070666 -0.044701032 -0.02260772
-0.02002911 0.011577359 -0.042791825 0.01445863 -0.05015276 -0.0647481 0.023258835 -0.0029452716
0.023331193 0.052894488 -0.03109415 -0.057360146 0.010538379 0.030821018 -0.0041934103 -0.011641074
0.014184462 0.076351725 -0.053000014 0.027852284 0.019633908 0.016038679 0.013265996 -0.0012802895
0.07146037 0.009949509 -0.0056787585 -0.03806441 -0.004417332 -0.06210139 -0.052322756 0.02770216
0.019666713 -0.049383346 0.004095817 -0.016569888 -0.055889297 -0.045630027 0.027120326 0.023901237
0.015140727 0.023298375 0.017411437 0.01810903 0.023310672 0.019047204 0.032045465 -0.06543545
0.0013223529 0.009634045 -0.013723763 0.028918376 -0.04507918 -0.009552415 0.006226405 0.024816243
0.022652084 -0.02485672 -0.07594166 -0.02835919 -0.048688043 0.025940023 0.029674768 0.029773915
-0.0008036064 -0.029639024 -0.059231326 0.011717466 -0.0061899195 -0.05304814 -0.03402103 -0.061163094
-0.03043664 -0.023389684 0.04133391 -0.0034451687 0.08701322 -0.080928214 -0.0031009929 0.03980135
0.06906522 0.05549899 0.10540971 0.012667053 0.040670667 0.15161695 -0.019656766 0.08905902
-0.0076933913 -0.040076397 0.014286398 -0.016982181 -0.021908706 -0.0066452334 0.009997926 -0.032471403
-0.018240158 -0.043630686 -0.0017201632 -0.045732208 -0.047580823 -0.00037006475 0.011369523 -0.00751415
-0.05478703 0.08178225 -0.009049598 0.024698855 0.0030397023 0.0021748072 -0.017211623 0.0013814316
-0.023915863 0.0763781 -0.016412865 0.068512924 -0.04858208 -0.0298201 -0.0011053882 0.0041264454
0.022053612 0.109435216 -0.021176724 -0.04353219 0.05150715 -0.025502387 -0.04538713 -0.057539318
0.07436659 -0.01866069 -0.009832406 0.13620092 -0.019696562 0.012999609 0.009596252 0.07982171
-0.07668004 0.06538211 -0.068191335 -0.059722636 -0.012279061 0.052252736 0.045828395 -0.00032638802
0.0512613 0.054075904 -0.059564404 -0.031406537 0.04367112 0.0500251 0.021351516 -0.003698521
0.08514358 -0.011132246 -0.11707786 -0.032032873 0.0103091225 -0.044220157 -0.041490015 -0.015338952
-0.03110638 -0.06626026 0.08578058 0.14743428 -0.012388372 -0.017297579 0.11047705 0.0356284
0.004066899 -0.006348808 0.103539385 0.01192684 -0.02464467 -0.020358326 0.13372846 -0.033642083
0.011327125 -0.018318454 0.021248968 0.0060189217 -0.022842959 -0.006453207 0.04127874 0.0068856655
-0.054862462 0.068504065 0.0072645964 0.010818592 -0.05177598 -0.02328445 -0.00026595825 -0.0072247046
0.084815964 -0.06389526 -0.030919788 0.022183742 -0.027662948 -0.006588057 -0.060225762 -0.02282789
00000000: 0aa8 83bd 660f 81bd c254 743d 5f8f 9a3c
00000010: d4c0 553d 0a5e f9bc 8eec 94bc f474 763c
00000020: ee8c e33c f0f9 b43c ff87 253d 66b8 af3c
00000030: b9c3 253d 175e 843d 6b11 e3bc 54ff 943d
00000040: a62c d93b bb37 f2bb 2ac5 0cbc 1e20 de3c
00000050: 5857 3e3d 5e8e 98bc a018 88bc 45e1 fdbc
00000060: 44a8 a4bc 20c0 43bd 83a7 f53b ea67 1dbd
00000070: 7991 29bd bfd8 09bd 2c12 de3b dcc6 83bd
00000080: 41a0 29bd c9da af3c 717c 553a 8f90 183d
00000090: ca41 963c aae9 e83b a7e9 b43b 084a f8bc
000000a0: c932 8d3c 7a38 5b3c 7066 09bd 899b 193c
000000b0: 463f 43bd 4108 efbb 2ef5 833c 2ea7 c73c
000000c0: 0ce2 7abd 7556 503d d694 08bd 3c6d 60bd
000000d0: 2cd8 32bc 163a 9c3c 6e18 37bd d333 b9bc
000000e0: 1714 a4bc f7ae 3d3c 7b46 2fbd e4e3 6c3c
000000f0: fb6c 4dbd a79a 84bd 5089 be3c 7505 41bb
00000100: 0f21 bf3c e4a7 583d 29b9 febc 79f2 6abd
00000110: 2aa9 2c3c 5c7c fc3c e068 89bb 34ba 3ebc
00000120: f265 683c 4b5e 9c3d 8b16 59bd 792a e43c
00000130: 4ad7 a03c 8c63 833c 9f59 593c 63cf a7ba
00000140: d159 923d 4403 233c e114 babb 6de9 1bbd
00000150: 44bf 90bb 075e 7ebd 6350 56bd a4ef e23c
00000160: 161c a13c 3146 4abd 3436 863b 93bd 87bc
00000170: 2dec 64bd 8de6 3abd 722b de3c 87cc c33c
00000180: d010 783c 3cdc be3c 6ea2 8e3c 6359 943c
00000190: 06f6 be3c e208 9c3c 1b42 033d 0503 86bd
000001a0: cd52 ad3a 1dd8 1d3c a2d9 60bc 3be6 ec3c
000001b0: f2a4 38bd bc81 1cbc df06 cc3b 6f4b cb3c
000001c0: dd90 b93c 52a0 cbbc 4d87 9bbd 8851 e8bc
000001d0: 1d6d 47bd 2c80 d43c 8018 f33c 6de8 f33c
000001e0: 1da9 52ba 8acd f2bc 8c9c 72bd 9dfa 3f3c
000001f0: cfd4 cabb 0249 59bd a359 0bbd 2786 7abd
00000200: 4356 f9bc b99b bfbc bf4d 293d 57c8 61bb
00000210: fd33 b23d b1bd a5bd 073a 4bbb be06 233d
00000220: 1172 8d3d e952 633d 0ce1 d73d 7989 4f3c
00000230: 4996 263d 7941 1b3e 3a07 a1bc 9364 b63d
00000240: d818 fcbb 2627 24bd 7f11 6a3c 371e 8bbc
00000250: e379 b3bc 42c0 d9bb 57ce 233c bc00 05bd
00000260: 626c 95bc 17b6 32bd 1977 e1ba b251 3bbd
00000270: 1ce4 42bd 4005 c2b9 3c47 3a3c 4239 f6bb
00000280: 5d68 60bd 747d a73d c444 14bc 4155 ca3c
00000290: be35 473b 3687 0e3b 64ff 8cbc 2711 b53a
000002a0: 33eb c3bc 1f6c 9c3d 4674 86bc 8150 8c3d
000002b0: 01fe 46bd 4849 f4bc ace2 90ba 2237 873b
000002c0: c7a9 b43c 921f e03d cf7a adbc cf4e 32bd
000002d0: 29f9 523d 62ea d0bc dbe7 39bd 59ae 6bbd
000002e0: 834d 983d 4ede 98bc 1a18 21bc 4178 0b3e
000002f0: af5a a1bc 50fc 543c 9939 1d3c 9179 a33d
00000300: 6d0a 9dbd 0ee7 853d e6a7 8bbd b99f 74bd
00000310: 1d2e 49bc f706 563d 8eb6 3b3d 0f1f abb9
00000320: 5ef7 513d b27e 5d3d cef9 73bd 24a4 00bd
00000330: 7de0 323d 1fe7 4c3d 60e9 ae3c e362 72bb
00000340: c25f ae3d 0664 36bc 84c6 efbd e734 03bd
00000350: 98e7 283c 3220 35bd 6ff1 29bd 3a50 7bbc
00000360: cfd2 febc 76b3 87bd bbad af3d 03f9 163e
00000370: 99f8 4abc a7b3 8dbc cb41 e23d 16ef 113d
00000380: 9f43 853b a909 d0bb 750c d43d cb68 433c
00000390: 9ee3 c9bc 81c6 a6bc 1df0 083e 48cc 09bd
000003a0: 6895 393c 9510 96bc 5112 ae3c 603a c53b
000003b0: 2821 bbbc 6d75 d3bb e513 293d 26a1 e13b
000003c0: 76b7 60bd dc4b 8c3d da0b ee3b 7740 313c
000003d0: 0d13 54bd 08bf bebc 5070 8bb9 37bd ecbb
000003e0: feb3 ad3d 85db 82bd 7f4b fdbc aeba b53c
000003f0: 689d e2bc a1e0 d7bb 4aaf 76bd 8e01 bbbc

action_model._discrete_distribution.branches.1.bias f4 [3]
-0.019215299 0.008174725 0.010711364
00000000: 6769 9dbc 48ef 053c b87e 2f3c
