results/player/My Behavior.onnx (onnx, 92206 bytes, 9 tensors)

discrete_act_size_vector f4 [1, 2]
00000000: 0000 8040 0000 4040
4.0 3.0

network_body._body_endoder.seq_layers.0.weight f4 [128, 29]
00000000: 3471 7fbe e48a 9b3e 5248 eb3d 20fb 393e
00000010: 1456 4a3d a5aa 5b3c 4c64 14be 7310 1a3e
00000020: 5c78 07bd 1810 753d 9c39 963e 39fe ccbd
00000030: 7951 95bc 58b3 9cbd e8aa c43d 7b47 cfbd
00000040: cc28 e13d bff0 50be 1111 1a3e cc3a 3dbe
00000050: f9d8 f63d c5b9 833e a384 35be 7f16 463e
00000060: 52d2 833d 8e22 04be 6db4 89bd 8bbd 65bd
00000070: 3748 ea3c cdbd 203e 2514 4dbe 8908 57bd
00000080: f079 4abe 6ae5 08bd 10b0 05be 8b6c b4bd
00000090: 25e9 c8bd 07b1 3dbe 225b a83e bcab c7bd
000000a0: c036 53bd 3595 b4bd 3c34 97bd f0ed 75be
000000b0: d2b7 0b3e fd7e 4f3e b9de af3d 4d8a 37bd
000000c0: e7de 8dbc 2dd6 9d3c 44e9 593e 60ad 1ebd
000000d0: d852 0ebd 1274 12be 40cd bf3d f0e7 2b3e
000000e0: d2fb 503e afab 183e 8236 e9bd 47c8 a33e
000000f0: 7d3e bc3e 06c0 d23c 4619 1d3e b9c2 d73d
00000100: 02ca 0f3d ccf9 0ebd 05b1 a4bd 41fb 27be
00000110: fabf 66be 69ce ebbe be8c f03d 0217 a33b
00000120: 3e8e e33d ac01 b7bd 521c 48be 7e47 c03d
00000130: 4bda 3c3e 9fde 6b3e 8e8e 46bc 2ed7 5d3e
00000140: 4f8d 42bd 0463 ddbd 952e 0b3e 2d1a 16be
00000150: 17b0 4fbd 5953 adbe 0a5c d83e d9af 58be
00000160: c94a 433d e9ed 573e 0447 923a b291 89bc
00000170: 3791 183d 63af 453e 3420 cf3e 4c44 863d
00000180: 8667 a13d a3cb 643e a1a7 f6bd a8b3 f93d
00000190: cd14 353e f482 58be aad0 dcbe 68bd 803e
000001a0: 542d cfbc 8623 dbbd 91f7 75bd f41c dcbd
000001b0: e7c8 a7bd 635f 2b3e 4989 a1be 009e 313e
000001c0: fe44 efbe e0bc aa3d e607 9c3c e441 6e3e
000001d0: 815b a9bd 6229 983d 83a2 7bbe 5b3d 9cbe
000001e0: 8200 a63e 8499 e53c 734f 89bb ebef e53e
000001f0: 7a78 d8bd cd52 9abd bfb8 cebd 81dd 1b3e
00000200: ae58 a0bb 7c42 c8be d970 dc3c 0f26 293e
00000210: 159c 433e 99ac 16bd 87f5 893e 72c3 153e
00000220: 5cef bcbc 4058 653d 9e61 1fbe f0cd 9bbe
00000230: 8175 043e 3f62 10be 2b6f 7a3d 326f 213e
00000240: 6ef0 79be d4d5 94bd db30 2b3e b8bc debe
00000250: ffea 28bd 4498 e53d b951 173e 2a95 f0bd
00000260: fc44 353d 761b a3bd 24f7 2dbe cd0c a83e
00000270: 339e 3b3e fbed 85bd 523b d0be e9f2 ad3c
00000280: 57d1 183d 30f3 6dbe dbcd 04bb 3b5b 583d
00000290: 131a d63d 79a0 0c3d b5b0 02be 9f21 9e3d
000002a0: d4df d1bb 1e8e e03d aa48 7e3e a8f2 903d
000002b0: aca7 febd 2e89 a3be d22f 8dbd 0044 dc3d
000002c0: 5e75 ea3e 7732 aebd 85a2 74bc 0d17 98be
000002d0: e085 00bf 7983 65be a840 f9bc 14f6 8cbe
000002e0: fa46 703e 3067 7f3e 28f7 c8bd 9f4a e9bc
000002f0: bef8 e53d 85a1 083e a936 8ebd b031 b6bd
00000300: f620 c6be 391d f0bd 4607 46bb 0885 3e3e
00000310: f676 4d3d 2b09 3ebd 3dd0 11be ddcd 7c3e
00000320: 4e4f 0a3e 4dda 143b 4cba 6e3e 0fbd 873e
00000330: abd5 99bd 9f3f 89be bdf6 9abc 2421 813e
00000340: 9571 003f 34f2 803d 9629 133e 8822 683d
00000350: cb19 90bc 9388 b03c c0a2 b73e aad7 6b3e
00000360: 68b6 b4bc 4ee0 413e b611 5abe b015 98bd
00000370: c2d8 e9bd 80f8 663d 5fcd 98bd f397 3c3d
00000380: 6cd1 81be 1373 3f3e c084 1a3d c165 af3d
00000390: 184e 123d 390d bbbe fdfb cfbd 6f58 81bd
000003a0: 9a0d a93e 80d0 fcbc ab8a 84bd f8df 87bd
000003b0: 6f03 48be 28e2 473e 3432 5d3c 980d 25bd
000003c0: 9934 ec3d 5585 6cbe bf44 583e cfaa 63be
000003d0: aaa0 04be 3deb 75bd 698a b9bc fcc9 a6bd
000003e0: 38c3 e43e f821 423e 58b8 5fbe d533 7abd
000003f0: 7e84 b93e fe34 003e d380 ed3c f899 033e
-0.24945527 0.30379403 0.114884034 0.18162203 0.049398497 0.013407384 -0.14491385 0.15045337
-0.033073768 0.0598298 0.29340827 -0.100094266 -0.018227326 -0.076513946 0.0960291 -0.10121056
0.109941095 -0.20404337 0.15045573 -0.1847946 0.12053103 0.25727668 -0.17726378 0.19344519
0.064366 -0.12903807 -0.067238666 -0.056088965 0.028598888 0.15697403 -0.20027216 -0.052498374
-0.19773078 -0.03342191 -0.13055444 -0.088097654 -0.09810094 -0.18524562 0.3288203 -0.097495526
-0.051565886 -0.088175215 -0.0738301 -0.24016547 0.1364434 0.20263286 0.08587403 -0.04480963
-0.017318202 0.019267166 0.2128039 -0.038739562 -0.034746975 -0.1430209 0.0936532 0.16787696
0.20408562 0.14909242 -0.1138735 0.31988737 0.36766425 0.02572633 0.15341672 0.10535187
0.03510476 -0.034906194 -0.08041576 -0.1640444 -0.22534171 -0.46055916 0.117455944 0.004977108
0.11111115 -0.08935866 -0.19542053 0.09388636 0.18442647 0.23034142 -0.012118949 0.21664116
-0.047498044 -0.10809901 0.13591988 -0.14658423 -0.05070504 -0.33852652 0.4225772 -0.2116083
0.047678743 0.2108685 0.001116008 -0.016793106 0.037247863 0.19305186 0.40454257 0.06555995
0.07881074 0.22343306 -0.120436914 0.1219247 0.17683716 -0.21143705 -0.43127948 0.25144506
-0.025290169 -0.10700135 -0.06005055 -0.1074771 -0.08192616 0.16735606 -0.31550053 0.17345428
-0.46732324 0.08336806 0.019046735 0.23267323 -0.08269406 0.07429768 -0.24573712 -0.3051556
0.32422262 0.028027304 -0.0041903793 0.44909605 -0.10569854 -0.07535324 -0.10093831 0.15221216
-0.004893384 -0.39113224 0.026909279 0.16518424 0.1910251 -0.036785696 0.26945135 0.14625338
-0.023063354 0.055992365 -0.15564582 -0.30430555 0.12935449 -0.14099978 0.061141174 0.15765074
-0.24408123 -0.07267347 0.16717856 -0.43503356 -0.041239735 0.11210683 0.14777268 -0.11747201
0.04425524 -0.07964222 -0.16988808 0.32822266 0.18322067 -0.06539532 -0.40670258 0.021233993
0.037309017 -0.232373 -0.00202643 0.05282138 0.10454192 0.034332726 -0.12762721 0.077212565
-0.006404856 0.10964607 0.24832407 0.07077533 -0.124343246 -0.31940597 -0.068938866 0.107551575
0.4579267 -0.08505719 -0.014931326 -0.29705086 -0.5020428 -0.22413434 -0.030426338 -0.27531493
0.23464575 0.24941707 -0.09812766 -0.028477965 0.112290844 0.13342865 -0.06944019 -0.08896196
-0.38697022 -0.11724324 -0.0030216738 0.18605435 0.050162278 -0.046395462 -0.14239593 0.24687906
0.13506815 0.0022713125 0.23313254 0.26511428 -0.07511457 -0.26806352 -0.018916482 0.25220597
0.5017331 0.062961966 0.14371333 0.056673557 -0.017590424 0.021549499 0.35866356 0.23031488
-0.022059634 0.18933222 -0.21295819 -0.074260116 -0.114182964 0.05638933 -0.074610464 0.046043348
-0.2535509 0.18696241 0.037724257 0.0856433 0.035719007 -0.36533526 -0.10155485 -0.063156955
0.3301819 -0.03086114 -0.06471761 -0.066345155 -0.1953256 0.19519866 0.013500739 -0.040296167
0.1153347 -0.23097737 0.21119975 -0.22233127 -0.12951913 -0.060038794 -0.022649007 -0.08143994
0.4468019 0.1895827 -0.21847665 -0.061084587 0.36233896 0.12520215 0.028992092 0.12851703

network_body._body_endoder.seq_layers.0.bias f4 [128]
00000000: f34b 84bb 4a31 063b 6bb6 923b 8258 0d3d
00000010: 7835 a53c c5b9 9dbc 408a 56bd 827d 4c3b
00000020: 7584 be3c 7c7c f23c 3a71 c13c b49b 47bd
00000030: 6f36 f53c 2262 e63c 1b06 7c3c bd15 39bc
00000040: 23e6 143d ec38 6ebc 0f94 503c c015 023d
00000050: 7aac f53c 18b7 f3bc eff1 19bd a987 2abc
00000060: 622d 4e3c e887 ceba 18a9 16bd 6d0d b73c
00000070: d40f 2fbd f71e 30bc a006 83bb eb39 003d
00000080: 1911 24bd 1414 90bc 5eb3 feba bad1 f4bc
00000090: 55bc 39bd 5bc0 99bc 6e8a bcbc 11e2 5d3c
000000a0: b4de 08bc 4fcb 8fbd eb03 5abd c55f 84bc
000000b0: 4b8d 713c 4eed ecbc 0fa8 023c d00d 953c
000000c0: 1512 99bc 6f49 19bd 1f83 17bd 2129 1d3d
000000d0: c899 013d f3b3 9abc 52ea 30bd 0bd7 38bd
000000e0: dd08 fabc 293c 7e3c 2549 2dbd e9fe 24bd
000000f0: a88f 99bc 3469 3bbb 4176 41bd 8ecd ce3c
00000100: 2702 6fbc 34d9 203d 16bd eebc 6cf9 ee3c
00000110: 4c45 debc e30b e8bc 7747 293c 1fd7 f43c
00000120: b5c8 a03c 5e9c 38bc 315d 043d 1b48 5abd
00000130: df6a 453d 262c 2fbd 7821 d03c fbc0 923c
00000140: aca0 cc3c c16f ab3c 4ca5 0bbc 2b0f 70bc
00000150: 5b93 093c b9d0 cc3c 8ac2 ab3a f347 a0bc
00000160: 26bf eb3c 89b7 e6bc 05d9 65bd b1c9 74bc
00000170: b122 093d 8e69 0abd a3a1 be3b 0bf0 173d
00000180: b39f 8cbc 9203 8bbc cc0b 08bd 6f2a 973c
00000190: ff1b 11bd 8448 c53c bba0 ea3b 329b 2a3d
000001a0: 5f1c b2bc 5cd1 49bc 309c c73c 5227 0e3d
000001b0: 6182 7738 05a0 04bd 4be2 b6bc 573b 953c
000001c0: bf83 913c 8c9b d3bc 819f 8dbb 01d9 283d
000001d0: 396b 353c cfaa ffbc f200 103b be7e fd3c
000001e0: 1c1b f1bb 2d3b 79bd 44fc 24bc d32c 143d
000001f0: 8395 0dbc f3ee 6a3c d25f e6bb 373c b13c
-0.004037374 0.0020476156 0.0044773123 0.034508236 0.020167097 -0.01925362 -0.05237794 0.0031202738
0.02325652 0.029600374 0.023613561 -0.048732474 0.029933183 0.028122965 0.015382315 -0.011296687
0.036352288 -0.014539938 0.012730612 0.031759024 0.02998947 -0.029750392 -0.03758424 -0.01040832
0.012584062 -0.0015757056 -0.036782354 0.02234527 -0.042739704 -0.01074957 -0.0039985925 0.031305235
-0.040055368 -0.017587699 -0.0019432118 -0.029885162 -0.045345623 -0.01876848 -0.023015227 0.013542668
-0.008353878 -0.070212 -0.053226393 -0.016158948 0.0147431595 -0.02892175 0.007974639 0.018195063
-0.01868538 -0.037423547 -0.03699028 0.0383693 0.031640798 -0.018884635 -0.043192215 -0.045126956
-0.030521804 0.015517273 -0.042306084 -0.040282164 -0.018745258 -0.0028596641 -0.047231916 0.0252445
-0.0145879155 0.03926964 -0.029142898 0.029171668 -0.027132653 -0.02832598 0.01033198 0.029887734
0.019626955 -0.01126775 0.032315437 -0.05329142 0.048197623 -0.042766713 0.025406584 0.017914286
0.024978958 0.020927312 -0.008523297 -0.014652054 0.008396949 0.02500187 0.0013104242 -0.019565558
0.02877767 -0.028163688 -0.05611517 -0.014940665 0.03348035 -0.03379207 0.0058176084 0.037094157
-0.017165994 -0.016969476 -0.033214375 0.018452851 -0.03542709 0.02408243 0.007160274 0.041651912
-0.021742044 -0.012317982 0.024366468 0.034705468 5.9010814e-05 -0.03237917 -0.022324702 0.018216772
0.017763017 -0.025831006 -0.004321993 0.041222576 0.011072927 -0.031209378 0.002197322 0.030944224
-0.007357968 -0.06084745 -0.01006991 0.03617556 -0.008641603 0.0143391965 -0.0070304656 0.021635158

network_body._body_endoder.seq_layers.2.weight f4 [128, 128]
00000000: 494f 0cbd d74a c7bd b6d6 53be e653 e83d
00000010: a574 6c3d b9d7 3dbd 146e eebc 95b3 f2bc
00000020: 883f 0ebe bbb5 1dbe d9f3 003d d6e6 6ebb
00000030: d045 07be 5283 d53d 2891 623d 966f 543c
00000040: a910 cbbd 5a8a b63d 9f3e 0a3e e487 ccbd
00000050: 714b 6abd 3a66 47bd 22cf 983d 05d2 d3bd
00000060: ee0c 133c b923 0e3e 4ee2 24be d600 453d
00000070: c02e 553d 38b3 a7bc dd6c 4bbc 4eee 4ebd
00000080: 547f 483e 57ad 363e 4b24 3fbd f28c ff3d
00000090: eb58 9c3d e006 c83d 4ebd b6bb 3d47 e03a
000000a0: 0a54 16ba 6ae0 333e ad43 80bb b55f 94bb
000000b0: cf33 c1bd 5b04 b5bc 90b0 4e3d 77e8 06be
000000c0: 6d84 e7bc d49d e4bc 900d 97bc 3f05 273d
000000d0: 4515 54bd 7f1e 313c 7444 a33d a63b aebc
000000e0: f20f 403e 3d3a 0ebe 4418 303e f066 c83d
000000f0: 5de8 163e 09aa b33d 8e85 3f3c b88a 25bd
00000100: 9c5a 0f3e 0f41 163d e990 003e db5b 8aba
00000110: b4fa c9bd 1973 04bc 6b56 b1bc 40ae 2f3d
00000120: ab37 db3d 0f13 963c 7153 24bb f13f 933d
00000130: 60d1 19bd 9409 b43d aa9c d43c 03b8 15be
00000140: 7b66 4fbe c3ce e9bc 4277 08bc 4021 e93d
00000150: fcb7 8ebd c7cb 90bd 92f0 54bc 104b bbbc
00000160: d718 8abd ab5b 63bd 5e77 273d c624 81bd
00000170: e383 8d3d 68a8 34be 7778 823d fc90 adbd
00000180: 71a3 8a3b 84d3 b4bd aa5f 253e f4f3 a7bc
00000190: f5ef 993d 23f3 a83c 1ba6 62bd 76bd 8bbd
000001a0: fe46 023e 98aa f83d 6556 90bd 437f bdbd
000001b0: db68 693d f105 013d 7ac7 45bd d7e3 ac3c
000001c0: 183a de3d 7558 8d3d d390 e5bc 9e18 82bc
000001d0: 45d9 b43c ddec 4f3d 086d 1b3d 70bd 93bd
000001e0: ff0e 803d 05e1 cdbd ca20 7d3e dddb 803d
000001f0: 2320 e93d 30ab 363d 0084 cabd 2394 bd3b
00000200: 37cc f63c b6f4 3fbd dba6 393d 7965 2ebc
00000210: ff95 953d 21ab 1b3d 8d48 8a3d 1691 863d
00000220: 131e 673d a967 8f3d c792 803e 7a3c 3e3c
00000230: 1b7e 043e 1d78 1a3d 435b 9c3d 97a2 7bbd
00000240: 5c4e 24bd 1fc2 26bd 045d 05bd 80f3 b53d
00000250: 76fb 4b3e eb4b 36bd 0826 84bd 4484 05bd
00000260: cd32 a73d 7799 07be ecfe e7bd 6dec 91bc
00000270: 56e4 b1bc 7030 3dbe 5118 643e 3862 dbbd
00000280: 3132 34bd 647c e8bc 7578 f9bc c830 edbd
00000290: d46a 173d 301f aebd d664 903d 7921 e43d
000002a0: 5c82 67bd 32e9 49bd 33be dd3c a4b1 adbd
000002b0: bdee 223d ae71 2fbe 724f f9bc 8823 0d3e
000002c0: 8376 18be 63e6 073d 2ec6 003d efeb afbd
000002d0: a43a 783d 4fe4 8a3c 7fbf c03d 2de7 a03c
000002e0: de8e 31be aa98 a63c 7d2c 393e 3c0f 39bd
000002f0: 652b 3ebd 2eef a03d 1059 29be f173 233a
00000300: 4f54 47bd fab3 db3c 9e37 1abd 8cd7 f13c
00000310: ec56 f23c c82f 773c 04ed 8cbd f456 1cbc
00000320: 67d8 6abe 9620 0c3d e41c 3d3d 5409 263d
00000330: 4536 743d 10c5 33bd 11ce d23d 223a cf3d
00000340: 8bae f73c 825c bdbd cf27 02bd 5738 05be
00000350: a7f8 6e3d 6203 95bd d747 283e 05cf 753c
00000360: 9c82 783d 591d e7bd 1316 413d 489b 0b3e
00000370: 9238 d6bd 7e9b 193c d88b 45bd 9d7b 2f3d
00000380: 8667 fcbd b932 d7bc 6680 903d d144 edbc
00000390: e1d9 1d3d d81c 00be 44e2 65bd efaa 0e3c
000003a0: 7137 cd3c db52 6c3c 71fb 58be 55f8 1f3d
000003b0: 13a2 b43d 7fa4 b73d 6c00 823d 66df dc3c
000003c0: 6c22 d8bc 6eb8 40bd 2ec8 edbd ae8f c83d
000003d0: f9cc af3d af08 35be 1e9e c1bd e689 4c3d
000003e0: 912b 38bd 88ef 43bd 22d3 5bbd 6acb ad3c
000003f0: 92a9 14be a6e8 8cbc ede5 953b 0fe3 dd3d
-0.0342553 -0.097310714 -0.20687374 0.11344127 0.05772843 -0.046348307 -0.029105224 -0.029626647
-0.13891423 -0.15401356 0.03148255 -0.0036453507 -0.13210225 0.10425438 0.055314213 0.012966057
-0.09915287 0.08913107 0.1350045 -0.099868566 -0.057200853 -0.048681475 0.074613824 -0.103427924
0.008975251 0.13880815 -0.16101953 0.0480965 0.052046537 -0.0204712 -0.012416092 -0.050520234
0.19579822 0.17839561 -0.04666547 0.12478055 0.07634147 0.09766936 -0.005576766 0.0017111074
-0.00057345687 0.17566076 -0.0039143176 -0.0045280107 -0.0943371 -0.022096803 0.050461352 -0.13174616
-0.028261388 -0.02790729 -0.018439084 0.040776487 -0.051778097 0.0108104935 0.07972041 -0.021268677
0.18756083 -0.13889404 0.17196757 0.09785259 0.14737077 0.08772666 0.011689557 -0.040415496
0.13999408 0.03668314 0.12555279 -0.001055594 -0.09862271 -0.008084082 -0.021647653 0.042890787
0.10703977 0.018319635 -0.002507415 0.0718993 -0.03755319 0.087908894 0.02595361 -0.14620976
-0.20253937 -0.028540974 -0.0083292145 0.11383295 -0.06968686 -0.070701174 -0.01299681 -0.022862941
-0.06743019 -0.055507343 0.04088532 -0.06305842 0.06909921 -0.17642367 0.06370633 -0.08474919
0.0042309095 -0.08829406 0.16149774 -0.020502068 0.07516471 0.02062375 -0.05533419 -0.06823246
0.12722394 0.12141913 -0.070477284 -0.09252789 0.056984764 0.031499807 -0.04828594 0.021104736
0.10850924 0.069016375 -0.02802316 -0.015880879 0.022076258 0.050763 0.037945777 -0.07213867
0.0625286 -0.10052685 0.2471954 0.062919356 0.11383083 0.04459685 -0.09888458 0.0057854815
0.030126674 -0.046864234 0.04532514 -0.01064431 0.07304 0.038004998 0.06752119 0.06570642
0.056425165 0.070021935 0.25111982 0.011611098 0.1293873 0.037712205 0.07634594 -0.061434355
-0.04011379 -0.040712472 -0.03255941 0.088843346 0.19920143 -0.044505995 -0.064525664 -0.03259684
0.08163986 -0.13242136 -0.11327919 -0.017812932 -0.021715324 -0.18475509 0.22274901 -0.10712093
-0.04399318 -0.028379627 -0.030452946 -0.1158157 0.036967114 -0.08502042 0.07050483 0.11139197
-0.056520805 -0.049294658 0.027068233 -0.08481148 0.03977846 -0.17133209 -0.03043339 0.13783085
-0.14888959 0.0331787 0.031439 -0.08589923 0.0606028 0.01695457 0.09411525 0.019641483
-0.17339656 0.020336468 0.18083377 -0.045180544 -0.046428103 0.0785812 -0.16537881 0.0006235233
-0.048664387 0.026819218 -0.037650697 0.029521726 0.029582463 0.0150870755 -0.06881145 -0.009542216
-0.22934113 0.034210764 0.04617013 0.04053624 0.059622068 -0.043889105 0.1029321 0.1011851
0.030234596 -0.0924616 -0.031776246 -0.13009773 0.058342602 -0.07276036 0.16433655 0.015002971
0.060671434 -0.112848945 0.047140192 0.13633454 -0.10460009 0.009375451 -0.04822907 0.042842496
-0.12324433 -0.026269304 0.0705574 -0.028963478 0.038537864 -0.12511003 -0.056123987 0.008707746
0.02505085 0.014424051 -0.21189667 0.039055187 0.08819976 0.08966922 0.06347737 0.026961993
-0.026383601 -0.047050886 -0.11610447 0.0979303 0.08584017 -0.17679094 -0.094539866 0.049936198
-0.044963423 -0.047835857 -0.05366815 0.02121516 -0.14517811 -0.01720078 0.0045745284 0.108343236

network_body._body_endoder.seq_layers.2.bias f4 [128]
00000000: 825a 00bd 9d3c 813c afb3 df3c 00f9 cabc
00000010: d49c ef3c 02ca 363d 8ecc 00bd 93c5 043d
00000020: 209f 183c 3acf 98bc ce6a 3f3b 6030 c13c
00000030: 8e0a 393c 32a5 c03b 35e6 0d3d 2942 103d
00000040: d3d7 e23c a3f7 2f3d ece5 7bbc c8a1 9d3c
00000050: f7a5 033d a856 e63c 652d 4ebc a32a 86bc
00000060: 124b 393d 2cf3 3abd bcdb a3bc 2b40 d7bc
00000070: bcb6 fd3c 79a0 6d3b e904 033d ec66 893b
00000080: e57f 3e3c 0c4c 5eba 767b 0abc e220 423c
00000090: 9f0c bb3c 6627 ff3c 2a1b c13c fe7a ce3c
000000a0: 19d8 4dba 3981 eb3c 0470 de3c 025a b93c
000000b0: 5d27 e53c 92b8 93bb 92c2 b73c fe4d dabc
000000c0: a04c e1bc 7a1c 993c 2652 023d c901 95bc
000000d0: a4f3 2cbd 8ebf a6bb 6b81 3ebc 9d2f ca3c
000000e0: 3f90 14bc 0aae 68bc cd4f a2bc 5f7f 25bc
000000f0: c534 f63c e87c a63a 0614 1fbd cbf4 f73b
00000100: ed09 21bd e885 9a3c e672 d6bc cec0 7d3b
00000110: b2e7 3cbb 03c0 2c3c da63 be3c 929a edbc
00000120: a795 6e3c 528c cf3b 1ec2 afbc 1b6c eabc
00000130: c800 1e3d ef2a c73c 6d41 dabc 4c64 8ebc
00000140: 315f 0ebd 230f 4a3c 7b68 d5bc 1c16 b0bc
00000150: 56c7 0fbc 3bd4 753c eeeb f03c 8419 083d
00000160: 625a a33b 73f5 de3c 3602 203d 6279 413c
00000170: baf0 c43b 0c44 cbbc 423e 7dbc afe6 6e3c
00000180: d39e 003d 762d acbc daa0 183d c854 213b
00000190: 5ade 953c 129d 47bc 39e8 37bc d517 683a
000001a0: 18ca 173d 0168 fabc 78b9 763c 6301 203c
000001b0: 8f62 5abc 2ee6 3fbb 559a 323c 3865 6e3c
000001c0: c658 e8bc 18be a63c 580d c4ba 1f3e 383c
000001d0: 7973 c03c 3b60 ab3c 9b3a 6abb e24e a2bc
000001e0: 0841 233d a283 943c a4e6 803c fd44 09bd
000001f0: 9685 c5bc acb1 ed3b 9ebb 96bc 490d 2c3d
-0.031336315 0.015775973 0.02730736 -0.024776936 0.029249586 0.044626243 -0.03144508 0.032414984
0.009315282 -0.0186535 0.0029207948 0.023582637 0.01129402 0.005879068 0.03464337 0.035219345
0.027690804 0.042960774 -0.015374642 0.019242182 0.0321407 0.028117493 -0.012584065 -0.016377753
0.04523761 -0.045642063 -0.020002238 -0.026275715 0.030970924 0.003625898 0.031987105 0.0041931774
0.011627172 -0.000847996 -0.008452287 0.01184866 0.022833167 0.031146716 0.023572523 0.025205132
-0.00078523305 0.028748142 0.027153023 0.022625927 0.027972871 -0.0045080865 0.022431646 -0.026648518
-0.027502358 0.018690336 0.031816624 -0.018189328 -0.04222454 -0.005088753 -0.011627535 0.024680907
-0.009067594 -0.01420165 -0.019813443 -0.010101168 0.03005446 0.001270202 -0.038837455 0.0075670234
-0.039316107 0.01886268 -0.026177835 0.0038719657 -0.0028824625 0.010543826 0.023240972 -0.029004369
0.014562047 0.006333866 -0.021454867 -0.028616002 0.038574964 0.024312465 -0.026642526 -0.01738181
-0.03475875 0.01233271 -0.026050797 -0.021494918 -0.008775553 0.015004213 0.029409375 0.03322746
0.0049851397 0.027216649 0.03906461 0.011808725 0.006010142 -0.02481272 -0.015456738 0.014581366
0.031401467 -0.021017771 0.037262775 0.0024617184 0.018294502 -0.012183445 -0.0112248 0.0008853649
0.037057966 -0.030567171 0.015058868 0.009765956 -0.013329162 -0.0029281485 0.010901053 0.0145505
-0.028362643 0.020354316 -0.001495759 0.01124528 0.023492562 0.02091991 -0.0035740498 -0.019813005
0.03985694 0.018129174 0.015734978 -0.033513058 -0.02411155 0.007253846 -0.01840001 0.042004857

action_model._discrete_distribution.branches.0.weight f4 [4, 128]
00000000: 46b2 fa3b dcd0 38bc cc04 adbc 1f1e 423c
00000010: aca0 adbc 735e b4bc f053 1fbc e7f6 a4bc
00000020: bd76 6e3a 3264 10bc 235d f33b d9a4 edbc
00000030: 5d97 a73c e236 143a 3357 ebbc 89fc 003c
00000040: d923 26bd 32e3 3ebc 32e7 63ba 74ba d8bb
00000050: 3438 94bb 3f56 a43b 9ecf 6e39 109e 963c
00000060: 6d2f bcbc e854 a43c 7402 b93b 2b5d ab3c
00000070: afae cebc 4b32 48bb cc00 e2bb f194 5b3c
00000080: 93cd e2ba cde4 c53c a267 3ebc 06b3 1a3c
00000090: 5a9c d4bc 7665 8abc e6df bc3c ad06 23bc
000000a0: c246 b139 4139 4dbc 957a e9bc 8c88 6fbc
000000b0: c8de 24bd dda5 af3c bac7 e13b c88a b43b
000000c0: b5c6 913c 07a9 3fbc bb8e 2dbc 0e34 8e3c
000000d0: e71b 833c 0c11 953c 3655 d83a 3b12 43bc
000000e0: 1bc7 f03c f73d 543c 8353 ee3b 9553 c33c
000000f0: a440 8ebb 88c5 33bc 64b1 e93c d055 32bc
00000100: 4e5e 6c3a 93fc afbc e9ab f63c 790c b43c
00000110: aaf6 ea3c faf0 b63c b1d2 bcbc 66c7 863c
00000120: d734 de3c 5179 08bc fc61 503c 03ae 4e3c
00000130: 78d9 d7bc 6e94 28bc d768 943c 5385 e13b
00000140: c0bf da3b 4ca9 1ebc 7990 fd3b be14 303c
00000150: f8fc 02bc e2f8 823a 036e aabb 85f5 ceba
00000160: f492 ebbc d097 c8b9 f75f 1fbc 3f48 9d3c
00000170: 7022 b7ba 2971 35ba f6c0 8d3c ec62 afbc
00000180: e263 c1bc e2cb 933c 2348 adbc a49e 6dbc
00000190: 0cb4 3fbc 92e6 c73c 6d9c 8e3c d2ec 9bbb
000001a0: 85da 21bc c892 b33c 8a22 bbbb 17dc 76ba
000001b0: dfd4 f13c 4d71 a7bc bb5b 03bc 8f50 a6bc
000001c0: 83a5 cf3b bc70 a9bc 6c34 10bc 2211 ac3c
000001d0: 3b03 61bc c088 cfbc dd23 073c 1909 3d3c
000001e0: c08c 37bc e1ca 37bc 32c6 0cbc 54ff d13c
000001f0: e04c 2d3c 1e76 b43c 796e e13c f8e2 37bc
00000200: 0335 70bc efa3 f63c 7736 263c 8714 d1bb
00000210: 3d56 b33b e716 8f3c c9c0 b4bb 87ef 363c
00000220: 2a14 3ebc dd01 c1ba 2367 0eb9 9cba a6bb
00000230: 6308 b53a b14e 8abc 4f1d 33bb caa4 7e3a
00000240: 3a27 bebb fc81 4e3c 34a3 3439 64f4 253c
00000250: eb1d 6a3b 0b04 753c 9326 e33b 89d2 6aba
00000260: f3c0 02ba 6bf9 27bc 90e3 5c3b 20d0 acbb
00000270: 9869 85bb 59ba 62ba 243b 1abc d465 09ba
00000280: c4dc 98bc bdd8 04bd a00a 953c cf01 5a3c
00000290: 7ad7 233a 08e5 593c e039 413c e0f0 b43b
000002a0: 7e9a 993c 7c11 a5bb 0699 22bb 51dc 843c
000002b0: b76f 683a fd59 de39 e948 02bb a90a 253c
000002c0: 803b 55bb 76a5 673b 268d b53b 3162 63bc
000002d0: a66a a2bc 66e0 e6bb 36c0 903c 4527 673c
000002e0: dde9 b23b ef34 65bb 7672 583b a45a a1bc
000002f0: 90f2 46bb 212d 073c 70f4 41bc 48e4 233c
00000300: 931c a7bc 185a 403c bafe 0839 586b 4cbb
00000310: 8c8e d73a 3118 0dbc c5ae 493c 4208 9b3b
00000320: c82d 7ebc c513 463c 118b 863b b7ec 893b
00000330: a223 61bc c2e9 93ba 2c01 91bc 3339 2dbb
00000340: 66ae 58bc 2349 563b 2a79 12bd 1093 0abc
00000350: b229 efb6 cdab 4bbb 9557 bc3b 4efa f2bb
00000360: 6c3a 8ebb eff8 a53b 3608 3a3b 1f0c d8bb
00000370: d051 3e3c 31cb 8bbc e57a 15bc 63ce d93b
00000380: b859 373b f9eb 943b 6c4d 563b c914 12bc
00000390: 54a3 753c 682b 4fba 6001 083c 98be 3f3c
000003a0: 5008 063c 40bc 0bbc 6fe4 36bb c3f3 a33b
000003b0: 0760 41bc e6c9 4fbc 8f57 923b a4d2 0f3c
000003c0: 837a 20bb 0ee4 513c 80fa 4f3c adf7 91bc
000003d0: 1297 aa3b 9b3b 4abc b199 2dbc 039c 05bc
000003e0: be21 543b 4840 1d3c 0763 233b 4534 87bb
000003f0: 362e 423c ca8b ab3a 3b79 af3b 122d 283c
0.0076506464 -0.011280265 -0.021120451 0.011848002 -0.021194778 -0.022017693 -0.009724602 -0.020137263
0.0009096673 -0.008812951 0.0074268742 -0.02900927 0.020457918 0.000565393 -0.028728103 0.007872709
-0.04056153 -0.011650847 -0.00086938136 -0.006614024 -0.0045233015 0.005015164 0.00022774792 0.018385917
-0.022971833 0.020060018 0.0056460444 0.02091845 -0.02522978 -0.0030547555 -0.0068970677 0.01340221
-0.0017303698 0.024156952 -0.011621388 0.009442097 -0.02595346 -0.016894083 0.023055982 -0.009950322
0.0003381279 -0.012525857 -0.028500834 -0.014619958 -0.040251523 0.021441394 0.0068902643 0.005509708
0.017794946 -0.011698014 -0.010593112 0.017358806 0.016004516 0.018196605 0.0016504887 -0.011906202
0.029391816 0.012954227 0.007273139 0.023843566 -0.004341202 -0.010972388 0.02852697 -0.010884717
0.0009016738 -0.021482741 0.03011127 0.021978604 0.028682072 0.022331703 -0.023049684 0.016452502
0.027124805 -0.008329705 0.012718674 0.01261473 -0.026348814 -0.010289295 0.018116398 0.0068823486
0.0066756904 -0.009683918 0.0077381697 0.010747133 -0.007994883 0.0009992386 -0.0052011027 -0.0015789723
-0.028756596 -0.00038260082 -0.00972747 0.019199489 -0.0013972055 -0.0006921464 0.017303925 -0.021409474
-0.023607198 0.018041555 -0.021152562 -0.014503155 -0.011700641 0.024401937 0.017408574 -0.004758456
-0.009878759 0.021920577 -0.0057109045 -0.0009416951 0.02952045 -0.020439768 -0.008017476 -0.020302085
0.006336869 -0.020683639 -0.008801561 0.021004263 -0.01373368 -0.025333762 0.008248297 0.011537814
-0.011202991 -0.011217804 -0.008592175 0.025634445 0.01057741 0.022028979 0.027518498 -0.011223547
-0.0146610765 0.030107467 0.010144821 -0.006380621 0.005472927 0.017466975 -0.005516146 0.011165506
-0.011601487 -0.0014725287 -0.00013580597 -0.0050881635 0.0013811704 -0.016883226 -0.0027330702 0.00097138865
-0.005803016 0.012604233 0.00017226936 0.010129068 0.00357234 0.014954577 0.0069320886 -0.0008957764
-0.0004987858 -0.010252337 0.0033704974 -0.005273834 -0.0040714256 -0.0008648984 -0.009413514 -0.0005241309
-0.018659957 -0.03243326 0.018193543 0.013306095 0.0006250065 0.013299234 0.011793584 0.0055218786
0.018750425 -0.0050374847 -0.0024810447 0.016218336 0.00088667445 0.00042410186 -0.0019879884 0.010073342
-0.0032536685 0.0035346425 0.005540508 -0.013878391 -0.019826245 -0.0070457933 0.017669778 0.014108484
0.0054600076 -0.0034974178 0.0033027208 -0.019696541 -0.003035698 0.008250506 -0.011838064 0.010003157
-0.020399367 0.01174023 0.00013064864 -0.0031191912 0.001644568 -0.008611725 0.012309735 0.004731209
-0.015513845 0.012089674 0.0041059335 0.004209127 -0.013741406 -0.0011284875 -0.017700754 -0.0026431798
-0.013225174 0.0032697401 -0.035760082 -0.008457914 -7.127609e-06 -0.0031077743 0.0057477453 -0.0074150926
-0.0043404605 0.0050650756 0.0028386242 -0.006593242 0.011616185 -0.017064663 -0.009123539 0.0066469177
0.002797706 0.0045447317 0.0032699956 -0.008916088 0.014992554 -0.00079028914 0.008301109 0.011703156
0.008180693 -0.008528769 -0.0027907153 0.005003424 -0.01180268 -0.012682414 0.004466004 0.008778248
-0.0024487085 0.01281072 0.012694001 -0.017818296 0.0052059973 -0.012343313 -0.010595725 -0.008154872
0.0032368745 0.009597845 0.002493085 -0.004126104 0.011851838 0.0013087925 0.005355028 0.010264652

action_model._discrete_distribution.branches.0.bias f4 [4]
00000000: 192a 78bc 6e18 a53b 8cea be3c 1444 a0bc
-0.015146756 0.0050383126 0.0233052 -0.019563712

action_model._discrete_distribution.branches.1.weight f4 [3, 128]
00000000: 75d8 ddbc 3180 4d3c 3a96 133c 538c 73bc
00000010: 8282 0a3d bd5a c93c a344 203b a18e f43c
00000020: a681 b23c 66d9 8bbb cdc9 b3bb a56f f83c
00000030: 8c66 f0bb 07fa 0ebc 342d 443d 5a14 953c
00000040: c7ce 063d 0ad8 623c 8eb9 68bc 3771 083c
00000050: b639 063d 8782 fd3c fe15 b0bb 7af0 c13a
00000060: 6402 983c 3da7 aabb fefe db3b acf8 cbbb
00000070: 5fa1 963c 5205 17bc 241e 193d 883a 86bb
00000080: d16a edbc 4659 2cbd 2b56 b4bc 5fed c5bb
00000090: 9fb6 333b fcd6 563c e276 363c 6456 883c
000000a0: 743a 55bc 67c7 2f3c c083 373c 3919 a2ba
000000b0: 69df 183d a3b1 073c 95b1 ca3c b8e8 0ebc
000000c0: 1eb3 75bb eb33 b33b c252 8b3c b8cc 39bb
000000d0: 5515 14bc 4526 93bc b4ee 63bc fa1e 9c3c
000000e0: fd8b 50bc 4e7b 42bc 5fb3 2dbc f48f 45bc
000000f0: d62f 94bb b2a9 b4bb 7846 a0bc b880 3e3a
00000100: 579c a7bb e46b 103d ab41 86bc fffe 5e3c
00000110: 33ee 373c d273 04bb e8f0 c2bb 078e 6bbc
00000120: 1958 c9bc beb7 18bc 2b9a 97bb f4fe 66bc
00000130: ff55 b13c 9ece 063d cb9b b0bc b2a2 a7bc
00000140: e848 72bc e9b5 87bb 572f c4bc 0889 c0bc
00000150: ba70 f23b 8133 84bc edb2 613b 21a5 873c
00000160: febf ae3c b734 643c 20d2 9d3c 3f85 5b3c
00000170: 1521 80ba 5fb3 99bc 0610 97bc 5ff6 47bc
00000180: 2adb 213c 3bd2 1d3c 2a51 5e3c dfdd eabc
00000190: c18d 5dbc 7358 173b be49 6cbc 6717 f7bb
000001a0: 510c 673c 348f cabc 888f d03b a803 7c38
000001b0: c677 a6bc f743 afbc 9836 bc3c e7f7 b83c
000001c0: c302 83bc 61c8 87ba deda 653c 5a62 553c
000001d0: 5071 b3bb 0f48 613c 9bd9 4b3c ee05 91bc
000001e0: c20d 123c 31d4 0b3c 31ff adbc 9df7 77bc
000001f0: 7671 72bc 969b b9bc e181 c2bc 57c7 943b
00000200: a838 bebb 9f59 393c 5b77 8e39 15c6 9fbb
00000210: 0424 9d3a 57ac 6e3c e108 bbbc bfca 87bc
00000220: a771 1d3c 7a06 a73b 8c0c 3c3c 6e9e 1bba
00000230: 17f8 363c b94d ca3b c0b7 4f3c 580e bf3c
00000240: 38c5 893c a8d0 3aba 88c2 f2bb 54bb 8b3c
00000250: 9871 463c bb7d 8a3c 59c8 893b c8fc 443c
00000260: eb22 123c 734a f4bb 5ce5 8ebc 9d08 29bb
00000270: 3612 7a3c c7a3 e7bb 9c10 f2ba 45b6 343c
00000280: 116c f43c a0f3 f13c b41f 53bb 452b 083c
00000290: 9fca 303b 1ebb 4f3c 04b7 ab3c 8a0f 5d3c
000002a0: 93e6 0a3c dbf5 19bb d582 cf3c 8c8e 4c3c
000002b0: 9478 813b 3d3e 3dbc 5fc4 36bb a00f 09bc
000002c0: b618 283b ec3e 6b3c 774c d33c 6bd9 41bc
000002d0: cb81 ea3a 257e 60bc 8407 863b 641c 7d3c
000002e0: c78a 323b cb61 cbbc 2f60 0dbb ff2a 4fbc
000002f0: 89a8 14bc b926 393b fbf5 e4bb 0865 3e3b
00000300: fd49 20bc 216d 453c 81d8 84bb 99ab a0ba
00000310: 5c96 e8bb c4ea 8dbb 72a6 013c 1b10 d93b
00000320: 11fa 0b3c bc61 0bbb 1dea 99bc 3c53 4abb
00000330: 7fa9 0b3c 3bb1 193c 69f3 0cbc 1470 9bbc
00000340: 4c52 bcbc 151f e63c 64df dd3a d123 593b
00000350: fde9 f23b 8b96 343c 8dff 8a3b 443e 903c
00000360: f91f 403a caa5 d23b 776a 393c c9d7 de3b
00000370: bff8 27bc fc6c 87bb 3c61 80bb 5499 043c
00000380: 42d2 783c be96 cc3b a05d dc3b d1b5 27bc
00000390: 85a4 12ba 218c 8bbc 87c6 653b 58bb 1c3c
000003a0: ce9a bc3a 5182 b9bc f3b6 2b3c a8f1 2e39
000003b0: e407 cabb c091 993a 39d1 bcba a974 843c
000003c0: 125e 41bc e531 fa3a c6e4 f63b 81a6 a0bb
000003d0: 20fc 563c 0ede adbb e77a 1cbb 75f7 5abb
000003e0: 36cc 6b3c eeaf 103d 2575 303c 2b5d ff3b
000003f0: 96bc 94bb 7324 733c 4fdc 923b d81b a43b
-0.027080754 0.01254277 0.009007985 -0.014864999 0.03381587 0.0245794 0.0024454973 0.029853167
0.021790337 -0.0042678593 -0.005486703 0.030326674 -0.0073364433 -0.008726603 0.04789467 0.018198181
0.032912042 0.013845453 -0.014204396 0.008327774 0.03276988 0.03094603 -0.0053737154 0.0014796399
0.018555827 -0.0052079246 0.006713747 -0.0062247124 0.018387495 -0.009217577 0.03738226 -0.004096333
-0.028981598 -0.042077325 -0.022013744 -0.0060402597 0.0027422083 0.01311278 0.011136742 0.016642757
-0.013014425 0.010728694 0.011200845 -0.0012367136 0.037322436 0.008282098 0.02474288 -0.008722477
-0.0037490795 0.0054688356 0.017007235 -0.0028350782 -0.009038289 -0.017962584 -0.013911892 0.01905774
-0.012728688 -0.011870218 -0.010601847 -0.012058247 -0.004522304 -0.0055133933 -0.019564852 0.00072671054
-0.0051150727 0.035259143 -0.016388735 0.0136106005 0.011226225 -0.0020210636 -0.0059491284 -0.014377124
-0.024578141 -0.009321151 -0.0046265326 -0.0140988715 0.021647451 0.03291189 -0.021558663 -0.020463321
-0.01478789 -0.0041415584 -0.023948355 -0.023502842 0.007398692 -0.01613784 0.0034438923 0.016558232
0.021331783 0.013928584 0.019265234 0.013398468 -0.0009775484 -0.018762289 -0.018440258 -0.012204736
0.009878913 0.009632642 0.013569156 -0.02867025 -0.013522566 0.0023093491 -0.014421878 -0.0075406316
0.014102058 -0.024726488 0.0063647665 6.0084887e-05 -0.020320784 -0.021394713 0.022975251 0.022579147
-0.015992528 -0.00103594 0.014029233 0.013023937 -0.0054761544 0.01375009 0.012442018 -0.017703023
0.008914413 0.008534477 -0.021239849 -0.015134719 -0.014797559 -0.022657197 -0.023743572 0.0045403647
-0.005805094 0.011312871 0.00027173277 -0.004875908 0.0011988883 0.014567456 -0.022831382 -0.016576169
0.009609616 0.0050972076 0.011477601 -0.00059363886 0.011167548 0.006173816 0.012678087 0.02332227
0.016817674 -0.0007126429 -0.007408444 0.017057098 0.012112044 0.016905656 0.0042047915 0.012023158
0.008919458 -0.007455164 -0.017443351 -0.0025792487 0.015263131 -0.0070690843 -0.0018468085 0.011029785
0.029836686 0.029535115 -0.0032214941 0.0083110975 0.002697624 0.01267889 0.020961292 0.013492474
0.008477825 -0.0023492489 0.02533094 0.012485158 0.0039511416 -0.011550483 -0.0027888042 -0.008365542
0.0025649494 0.014358263 0.025793297 -0.011831622 0.0017891465 -0.01370195 0.0040902514 0.015448663
0.0027243362 -0.024826905 -0.0021572222 -0.012644528 -0.009073385 0.002825184 -0.006987331 0.0029051919
-0.009783265 0.012049944 -0.0040541296 -0.0012258171 -0.0070980024 -0.0043309648 0.007913219 0.0066242344
0.008543507 -0.002126797 -0.018788392 -0.0030872365 0.008524298 0.009380634 -0.008602955 -0.018974341
-0.022988461 0.028090993 0.0016927538 0.003313292 0.0074131475 0.01102222 0.00424189 0.017607816
0.0007328983 0.006428455 0.011316887 0.006800626 -0.010252177 -0.004132865 -0.0039178412 0.008093197
0.015186848 0.006243556 0.006725028 -0.0102362195 -0.00055939733 -0.017034592 0.0035060958 0.009566151
0.0014389397 -0.022645148 0.01048063 0.00016683957 -0.0061654914 0.001171641 -0.0014405615 0.01616891
-0.011802213 0.0019088356 0.007534596 -0.0049026613 0.013121635 -0.005306012 -0.0023876966 -0.0033411656
0.014391949 0.03532403 0.010770117 0.007793089 -0.0045390828 0.014840233 0.0044818292 0.005008202

action_model._discrete_distribution.branches.1.bias f4 [3]
00000000: 46a5 da3b 5b70 c73b aba5 15bc
0.006672534 0.006086392 -0.009133737
