results/player/My Behavior.onnx (onnx, 92206 bytes, 9 tensors)

discrete_act_size_vector f4 [1, 2]
0	0x40800000	4.0
1	0x40400000	3.0

network_body._body_endoder.seq_layers.0.weight f4 [128, 29]
0	0xbebbc329	-0.36672333
1	0xbd8339d6	-0.06407516
2	0x3e86af7a	0.26305753
3	0xbd7670c6	-0.060166143
4	0xbdbe65fd	-0.092967965
5	0xbd95f6ee	-0.07322489
6	0x3e29f6c3	0.16598038
7	0xbd084d88	-0.033277065
8	0xbea76876	-0.32696885
9	0xbe785bd4	-0.2425378
10	0xbe85ea66	-0.26155394
11	0x3e078bf6	0.13236985
12	0xbec34913	-0.3814169
13	0x3d17fc7d	0.037106026
14	0x3d588b45	0.052867193
15	0x3efbe71e	0.49199766
16	0x3e5051fc	0.20343775
17	0x3e8ce1f0	0.27516127
18	0x3e1ce3fb	0.15321343
19	0xbd478506	-0.048710845
20	0x3c9a9e14	0.018874206
21	0x3d194bb9	0.03742573
22	0x3d18a68c	0.037268206
23	0x3a993209	0.0011687885
24	0x3d897c06	0.06713109
25	0x3eb1466c	0.3462404
26	0xbec9eed8	-0.39440036
27	0x3e40552c	0.1878249
28	0xbe40d392	-0.18830708
29	0xbd572204	-0.052522674
30	0xbe5bd0ee	-0.21466419
31	0x3e175d26	0.14781627
32	0x3e20f9f2	0.15720347
33	0xbe535162	-0.20636514
34	0x3d5d8fa3	0.05409206
35	0xbd0c707d	-0.034286965
36	0xbe392aee	-0.18082783
37	0xbe304d66	-0.17217025
38	0xbe16cfff	-0.14727782
39	0xbe24f299	-0.16108169
40	0xbd13aa92	-0.03605134
41	0xbdb83cf2	-0.089959994
42	0x3decba83	0.11559012
43	0x3ec3d89b	0.38251194
44	0x3cc07020	0.023490965
45	0x3e370a99	0.17875136
46	0x3efc300e	0.49255413
47	0x3db1bdaa	0.08678754
48	0x3b08ca6d	0.0020872608
49	0x3daffd73	0.085932635
50	0x3d9ce572	0.07660951
51	0x3e75cba3	0.24003462
52	0xbea24bf8	-0.31698585
53	0xbbf8979f	-0.007586434
54	0x3e46a521	0.19398929
55	0x3e475daa	0.19469324
56	0xbdfe13ec	-0.124061435
57	0xbe15ea72	-0.14640215
58	0xbe5f1441	-0.2178507
59	0x3dd45a54	0.10368791
60	0x3e3fa6b6	0.18715939
61	0xbccc5236	-0.024941545
62	0x3f0ba0f5	0.54542476
63	0xbcbf07e9	-0.023319202
64	0x3e94cac3	0.29060945
65	0x3e772570	0.24135375
66	0xbe1a902c	-0.1509406
67	0x3c84e094	0.016220368
68	0xbd3cb740	-0.0460732
69	0xbe1cda1c	-0.15317577
70	0xbd451e2e	-0.048124485
71	0xbf0c1165	-0.5471404
72	0xbce32dd2	-0.02773181
73	0x3e01e232	0.12683943
74	0x3ea817aa	0.32830554
75	0x3e5be409	0.21473707
76	0xbe248a84	-0.16068465
77	0x3e3dd170	0.18536925
78	0xbbb17c7e	-0.005416452
79	0xbd016c74	-0.03159757
80	0xbf07c5b3	-0.5303604
81	0xbdd7517c	-0.10513589
82	0xbe3b99d4	-0.183204
83	0xbe054be1	-0.13017227
84	0x3eacd8bd	0.33759108
85	0xbdbe32c5	-0.09287027
86	0x3d203016	0.03910836
87	0xbc1ad20a	-0.009449491
88	0x3d93a634	0.07209435
89	0x3e60acd2	0.21940926
90	0xbe170c82	-0.14750865
91	0x3e97410e	0.2954182
92	0x3d81c37a	0.06336112
93	0x3e86433d	0.26223174
94	0x3c782447	0.015145368
95	0x3ea2700f	0.3172612
96	0xbeb7facd	-0.35933533
97	0x3f06358b	0.5242545
98	0x3e0853cd	0.13313217
99	0x3df98555	0.12183634
100	0xbe323ab1	-0.17405201
101	0xbf152eb1	-0.5827437
102	0xbe21a5a1	-0.15785839
103	0x3c39e5a6	0.011346256
104	0xbe859839	-0.260927
105	0x3cef848d	0.02923801
106	0x3def9f42	0.11700298
107	0xbd556354	-0.05209668
108	0xbea93697	-0.3304946
109	0xbe5e0a43	-0.21683602
110	0x3d6842fb	0.056704503
111	0xbe552890	-0.20816255
112	0x3e5702de	0.20997187
113	0x3ce48d4a	0.027899403
114	0x3d5f77cb	0.054557603
115	0x3ed5ca56	0.41755933
116	0x3d174bea	0.03693763
117	0xbee77c80	-0.45212173
118	0xbe0420ff	-0.12903212
119	0x3eb702cc	0.3574432
120	0xbdde79dd	-0.10863087
121	0xbd9e8d22	-0.07741763
122	0xbe993a78	-0.2992742
123	0x3e18755b	0.14888518
124	0xbe175694	-0.1477912
125	0xbd2a6a1f	-0.04160511
126	0xbddcb90d	-0.10777483
127	0xbd80785a	-0.06272955
128	0xbd59bfe4	-0.053161517
129	0x3f0599c4	0.5218775
130	0x3d98b9af	0.07457291
131	0x3e894e5f	0.26817605
132	0x3e9c1378	0.30483603
133	0x3a933a54	0.0011232593
134	0x3e89b9fc	0.26899707
135	0x3d67021c	0.056398496
136	0x3e78fc10	0.24314904
137	0x3e3bc87f	0.18338202
138	0x3e2af967	0.16696702
139	0xbe27299c	-0.16324466
140	0xbd118986	-0.035531543
141	0xbebaa027	-0.36450312
142	0x3e806216	0.25074834
143	0x3d0da2d9	0.03457913
144	0x3d1ec089	0.038757835
145	0xbe2fe4d1	-0.1717713
146	0x3c3ce078	0.011528127
147	0x3e853a79	0.26021174
148	0x3d4e781f	0.050407525
149	0xbee2c0f5	-0.4428784
150	0xbc515feb	-0.012779216
151	0x3df89299	0.12137336
152	0xbe2f6e62	-0.17131951
153	0xbda4b4bb	-0.08042284
154	0x3e306da6	0.17229328
155	0x3e076743	0.13222985
156	0xbdec2e89	-0.115323134
157	0xbd428fc3	-0.047500383
158	0xbe1c0753	-0.15237169
159	0xbd4fbcf6	-0.050717317
160	0xbeb59416	-0.35464543
161	0xbe3350ef	-0.17511342
162	0xbe5c91de	-0.21540019
163	0x3e7a0093	0.24414282
164	0x3df1cea6	0.11806993
165	0x3ca66b2d	0.020314777
166	0x3e5d2d98	0.21599424
167	0x3ebaced3	0.3648592
168	0x3e207ede	0.15673396
169	0xbe332cac	-0.1749751
170	0xbd96c9dd	-0.07362721
171	0x3ef87b9b	0.48531803
172	0xbd1ca163	-0.038239848
173	0xbe3bba62	-0.18332818
174	0x3e818b96	0.25301808
175	0xbe35cc2c	-0.17753667
176	0x3db422a2	0.08795668
177	0x3d3df116	0.046372496
178	0xbe589942	-0.21152213
179	0x3dcd3f45	0.10021833
180	0x3e5c1216	0.21491274
181	0x3e612011	0.21984889
182	0xbe8da2e2	-0.27663332
183	0xbda0d659	-0.078533836
184	0x3a871d3c	0.0010308395
185	0x3d8d35ec	0.068950504
186	0x3a15f32a	0.0005720133
187	0xbe970c6d	-0.29501668
188	0x3ef66e3b	0.48130974
189	0xbd959d07	-0.07305341
190	0x3e14a9c2	0.14517882
191	0x3ebee8d1	0.37287
192	0x3dc4db63	0.09612157
193	0xbea47e8a	-0.32127792
194	0x3eac5715	0.33660188
195	0xbe441783	-0.19149594
196	0x3e29a8d6	0.16568312
197	0x3cd67347	0.026178015
198	0x3da2960f	0.07938778
199	0x3d240d35	0.040051658
200	0x3e82b817	0.25531074
201	0x3eac0193	0.3359495
202	0x3d2dd986	0.042443775
203	0x3dbe5057	0.09292667
204	0xbe2d8a42	-0.16947272
205	0x3e1c1102	0.15240863
206	0x3e962345	0.29323784
207	0xbe2bd7be	-0.16781518
208	0xbbc47015	-0.0059948065
209	0xbd5d1135	-0.053971488
210	0x3e66e427	0.2254797
211	0x3d7f27bc	0.062293753
212	0x3d8b112e	0.06790386
213	0xbe289355	-0.16462453
214	0xbeb8a817	-0.36065742
215	0xbe8d1ec4	-0.27562535
216	0xbb4d1b39	-0.0031296744
217	0x3e9c5adf	0.3053808
218	0x3da8784a	0.08226068
219	0xbe6b8dfe	-0.23003384
220	0x3eaacca1	0.33359244
221	0xbe026780	-0.12734795
222	0x3e86ec71	0.26352265
223	0xbe1fc30c	-0.15601748
224	0xbd69f0d9	-0.057114456
225	0xbe8eac94	-0.27866042
226	0xbdb27159	-0.087130256
227	0xbe847344	-0.2586919
228	0xbe00cb92	-0.12577656
229	0x3db19089	0.08670146
230	0x3d6def7e	0.058089726
231	0xbe3dcb76	-0.18534645
232	0xbdb8bded	-0.090206005
233	0x3ee4032a	0.44533664
234	0x3dec785e	0.11546396
235	0xbe5d9dad	-0.2164218
236	0x3e151e4a	0.14562336
237	0xbde46187	-0.11151414
238	0x3de19b89	0.11015994
239	0xbe06a63e	-0.13149354
240	0x3e95d3b0	0.29263067
241	0x3e6dc572	0.2321985
242	0x3d9bc316	0.07605569
243	0x3e47b3f5	0.19502242
244	0x3d98940f	0.07450115
245	0xbe6dedbd	-0.23235221
246	0xbeefc776	-0.46831864
247	0x3de6b7b0	0.11265504
248	0x3e4beb84	0.19914061
249	0x3e03507a	0.12823668
250	0xbe5f00bd	-0.21777625
251	0xbe66b271	-0.22529007
252	0xbef7d5b8	-0.48405242
253	0xbebf154f	-0.37320945
254	0xbdb9d2a4	-0.0907338
255	0xbd1f672a	-0.038916744

network_body._body_endoder.seq_layers.0.bias f4 [128]
0	0x3c47ac68	0.012187101
1	0x3c5fc9ca	0.01365895
2	0x3ce5d23e	0.028054353
3	0x3d2bd0b6	0.04194709
4	0x3d1e7e00	0.03869438
5	0x3c37cd26	0.011218345
6	0x3d3fa88a	0.04679159
7	0x3d0fbfdb	0.035095077
8	0x3d485501	0.04890919
9	0x3d9a00f5	0.07519714
10	0x3cde84ef	0.027162997
11	0x3c266ef0	0.0101582855
12	0x3d4b82eb	0.0496854
13	0xbbd7c8a6	-0.0065851985
14	0x3d067896	0.032829843
15	0xbcca3a0a	-0.024685878
16	0x3cc98476	0.024599295
17	0x3d7b55e2	0.0613612
18	0xbc8b9185	-0.017037163
19	0x3d3557dc	0.044273242
20	0x3d3f7f91	0.046752516
21	0xbd02008b	-0.0317388
22	0x3cc690a2	0.024238888
23	0x3c9596ac	0.018260323
24	0x3cb16bce	0.02165785
25	0x3d116b80	0.03550291
26	0x3d1c3684	0.038137928
27	0xbd60f729	-0.05492321
28	0x3cd6a1a7	0.026200129
29	0x3d4a9989	0.04946283
30	0x3d82b316	0.06381814
31	0x3d172f4f	0.03691035
32	0x3d10302f	0.0352022
33	0x3cefda81	0.029278995
34	0xbd44e572	-0.04807038
35	0x3cab3324	0.02089841
36	0x3d475700	0.048666954
37	0xbd6cfebc	-0.05786012
38	0x3d6bef2c	0.05760114
39	0x3d5108fb	0.051033955
40	0x3d05707c	0.032577977
41	0x3d450f8b	0.048110526
42	0x3cf0586e	0.029339042
43	0x3d0ba9b6	0.034097396
44	0x3bcfbe7d	0.0063398466
45	0x3d97d94f	0.07414495
46	0x3d2ca095	0.04214533
47	0x3d4118b6	0.047142707
48	0x3d418b5d	0.047252048
49	0xbd9acc85	-0.0755854
50	0x3bffb5bc	0.007803647
51	0x3cee1ee6	0.029067468
52	0x3c968e10	0.018378288
53	0x3cd819bf	0.026379464
54	0x3d2525cd	0.040319253
55	0xbcc2b4d6	-0.02376787
56	0x3d4cb09d	0.04997312
57	0x3d390332	0.045169063
58	0x3cdc467e	0.026889082
59	0x3c6b9dc9	0.014380881
60	0x3c8e52e5	0.017373512
61	0xbccdbb77	-0.025113804
62	0x3c5b9786	0.013402825
63	0x3cf6d142	0.030129079
64	0x3ca2c20a	0.019867916
65	0xbcf6082a	-0.03003319
66	0x3d59b890	0.05315453
67	0x3ce45381	0.027871849
68	0x3d4b6776	0.049659215
69	0x3d0a29e8	0.03373137
70	0x3ce63910	0.028103381
71	0x3d115614	0.03548248
72	0x3d4a7df1	0.049436513
73	0xba5d0939	-0.0008431855
74	0x3d7da732	0.061927028
75	0x3d07f316	0.03319081
76	0x3d36bcb2	0.044613548
77	0x3cb4b7aa	0.022060234
78	0x3d585ac9	0.052820954
79	0x3b8f7662	0.004378126
80	0x3d12ecd5	0.035870392
81	0x3d09a6a2	0.03360618
82	0xbca5f31a	-0.020257521
83	0x3c73eaca	0.014887521
84	0x3d0dea5b	0.034647327
85	0x3d065fb9	0.032806132
86	0x3bc14f7e	0.005899369
87	0x3d0b65c3	0.034032594
88	0x3d57c50a	0.052678145
89	0x3cbf4a53	0.02335087
90	0x3d2db4af	0.04240864
91	0x3c99aaba	0.018758167
92	0xbc281a92	-0.010260241
93	0x3d1a1eaf	0.03762692
94	0x3d4ea880	0.050453663
95	0x3cad8059	0.021179365
96	0x3d814adb	0.06313106
97	0x3d37b0a0	0.044846177
98	0x3d615d75	0.05502077
99	0x3caffab1	0.021481844
100	0x3c4ceeff	0.012508153
101	0x3c45bcb3	0.012068915
102	0x3d707789	0.058707748
103	0x3ce80458	0.028322384
104	0x3c9bd975	0.01902459
105	0x3d2acc4b	0.041698735
106	0x3ca34be1	0.019933643
107	0x3d2a97ea	0.041648783
108	0x3d02fa9d	0.031977285
109	0x3d7b114f	0.061295804
110	0x3d53bdb5	0.05169459
111	0x3c86790a	0.016415138
112	0x3d356778	0.04428813
113	0x3d30ef6c	0.04319708
114	0x3d46c562	0.048528083
115	0x3d3248e5	0.04352655
116	0x3d2fde40	0.042936563
117	0x3d23a518	0.039952368
118	0x3ca9f3ac	0.020746075
119	0x3d077742	0.033072717
120	0x3d1799b1	0.037011806
121	0x3d691ffb	0.056915265
122	0x3d6e291c	0.058144674
123	0xbd6c2e71	-0.057661477
124	0x3cfd3450	0.030908734
125	0xbb9d9d5e	-0.0048100194
126	0x3cf75115	0.03019003
127	0x3d2bf1c8	0.041978627

network_body._body_endoder.seq_layers.2.weight f4 [128, 128]
0	0x3cbca342	0.023027066
1	0x3e18f83a	0.14938441
2	0x3ddb4b9d	0.107077815
3	0xbd66293e	-0.056191675
4	0x3e5739e0	0.21018171
5	0xbdb15eea	-0.086606815
6	0x3de44079	0.1114511
7	0x3d734dfb	0.05940054
8	0xbe24b538	-0.16084754
9	0x3d004de3	0.03132428
10	0xbd9249e0	-0.07142997
11	0x3d52f0a8	0.05149904
12	0x3e67d38b	0.22639291
13	0x3dc0b26b	0.094090305
14	0x3e38d564	0.18050152
15	0x3d3d32a7	0.046190884
16	0x3bbcbe54	0.0057599936
17	0xbd2e934a	-0.042620935
18	0xbcf0da5f	-0.029401002
19	0x3df5834f	0.11987936
20	0xbdaf0b6e	-0.08547102
21	0x3d8ab38d	0.06772528
22	0xbc8dfe66	-0.01733322
23	0x3e210264	0.15723568
24	0xbe26ccbe	-0.1628904
25	0x3e0d5dfa	0.1380538
26	0xbd481157	-0.04884466
27	0xbe2244fd	-0.1584663
28	0xbd0dbdfd	-0.034605015
29	0xbc35c2ea	-0.011093834
30	0x3b4a0e13	0.0030831143
31	0x3d4fd499	0.05073986
32	0xbd942550	-0.07233679
33	0xbe116cc4	-0.14201647
34	0xbdc67a30	-0.09691274
35	0xbda01e13	-0.07818236
36	0xbe0ecf82	-0.13946345
37	0x3d14f63d	0.036367644
38	0x3e4f865b	0.20266096
39	0xba39c169	-0.00070860103
40	0xbd982e19	-0.074306674
41	0x3db92dcd	0.09041939
42	0xbd1a3131	-0.03764457
43	0x3d972fcf	0.07382166
44	0x3c830311	0.015992673
45	0x3d6b0274	0.057375386
46	0x3e1c6650	0.15273404
47	0x3db4cf37	0.088285856
48	0xbdd4e808	-0.10395819
49	0xb9f5d94d	-0.00046891943
50	0xbdf0b378	-0.11752981
51	0xbda19252	-0.078892365
52	0x3c6c2476	0.01441299
53	0x3d6c4d5c	0.057690963
54	0xbcd1be6d	-0.025603497
55	0xbdb3d011	-0.0877992
56	0x3dc3fcae	0.09569679
57	0x3d7d2e52	0.061811753
58	0xbd24c660	-0.040228248
59	0xbe24acf3	-0.160816
60	0x3d9a6aa2	0.0753987
61	0x3cac9e1a	0.021071482
62	0xbd14891b	-0.036263566
63	0xbdb7a0a7	-0.08966189
64	0x3d9af4fc	0.07566258
65	0x3da42a13	0.080158375
66	0xbdae25fd	-0.085033394
67	0xbe947453	-0.28994998
68	0x3e096c61	0.1342025
69	0x3d830247	0.06396919
70	0x3e1da602	0.15395358
71	0xbe1f6fcc	-0.15569991
72	0x3d360f22	0.044448026
73	0x3e38bfef	0.18041967
74	0x3e0bf42c	0.13667363
75	0xbd44e056	-0.048065506
76	0x3dfe0ebe	0.124051556
77	0xbcad519a	-0.021157075
78	0x3edc2a8e	0.43001217
79	0x3e3c3211	0.18378474
80	0xbe184715	-0.14870866
81	0x3d0e058f	0.03467327
82	0x3dc613f0	0.096717715
83	0xbba57bb1	-0.0050501456
84	0x3dba8ee9	0.09109289
85	0xbc200e6f	-0.009769066
86	0xbd16bff7	-0.036804166
87	0x3d8029fe	0.062580094
88	0x3dbbbd33	0.09166946
89	0xbe29ad78	-0.1657008
90	0x3d74e19e	0.059785478
91	0xbe11caaa	-0.14237466
92	0xbe1c49c3	-0.15262513
93	0x3e33291f	0.17496155
94	0x3d438f60	0.047744155
95	0xbdc8f7ea	-0.09812911
96	0x3df11cf9	0.11773104
97	0xbde17d7d	-0.11010263
98	0x3e5cdcb6	0.2156857
99	0xbc88b5ef	-0.016688315
100	0xbb629d94	-0.0034578787
101	0x3d86b537	0.06577533
102	0x3da7ce3c	0.08193633
103	0xbc3a8dc7	-0.011386341
104	0xbea40d62	-0.3204146
105	0xbe0ec3eb	-0.13941924
106	0xbd52edbb	-0.05149625
107	0x3d22874a	0.039679803
108	0xbe2266e4	-0.15859562
109	0x3d7cfda8	0.061765343
110	0x3e2ba501	0.16762163
111	0x3c073841	0.008253158
112	0x3e1a9b8c	0.15098399
113	0x3d48a441	0.04898477
114	0xb9ddfb42	-0.00042339606
115	0x3d6489c6	0.055795453
116	0x3bbd898d	0.0057842196
117	0x3cfa771e	0.030574378
118	0x3dec4b32	0.1153778
119	0xbdcdf687	-0.10056787
120	0x3d6508ab	0.05591647
121	0x3d215a4c	0.039392754
122	0x3de6dd3b	0.11272665
123	0xbdab3393	-0.083594464
124	0xbd851733	-0.064985655
125	0x3d741b14	0.059596136
126	0x3d87a339	0.06622929
127	0x3c91a37d	0.017778153
128	0x3dee6482	0.11640264
129	0x3e27905b	0.16363661
130	0x3dd48257	0.10376423
131	0xbcbc7894	-0.023006715
132	0x3e146f49	0.14495577
133	0xbe02b66a	-0.12764898
134	0xbca1b93f	-0.019741653
135	0xbe041235	-0.1289757
136	0xbe3bf616	-0.18355593
137	0xbe6cf611	-0.23140742
138	0xbda0bfe3	-0.078490995
139	0x3e2d8355	0.1694463
140	0x3de812b1	0.1133169
141	0x3c860c69	0.01636334
142	0x3da3606b	0.07977375
143	0x3d9d58c6	0.07682948
144	0xbba4ed4d	-0.0050331713
145	0xbe5239b6	-0.20529827
146	0xbcbf0bdd	-0.023321087
147	0xbde59b05	-0.11211208
148	0xbc7a9a7f	-0.015295624
149	0x3d87e11d	0.06634734
150	0x3d883947	0.0665155
151	0x3e657b79	0.22410382
152	0x3bbd10b3	0.005769813
153	0x3c8396e5	0.016063163
154	0x3c0270f4	0.0079615
155	0x3c1be7ef	0.0095157465
156	0xbd0c4e2f	-0.03425425
157	0xbe7bfcfc	-0.24608225
158	0x3e7b2ca3	0.24528746
159	0x3e882de6	0.26597518
160	0xbd867510	-0.06565297
161	0x3d2ac50b	0.04169182
162	0xbdf5904d	-0.11990414
163	0x3dab09f5	0.083515085
164	0x3b57a761	0.0032906162
165	0xbd0d39ec	-0.034479067
166	0xbd9c7855	-0.07640139
167	0x3e3264b6	0.1742123
168	0x3d1b9f3b	0.03799365
169	0xbe5abbeb	-0.21360748
170	0xbe1e9669	-0.15487064
171	0x3cc9703e	0.024589654
172	0x3c20f840	0.009824812
173	0xbdaa4e8b	-0.08315762
174	0x3d7b226e	0.06131213
175	0x3e2dd5c9	0.16976084
176	0xbbd63ac4	-0.006537767
177	0x3e1e50fe	0.15460584
178	0xbe03a818	-0.12857091
179	0x3e0b042e	0.13575813
180	0x3dd8205e	0.105530486
181	0x3e8142a3	0.25246152
182	0x3d00bb7e	0.031428806
183	0x3e3c36e6	0.18380317
184	0xbce5310c	-0.027977489
185	0x3da0691e	0.078325495
186	0x3d7acba6	0.06122937
187	0x3d99d58c	0.07511434
188	0xbd283b7e	-0.04107236
189	0xbcb73768	-0.022365287
190	0x3d21ea3d	0.039530028
191	0xbdc9e0af	-0.09857308
192	0xbe23fd7d	-0.16014667
193	0xbdc9e3d1	-0.09857906
194	0x3b63bc0a	0.0034749531
195	0xbd954473	-0.07288446
196	0x3d701286	0.058611415
197	0xbd07d61d	-0.03316318
198	0x3e85d958	0.26142383
199	0xbd2b79cc	-0.0418642
200	0x3e3f7d29	0.18700089
201	0x3df72ba6	0.12068872
202	0x3d26e562	0.0407461
203	0xbe11b676	-0.1422976
204	0x3daae1e8	0.083438694
205	0x3d1d6826	0.0384294
206	0x3e025adb	0.12729971
207	0x3d5f065a	0.054449417
208	0xbd87725c	-0.06613609
209	0xbd85e451	-0.065376885
210	0xbc784231	-0.0151525
211	0x3e51ab5f	0.20475529
212	0xbdbfa6d9	-0.093579955
213	0xbd13ebf0	-0.03611368
214	0xbdbd219a	-0.092349246
215	0x3e30a6b3	0.1725109
216	0x3d95c1d4	0.073123604
217	0xbd74ff81	-0.05981398
218	0xbd72b2c8	-0.05925253
219	0x3c9c2360	0.019059837
220	0xbd7d5e5e	-0.061857574
221	0x3a836296	0.0010023888
222	0x3c116558	0.00887426
223	0x3da31edd	0.07964871
224	0x3e4468f3	0.1918066
225	0x3aed602e	0.0018110329
226	0xbe2d125b	-0.16901533
227	0x3dee94e8	0.11649495
228	0xbca8f8e2	-0.02062649
229	0x3c8aed89	0.016958969
230	0x3d431782	0.04762984
231	0xbd67c969	-0.056588564
232	0xbd5c0340	-0.053714037
233	0x3d902485	0.070382155
234	0x3dd4b0d4	0.1038529
235	0x3d285d66	0.041104697
236	0x3dd1bbd3	0.10240903
237	0xbd257908	-0.040398628
238	0xbe4164fa	-0.18886176
239	0xbdb65735	-0.08903352
240	0xbde506ce	-0.111829385
241	0x3baf53ba	0.005350557
242	0xbde0d9f0	-0.10979068
243	0xbd3e3870	-0.04644054
244	0xbd8d9190	-0.069125295
245	0xbde18450	-0.11011565
246	0x3da11b5b	0.07866546
247	0xbabcb75f	-0.001439791
248	0xbd605b39	-0.054774497
249	0xbcc765fa	-0.024340618
250	0x3e37ee2c	0.17961949
251	0x3e238221	0.15967609
252	0xbdfa85a6	-0.12232523
253	0xbd1cab9d	-0.0382496
254	0xbc79a928	-0.015238084
255	0xbd82923c	-0.06375548

network_body._body_endoder.seq_layers.2.bias f4 [128]
0	0x3ca8130e	0.020516898
1	0x3aee2ec8	0.0018171901
2	0x3c97216f	0.01844856
3	0x3ceb4dd8	0.028723642
4	0x3c752dbe	0.014964519
5	0x3c9891b6	0.018624168
6	0x3d0ca720	0.03433907
7	0x3c6094e2	0.013707371
8	0xbbb78bd1	-0.005601384
9	0x3d1815c5	0.037130136
10	0x3cdf9b99	0.027295874
11	0x3c394958	0.01130899
12	0x3c2b18c6	0.010442918
13	0x3c8b61f2	0.017014477
14	0x3cc4e9a2	0.024037186
15	0x3d2bada5	0.041913647
16	0x3cc05339	0.023477184
17	0x3cd3c3e1	0.025850238
18	0x3d104038	0.035217494
19	0xbc55923d	-0.013035354
20	0x3d27483f	0.040840384
21	0x3cf14f27	0.029456688
22	0x3b732f0d	0.0037106902
23	0x3d344d24	0.04401888
24	0x3ca852a4	0.020547219
25	0x3d2e52d2	0.042559452
26	0x3d457ad9	0.04821286
27	0x3c043c6f	0.008071049
28	0xbd60f4a1	-0.054920796
29	0x3c91ece9	0.017813163
30	0x3cb784aa	0.022402126
31	0x3c5b4506	0.013383156
32	0x3cce27cb	0.02516546
33	0xbc092340	-0.008370221
34	0x3ba91957	0.0051604914
35	0x3bd7ea76	0.006589229
36	0x3ca9239b	0.02064686
37	0xbc91f846	-0.017818581
38	0x3cafeb19	0.021474408
39	0x3c647729	0.013944426
40	0xbc29770b	-0.010343323
41	0xbd598bd5	-0.05311187
42	0x3c9d7678	0.01922153
43	0x3bd52fbf	0.006505936
44	0x3bf131fa	0.007360694
45	0x3b0d6423	0.0021574579
46	0x3c81dc7c	0.015852205
47	0x3d244b34	0.04011078
48	0x3d147034	0.036239818
49	0x3c4a1399	0.012333774
50	0x3cb4ed74	0.022085883
51	0x3cafb5ec	0.021449052
52	0x3d27fbb4	0.041011527
53	0x3bbb3bf6	0.005713935
54	0xbba5691f	-0.005047932
55	0x3c620255	0.013794501
56	0x3c44c07e	0.012008784
57	0xbc64231d	-0.013924387
58	0x3c4b2dcc	0.012401056
59	0x3d08fd6a	0.0334448
60	0xbd6cb133	-0.057786178
61	0x3cdbba24	0.026822157
62	0x3d0afbd1	0.033931557
63	0xbc7c2389	-0.015389332
64	0x3d29c118	0.041443914
65	0x3c5cca83	0.013476017
66	0x3d200aa2	0.03907264
67	0x3a6be54e	0.00089987076
68	0x3cda5d8b	0.026655933
69	0x3cf8c737	0.03036843
70	0x3cb12e74	0.021628596
71	0xbbfdd723	-0.0077465936
72	0x3d145b07	0.036219623
73	0x3caa08b1	0.020756098
74	0x3cbfbc5a	0.023405243
75	0x3d71ed17	0.059063997
76	0x3c05bb5d	0.008162347
77	0xbbcfd43b	-0.0063424385
78	0x3ce86ec5	0.028373132
79	0xb9229a24	-0.00015506946
80	0x3cd43ca9	0.025907831
81	0x3cf88c50	0.030340344
82	0xbd48cbd6	-0.049022518
83	0x3a5f077e	0.00085078913
84	0x3c3ec2a8	0.011643089
85	0x3b80f9bb	0.00393602
86	0x3d09d568	0.033650786
87	0x3bad6d49	0.005292569
88	0x3b6c8dea	0.003609533
89	0x3ca76ef9	0.020438658
90	0x3c978742	0.018497113
91	0x3cf3e59a	0.029772568
92	0x3d0642ba	0.03277848
93	0xbc09d214	-0.008411903
94	0x3ce76da8	0.02825053
95	0x3cc8e5c6	0.024523627
96	0x3cf8357a	0.030298937
97	0x3d049c87	0.03237584
98	0x3cd6e6f2	0.02623317
99	0x3cf4ad05	0.029867658
100	0x3c84bf6e	0.016204562
101	0x3cd998c3	0.0265621
102	0x3cda430b	0.026643297
103	0x3c42cd68	0.011889793
104	0x3c9df78e	0.019283082
105	0x3c5b9993	0.013403314
106	0x3d00dac6	0.03145864
107	0x3cba6aa7	0.022755934
108	0x3c7ddff1	0.015495286
109	0x3d08d8d0	0.033409894
110	0x3d1a9346	0.037738107
111	0x3d332bdb	0.043742996
112	0x3c527451	0.012845115
113	0xbc0cd593	-0.008595842
114	0x3cf72606	0.030169498
115	0x3ca56237	0.020188434
116	0x3d07da87	0.03316739
117	0x3cab1b25	0.020886967
118	0x3cd2f2d6	0.025750559
119	0x3b329b14	0.0027253078
120	0x3cd68139	0.026184665
121	0x3d0d1339	0.03444216
122	0x3c8211e2	0.015877668
123	0x3bde5e2e	0.0067861294
124	0x3ba0291a	0.004887712
125	0x3c7e0f26	0.015506541
126	0x3c93779e	0.018001374
127	0x3c8919ea	0.01673599

action_model._discrete_distribution.branches.0.weight f4 [4, 128]
0	0x39d0baa4	0.0003981191
1	0xbde661dc	-0.11249134
2	0xbc0b58ed	-0.008505088
3	0xbc9c541f	-0.01908308
4	0x3d8f44ee	0.06995569
5	0x3de93a7d	0.11388109
6	0x3c554cc3	0.01301879
7	0xbc152019	-0.009101891
8	0x3d2328ac	0.03983371
9	0xbd1680f3	-0.03674407
10	0x3d00b246	0.031420015
11	0xbd01e45c	-0.03171192
12	0xbd9034d3	-0.070413254
13	0xbcdb87fe	-0.026798245
14	0xbcb2f2d1	-0.0218443
15	0xba6e87bd	-0.0009099206
16	0xbbc2200a	-0.0059242295
17	0x3d8783f1	0.06616963
18	0x3d1a1886	0.037621044
19	0x3c2d5b62	0.010580869
20	0x3ae4fe37	0.0017470781
21	0xbccfe462	-0.025377456
22	0xbcbb6c9c	-0.022878937
23	0xbcbbf47c	-0.022943728
24	0xbca3e258	-0.02000539
25	0xbd34e5c6	-0.04416444
26	0xbca29d48	-0.019850388
27	0xbd2b28a1	-0.041786794
28	0x3b8724c3	0.0041242554
29	0xbc90dcb7	-0.01768337
30	0xbd255cfe	-0.040371887
31	0xbc59d937	-0.013296417
32	0xbcb05206	-0.021523487
33	0xbc2fb34e	-0.010723902
34	0x3c105b01	0.0088107595
35	0xbcf101e0	-0.02941984
36	0x3c148d95	0.009066959
37	0x3cd696b0	0.0261949
38	0x3cf579da	0.02996533
39	0xbb965df4	-0.004588837
40	0xbd5f5628	-0.054525524
41	0xbb98fa34	-0.0046684984
42	0x3d587371	0.05284447
43	0xbcc64586	-0.024203073
44	0x3d768cac	0.06019275
45	0xbd89b88e	-0.06724654
46	0x3cc836e0	0.024440229
47	0xbcea2cf0	-0.028585881
48	0xbc82f4c9	-0.015985863
49	0x3cf2fbd1	0.029661091
50	0xbd875161	-0.06607319
51	0x3c4b8962	0.012422891
52	0xbd07a872	-0.033119626
53	0xbd072f51	-0.03300411
54	0xbc62c5a4	-0.0138410665
55	0xbc93101a	-0.017952014
56	0xbd0b116d	-0.033952165
57	0x3bc26e06	0.005933526
58	0xbc40c26c	-0.011765104
59	0x3d8e205d	0.069397666
60	0xbc7484aa	-0.014924208
61	0x3ceee411	0.029161485
62	0xbd1f247c	-0.038853154
63	0x3cb8fcec	0.02258154
64	0xbd3b837c	-0.04577969
65	0x3ceebb1a	0.029141951
66	0xbc7c34d5	-0.0153934555
67	0x3d1dd9f1	0.038537923
68	0x3ca839ed	0.020535434
69	0xbda6587e	-0.08122347
70	0xbcb7fbef	-0.022458998
71	0x3d124cbd	0.035717715
72	0xbb3654ac	-0.0027821464
73	0x3cafec82	0.02147508
74	0x3c47f95a	0.012205446
75	0xbc8d9c6c	-0.017286502
76	0xbcbdc820	-0.023166716
77	0x3d2743ec	0.04083626
78	0xba56fdb6	-0.0008201258
79	0xbc866999	-0.016407775
80	0xbd04a6c1	-0.03238559
81	0x3d33ca9b	0.04389439
82	0x3afd7379	0.0019336782
83	0x3d3b181a	0.045677282
84	0x3d949ea9	0.072568245
85	0x3d1048cb	0.03522567
86	0x3d334f15	0.04377659
87	0x3d39e68c	0.045385882
88	0xbd2a3f42	-0.041564234
89	0xbcdf84cd	-0.027285004
90	0x3c651529	0.013982096
91	0x3c75e0ce	0.015007211
92	0xbc4ec434	-0.012620021
93	0xbb8d0e21	-0.004304663
94	0xbd0075c4	-0.03136231
95	0x3cb520aa	0.022110302
96	0x3a133975	0.0005616167
97	0xbd392270	-0.045198858
98	0xbcc2f1d8	-0.02379696
99	0xbcefdb89	-0.029279487
100	0x3c68675a	0.014184797
101	0x3d527087	0.051376846
102	0xbc5bff8c	-0.013427626
103	0xbd339c66	-0.043850325
104	0xbd6e243f	-0.058140036
105	0xbd77f49a	-0.060536005
106	0xbc186372	-0.009301053
107	0x3d9f7fe8	0.07788068
108	0x3d268965	0.040658373
109	0xbc9ec428	-0.019380644
110	0x3c66d01b	0.014087702
111	0x3d12744d	0.035755444
112	0x3cc9c50f	0.024630098
113	0xbb5be413	-0.003355269
114	0xbbdbaa05	-0.0067036175
115	0x3d6763c5	0.056491632
116	0xbc1e325b	-0.00965556
117	0xbac3af4c	-0.0014929562
118	0xbce83f8f	-0.02835062
119	0x3d8d1d22	0.06890322
120	0x3d2bf308	0.04197982
121	0xbcc0888d	-0.023502612
122	0xbb891b14	-0.004184136
123	0xbce3264e	-0.027728226
124	0xbce995af	-0.028513758
125	0x3cb1ed82	0.021719698
126	0x3d05b7d8	0.03264603
127	0xbd62c1c5	-0.055360574
128	0x3d195b60	0.037440658
129	0x3d1c7238	0.038194865
130	0xbd427854	-0.047478035
131	0xbc6e34bc	-0.01453894
132	0x3d1f26cf	0.03885537
133	0x3c2a9ab3	0.01041286
134	0xbcc40f76	-0.023933154
135	0xbc0e5a15	-0.008688469
136	0xbc3857c6	-0.011251396
137	0xbc0b91c6	-0.008518642
138	0x3d5d9c57	0.054104175
139	0x3c154477	0.009110562
140	0xbb922bd4	-0.004460791
141	0x3cd19daa	0.025587875
142	0x3d2c4a0d	0.042062808
143	0xbcee8c72	-0.029119704
144	0xbbf0784e	-0.00733856
145	0xbceba136	-0.028763395
146	0xbd945cf8	-0.07244295
147	0x3c37a283	0.011208179
148	0xbd138339	-0.036013816
149	0x3b01e1c1	0.0019818398
150	0x3d60a1a2	0.054841645
151	0x3bad0b29	0.0052808714
152	0x3d32250b	0.04349236
153	0xbcb1072b	-0.021609863
154	0xbaad08e1	-0.0013201499
155	0x3d46b232	0.048509784
156	0xbbc73bbe	-0.00608012
157	0xbcf20862	-0.029545013
158	0xbc8731a3	-0.01650316
159	0x3d39465e	0.045233123
160	0xbd681074	-0.056656316
161	0x3caa4c80	0.020788431
162	0xbc3fd39e	-0.011708168
163	0xbcb19319	-0.021676587
164	0xbd613b20	-0.054988027
165	0xbc681c50	-0.0141669065
166	0xbacacda8	-0.0015472667
167	0xbd377785	-0.044791717
168	0x3d4fda8e	0.05074554
169	0xbc5858d0	-0.013204768
170	0xbc936698	-0.017993256
171	0xbc49c60d	-0.012315285
172	0x3b4496f2	0.0029997197
173	0x3d33282f	0.043739494
174	0xbd49c415	-0.049259264
175	0xbd0cedac	-0.03440635
176	0xbc970356	-0.018434208
177	0x3bc06843	0.005871804
178	0xbb1ad486	-0.002362521
179	0x3c01a002	0.007911684
180	0xbbd05d20	-0.0063587576
181	0x3d9201ac	0.07129225
182	0xbd85f4a5	-0.06540803
183	0xbcdfaa88	-0.027302995
184	0xbc5e1978	-0.013555877
185	0xbbe57c1d	-0.007003321
186	0x3bc092ff	0.0058768983
187	0x3d4dd917	0.05025586
188	0xbcd455ef	-0.025919883
189	0xbc98825b	-0.018616846
190	0xbc9987b5	-0.018741468
191	0x3ad39d3d	0.0016144883
192	0x3cb1328d	0.02163055
193	0xbd1d9e58	-0.038481086
194	0xbc70f105	-0.014705901
195	0xbd6bfc63	-0.05761374
196	0xbd3c84c9	-0.04602507
197	0x3cab5d06	0.02091838
198	0xbce7f448	-0.028314725
199	0xbb425d5c	-0.0029657697
200	0xbbbc0e72	-0.0057390267
201	0xbba45fef	-0.005016319
202	0x3c1c9008	0.009555824
203	0xbb94254d	-0.004521048
204	0x3cb9184f	0.022594599
205	0xbc10dc28	-0.008841552
206	0xbb81f8e3	-0.003966437
207	0x3d0186a8	0.03162256
208	0xbc1f7c08	-0.009734161
209	0xbd75f5e5	-0.060048956
210	0xbcbeff49	-0.023315089
211	0x3cfbafe2	0.030723516
212	0x3caeb46e	0.02132627
213	0xbbcd1692	-0.006258794
214	0x3d5119af	0.051049884
215	0x3cc5d95d	0.024151498
216	0x3d36b5b4	0.04460688
217	0x3cc9a2c7	0.024613751
218	0xbd0cec84	-0.034405246
219	0xbca18976	-0.019718867
220	0xbb5e89a1	-0.0033956545
221	0x3d27d84d	0.040977765
222	0x3a143096	0.0005652992
223	0xbc908629	-0.017642098
224	0x3ba45fa8	0.005016286
225	0xbc13b744	-0.009015862
226	0x3cae093e	0.021244641
227	0xbc9b2437	-0.018938167
228	0xbc137a47	-0.009001321
229	0xbc86207a	-0.016372908
230	0x3b8872cb	0.004164075
231	0xbca4e96c	-0.020130835
232	0xba8e0513	-0.0010835252
233	0x3d9b3eca	0.075803354
234	0xbcef07f2	-0.029178593
235	0x3ce0d799	0.027446555
236	0xbd4c268b	-0.049841445
237	0xbc7e69fb	-0.015528197
238	0xbca46994	-0.020069875
239	0xb9c9fe6f	-0.00038527275
240	0x3bf99658	0.0076167993
241	0x3c0dc657	0.008653245
242	0xbc776c1b	-0.015101458
243	0xbcdd4bbd	-0.027013654
244	0xbc7e8116	-0.015533706
245	0xbce7fa66	-0.028317641
246	0xbb6d7463	-0.0036232702
247	0x3d13fe59	0.036131237
248	0x3d619e97	0.055082884
249	0xbc126616	-0.008935472
250	0xbd6f0266	-0.058351897
251	0x3c21661f	0.009851008
252	0x3cd699d6	0.026196402
253	0x3c9ada04	0.018902786
254	0xbb6f4851	-0.003651161
255	0x3d2f0246	0.042726777

action_model._discrete_distribution.branches.0.bias f4 [4]
0	0xbc4d084e	-0.012514187
1	0x3c8aa790	0.016925603
2	0x3cbffcc7	0.023435963
3	0xbd0f5378	-0.03499171

action_model._discrete_distribution.branches.1.weight f4 [3, 128]
0	0x3cd97a43	0.026547557
1	0x3c4c18b6	0.012457063
2	0xbcb5acfe	-0.022177216
3	0x3cba7a4d	0.022763396
4	0xbc41680d	-0.011804593
5	0xbcc4b4eb	-0.02401205
6	0xb9840e79	-0.00025187785
7	0xbc91a7b4	-0.017780162
8	0xbc9164c2	-0.01774824
9	0x3ca37059	0.019951032
10	0xbc7878b3	-0.015165496
11	0xbd82e689	-0.06391627
12	0x3b9d2fdc	0.004796965
13	0xbd51c8a2	-0.05121673
14	0x3bf4b36c	0.007467678
15	0x3a8efa33	0.0010908305
16	0xbcdeac44	-0.027181752
17	0xbc787aae	-0.015165968
18	0x3cb36ca0	0.021902382
19	0x3b286ab6	0.002569837
20	0xbcc79bd3	-0.024366295
21	0xbc7d3ed7	-0.015456877
22	0x3bb09866	0.005389261
23	0x3c4ac77b	0.012376661
24	0xbca0fef4	-0.019652821
25	0x3c907999	0.017636107
26	0x3c6c6733	0.0144289015
27	0xbcb0d9ae	-0.021588173
28	0xbbfa3c63	-0.007636593
29	0x3b0aa57d	0.0021155768
30	0x3c7ab35c	0.015301552
31	0x3c349718	0.011022352
32	0xbcb11e6b	-0.02162095
33	0xbbeb33ba	-0.007177797
34	0xbc402201	-0.011726857
35	0xbca0ad0b	-0.019613763
36	0xbc711498	-0.014714383
37	0x3ad4249e	0.0016185229
38	0x3d3f6950	0.046731293
39	0x3ad73aba	0.00164207
40	0xbbcdcf2c	-0.0062808003
41	0xbc255c56	-0.010092815
42	0xbcf2f0cd	-0.029655838
43	0xbc32ee66	-0.010921096
44	0xbc85d05f	-0.01633471
45	0xbd15e45e	-0.03659474
46	0xbc04e7d8	-0.0081119165
47	0x3d2ab5cd	0.041677285
48	0x3cda31d9	0.026635097
49	0xbbf78481	-0.0075536375
50	0xbd7530d2	-0.05986101
51	0x3c63bad6	0.013899526
52	0xbb133511	-0.002246205
53	0xbcb2b767	-0.021815969
54	0x3c7ab021	0.0153007815
55	0xbcd0516e	-0.025429454
56	0xbb5110c5	-0.0031900865
57	0xbbe446a7	-0.00696643
58	0xbcf59632	-0.029978845
59	0xbc0d4b81	-0.008623959
60	0xbada4891	-0.0016653707
61	0xbb8041f5	-0.0039141127
62	0xbc449e28	-0.012000598
63	0x3bfc5c08	0.0077014007
64	0xbbe71ac3	-0.007052751
65	0xbbfff8f1	-0.0078116586
66	0xbd15f0e8	-0.0366067
67	0xbca92c5b	-0.020651033
68	0x3cd9c4c8	0.02658309
69	0x3c86bbb5	0.016446928
70	0xbcc4530e	-0.023965385
71	0x3c48dbca	0.012259433
72	0x3d0550ea	0.03254787
73	0xbd341925	-0.043969292
74	0xbbfbd4be	-0.007685273
75	0x3cff1213	0.031136548
76	0x3c6d0154	0.014465649
77	0x3b91c9d8	0.0044491105
78	0xba076755	-0.0005165239
79	0x3bb14ed3	0.005411008
80	0x3c1a6cae	0.009425325
81	0xbc62ecb6	-0.013850382
82	0xbbdf5520	-0.0068155676
83	0xbcafd4ef	-0.02146384
84	0xbbdc2323	-0.006718056
85	0x3cc2ab67	0.023763372
86	0x3aedd9e8	0.0018146606
87	0xbb584716	-0.0033001355
88	0xbd126e97	-0.035749998
89	0xbdaf8c60	-0.08571696
90	0x3c070bb5	0.008242537
91	0xbccc58bc	-0.024944656
92	0xbbf9c1dd	-0.0076219873
93	0xbca732d5	-0.02040998
94	0xbccae7f4	-0.024768807
95	0xbb3afb14	-0.0028531002
96	0xbd83e0e4	-0.06439379
97	0xbbaad746	-0.005213651
98	0xbde033fe	-0.10947417
99	0x3ba9de55	0.0051839747
100	0xbc969721	-0.01838261
101	0xbd27c001	-0.040954594
102	0x387e5b47	6.0643328e-05
103	0xbd8bc20d	-0.068241216
104	0x3c6a9d39	0.014319711
105	0x3ccffa77	0.025387986
106	0xbd41d947	-0.047326352
107	0xbc08ce68	-0.008349992
108	0x3cac3c5a	0.021024872
109	0xbc9a7729	-0.018855648
110	0x3cbdf3ca	0.023187537
111	0xbce74253	-0.028229868
112	0xbd2f3870	-0.042778432
113	0xbc0dd0be	-0.008655725
114	0xbd002ec7	-0.03129461
115	0xbcfa663d	-0.03056633
116	0x3bc1b1bf	0.0059110816
117	0xbd1cce28	-0.038282543
118	0xbc6df2d3	-0.014523226
119	0x3c9274a5	0.017877886
120	0xbc10d56f	-0.008839949
121	0x3bc4f24a	0.0060103284
122	0x3bd5779e	0.0065145036
123	0x3b19b07c	0.002345114
124	0x3bb0aa4a	0.005391394
125	0xbcaa0b8c	-0.02075746
126	0x3caed843	0.021343356
127	0xbd0bbd77	-0.034116235
128	0x3d6d46de	0.057928912
129	0xbcb404bf	-0.02197492
130	0xbd36e137	-0.044648375
131	0x3c388a76	0.01126348
132	0xbd39a319	-0.045321558
133	0xbd5957e4	-0.053062335
134	0x3bb61c7c	0.005557595
135	0xbd3015d5	-0.04298957
136	0xbd3078dd	-0.043084014
137	0x3cdb1678	0.026744112
138	0xbd455f35	-0.0481865
139	0xbd0df40c	-0.03465657
140	0x3ca30f8b	0.019904872
141	0xbd3d6f40	-0.046248674
142	0x3d2c9add	0.042139877
143	0x3cabbf0c	0.020965122
144	0xbd8eb52e	-0.06968151
145	0xbd870c2b	-0.06594118
146	0xbc2553ee	-0.010090811
147	0xbcdaa636	-0.026690584
148	0x3b1a9867	0.0023589374
149	0x3c21e802	0.009881975
150	0x3cc3efe5	0.023918102
151	0x3d736dad	0.059430767
152	0x3d7f598f	0.06234127
153	0x3c86389e	0.016384419
154	0x3ce66ed5	0.02812902
155	0x3c9f4920	0.019444048
156	0xbc43905a	-0.011936272
157	0x3bcc8dcf	0.006242491
158	0x3bfefe9d	0.007781817
159	0xbcbfa8a7	-0.02339585
160	0xbd5cc223	-0.05389608
161	0xbcace47d	-0.021105045
162	0xbd6cddd7	-0.05782875
163	0xb99df178	-0.00030125282
164	0x3c0d8e1d	0.0086398395
165	0xbcc4261c	-0.023943953
166	0x3d5b7383	0.053576957
167	0xbd517404	-0.05113603
168	0xbcaaf6e7	-0.020869685
169	0xbcbb94a2	-0.022898022
170	0xbd35f017	-0.04441842
171	0xbc4aa195	-0.012367626
172	0xbcd4df43	-0.025985366
173	0xbc9370c4	-0.017998107
174	0xbdbd6652	-0.09248032
175	0x3d94ad98	0.07259673
176	0x3d5fdefd	0.054656018
177	0x3cfb8003	0.03070069
178	0xbcb000ed	-0.021484816
179	0x3d70a3e5	0.058750052
180	0x3d02ebc7	0.031963136
181	0x3c7b49cb	0.015337418
182	0xb98acb9b	-0.0002647311
183	0xbc70bb41	-0.014693082
184	0x3cef77a8	0.029231861
185	0xbcd0da10	-0.025494605
186	0xbd80055e	-0.06251024
187	0xbc83a80a	-0.016071338
188	0xbc744234	-0.014908362
189	0xbc410f0b	-0.011783372
190	0x3cca0c85	0.024664173
191	0xbd117023	-0.035507333
192	0x3d75ecbb	0.060040217
193	0xbd4f96d5	-0.050680954
194	0x3c1891b9	0.009312087
195	0xbd14fdcb	-0.03637485
196	0xbc8c87b8	-0.01715456
197	0x3cd10d39	0.025519
198	0xbca6792d	-0.020321453
199	0xbc4c5e2e	-0.012473626
200	0x3d339eb2	0.043852516
201	0xbd4ab2ec	-0.04948704
202	0x39ed6a51	0.00045283374
203	0x3d1a32f1	0.037646238
204	0x3cc574b3	0.024103498
205	0xbcc2f327	-0.023797585
206	0x3d347113	0.04405315
207	0xbabae16e	-0.0014257857
208	0x3ca636e1	0.02028984
209	0xbd255669	-0.04036561
210	0xbd0190aa	-0.031632103
211	0xbcf53e3b	-0.0299369
212	0xbd203143	-0.03910948
213	0xbc4ab21d	-0.012371567
214	0xbd1c4d7f	-0.038159844
215	0xbd45bd33	-0.048276138
216	0xbcc650e3	-0.024208492
217	0xbb36df28	-0.0027904008
218	0xbdaca504	-0.08429912
219	0xbce75f54	-0.028243698
220	0x3c556766	0.01302514
221	0xbaf3bcdb	-0.0018595712
222	0x3ca32e32	0.019919489
223	0x3bc6f866	0.006072092
224	0xbd107afa	-0.03527353
225	0x3d2916bc	0.041281447
226	0xbd1fc278	-0.03900382
227	0x3cd33982	0.025784258
228	0x3c07bd88	0.008284934
229	0xbd8af37e	-0.06784724
230	0x3c614e2b	0.013751547
231	0xbd922f70	-0.07137954
232	0x3bf7795c	0.007552309
233	0x3d4c76bd	0.049917925
234	0xbdd23fdc	-0.102660865
235	0xbcb4d001	-0.02207184
236	0xbd56bffe	-0.05242919
237	0xbc6ad112	-0.014332073
238	0x3d5e340e	0.054248862
239	0x3d8832f1	0.06650341
240	0xbd35e462	-0.044407256
241	0xbd079237	-0.033098426
242	0xbc954450	-0.01822105
243	0xbd8c09cd	-0.06837807
244	0x3c28b52c	0.010297101
245	0xbb1b3efe	-0.002368867
246	0x3cbbb684	0.022914179
247	0xbcb7587f	-0.022381065
248	0x3cba9648	0.022776738
249	0x3c6f37f5	0.014600744
250	0xbd7f0e47	-0.062269475
251	0x3d00b937	0.031426635
252	0x3c9cd712	0.019145522
253	0xbd83cbe2	-0.06435372
254	0x3d76b886	0.06023457
255	0xbd734332	-0.059390254

action_model._discrete_distribution.branches.1.bias f4 [3]
0	0xbb969560	-0.0045954436
1	0x3c7d3669	0.015454867
2	0xbc22e151	-0.009941415
