results/companion/CompanionBehavior.onnx (onnx, 91241 bytes, 8 tensors)

discrete_act_size_vector f4 [1, 2]
00000000: 0000 8040 0000 4040
4.0 3.0

network_body._body_endoder.seq_layers.0.weight f4 [128, 28]
00000000: 5612 493e 4ac5 9bbe 5e8a 83bc 1d34 ee3d
00000010: 649f 6f3d d652 a93e 8869 9e3e 2e00 6b3e
00000020: cced adbd a7ee 69bd 06e6 57be 00ca ad3c
00000030: 7237 103e 74ca ebbd a6f1 4cbe 6f7f c23d
00000040: 4a68 6dbe 568b 083e a8ed b63d 1a2b 9b3e
00000050: 6f0c 7e3e db5c c83d 00b6 42be aac8 803c
00000060: 791e 5e3e 9352 79be bbc9 92bd fd1f 2c3e
00000070: 0f87 75be 3f20 8e3e fede bcbe e5df 25be
00000080: 8c9a 2cbe 9c7d 023d 5830 cd3c 06c8 3f3e
00000090: 174f 873d 591d 36be e6c0 5abd 779c 06be
000000a0: cf28 6dbe df4e 053e 0b70 5e3e d64f 933e
000000b0: 9f9b 573e 457d 9e3e f48c e03d 4f95 0abc
000000c0: b75d b03d c09a 063a de00 2e3e 0be9 99bd
000000d0: a980 c53d 7aa1 333e 6a81 f8bd 407a 76be
000000e0: 79d1 88be 4432 0fbe b242 133e 535a f53c
000000f0: 66fb b63c c2ef 8bbd 0c8c 1cbc 429c d13d
00000100: 2f03 3bbe f1d2 513e 50ff a63e 771c 953e
00000110: 3706 64be 5e79 5cbe 1440 cfbe ce51 d3bd
00000120: 4363 543e f277 893e 714b 0bbd 2337 28be
00000130: b3e7 cabc 095a b73e 10f6 03be efb2 33be
00000140: 8e0f 453e a89c 9abd 9602 863d 214e 783e
00000150: cf20 113e 09ea 9a3c 09ae 5a3e d5f4 553e
00000160: 0c93 62be 21b3 693e 68fa 9bbe 55b0 813e
00000170: fac3 78be 06ab 1dbe f6d2 10bd b939 8fbe
00000180: c58b 903e 5518 0d3c f958 053e a4fb 273e
00000190: 42d2 a53e 439b debe 0b75 7fbe bafa 103e
000001a0: e76c 68bd eadc 313e 0f29 203d 5023 2ebe
000001b0: 69a1 d63c 6706 883d 3dc2 1f3e d452 cebd
000001c0: 6b88 a8bd 8d79 063e 840f 3a3d cbc1 8f3d
000001d0: 328b 873e 7f72 a9bd 1137 d8bd cca7 923e
000001e0: 0bdd 8c3d 30e0 b13e f088 36be e0a3 c83d
000001f0: 46fb 3cbe ac7a a63d 3604 eb3b b3ab 84bc
00000200: 5445 46be da5e e13d afd2 fdbd e3e0 0bbc
00000210: 965b c43e 7a60 c0bd ab81 6e3d e1e0 cb3d
00000220: e737 d63d 98be 25be fe77 3c3e 22af cfbd
00000230: 934a f43d a600 51be a5d8 5dbd c02d c73e
00000240: cc3d 143e b495 31be 59b5 e73c a90c 763e
00000250: fea4 083e d82d 98be a53a 41be 06cf cabc
00000260: e319 c03d 7684 dfbc 985c 1e3e b283 87bc
00000270: c784 4c3e 8070 333d b607 46be 1e39 763e
00000280: 963a b7bd 606d dcbd 7e71 333d eaed 103e
00000290: 4368 8c3e b469 3b3e 288c 533d 312a eabc
000002a0: 9142 03be a655 963e ecf7 47be 3f28 a3be
000002b0: 7ff3 b2bd f706 e63e 0505 823e 67c6 103e
000002c0: 588e 17be b520 d53c a875 33bd 8d1a 1cbe
000002d0: 48d0 52be 4e16 4b3e 76f4 1d3e 5ba3 033e
000002e0: 40ad 9cbe de00 d6bd 6e81 2fbd 70fa 9dbe
000002f0: 40c3 273e d158 85be d78f cabd dabb 9c3d
00000300: a3ee cebd 1ecf 54be f03f 6f3e 2993 cf3e
00000310: e004 fd3d 3268 2bbe 4581 543e a4b9 9ebc
00000320: ef19 19bc cb51 47bd fed6 4f3d d1f5 0f3e
00000330: 49b0 8e3c 855b ceb9 ab59 333e 5de6 1dbc
00000340: 92c1 303d b661 8b3d 7db0 233e 668f ec3d
00000350: bf84 90bd ed22 91bd 6c26 e1bd 80f6 23bd
00000360: 2cc2 ff3d 0e7b 0d3e 5fec 533e b8cb 05be
00000370: dbc1 dd3c df32 ab3c 221e 8c3b 061c 14be
00000380: 74e3 89bc f5fb a5bd c4df 45bc 1a13 033e
00000390: 409e c43e 1296 033c 7007 7a3e 4612 24bd
000003a0: f6f4 913e 5130 b5bd 2b20 193e f2f0 cc3d
000003b0: cd59 c7bd 4b6c 86bd 045a c8bd f5de abbc
000003c0: e86a 553e 7ce6 fa3a 6a22 a73d 5102 663e
000003d0: f7aa bfbd c75c 38be 945e 1fbe 19d7 4bbe
000003e0: 5399 013c 9134 d0bc bd96 3ebe 21da 2a3d
000003f0: 6b8a 563e a46b 333d 7fb0 963e 946a f03e
0.19635901 -0.30423957 -0.01605719 0.116310336 0.058501616 0.3307101 0.3093989 0.22949287
-0.08492622 -0.057112362 -0.2108384 0.021214485 0.1408365 -0.11513224 -0.20014057 0.09496962
-0.23184314 0.13334402 0.08932048 0.3030632 0.2480943 0.09783336 -0.1901474 0.015720684
0.21691312 -0.24347906 -0.07167383 0.16809078 -0.23977302 0.27758977 -0.3688888 -0.1619869
-0.1685583 0.03185807 0.025047466 0.18728647 0.06606882 -0.17784633 -0.05340662 -0.13145624
-0.23160098 0.13018368 0.21722429 0.28771847 0.21055458 0.30954948 0.10964385 -0.0084584495
0.08611625 0.0005134754 0.16992518 -0.075151525 0.096436806 0.17542067 -0.12134059 -0.24070072
-0.26722315 -0.13984019 0.14380911 0.029950297 0.022336673 -0.068328395 -0.009554874 0.10234882
-0.18262933 0.20490624 0.32616663 0.2912328 -0.22267996 -0.21530673 -0.40478575 -0.103183374
0.2074099 0.26849324 -0.034007493 -0.16427283 -0.024768686 0.3581088 -0.12886834 -0.17548726
0.19244215 -0.07549411 0.06543462 0.24248554 0.14172672 0.018910425 0.21355452 0.20894177
-0.22126406 0.22822239 -0.30464482 0.25329843 -0.24293509 -0.15397272 -0.035357438 -0.27973726
0.28231636 0.008611758 0.13022222 0.16404587 0.32386976 -0.4347783 -0.24946992 0.14158145
-0.056744482 0.17369428 0.039101657 -0.17005658 0.026200013 0.06641846 0.1560144 -0.10074392
-0.08229145 0.13132305 0.045424953 0.07019385 0.26473385 -0.082737915 -0.10557378 0.28643644
0.06878098 0.34741354 -0.17825675 0.09796882 -0.18455228 0.081288666 0.007172133 -0.016195154
-0.19362384 0.110044196 -0.123937 -0.008537504 0.38351125 -0.093934014 0.05822913 0.099550016
0.10459881 -0.16185987 0.18405148 -0.10140826 0.119282864 -0.20410404 -0.054161686 0.38902092
0.14476699 -0.17342263 0.028284715 0.24028267 0.1334419 -0.29722476 -0.18870027 -0.02475692
0.093799375 -0.027284842 0.15465009 -0.01654229 0.19972526 0.04380846 -0.19338879 0.24045226
-0.08946721 -0.10763049 0.043809406 0.14153257 0.27423295 0.18302041 0.051647335 -0.028584572
-0.12818362 0.2936222 -0.19528168 -0.31866643 -0.087378494 0.4492719 0.25394455 0.14138184
-0.14800394 0.026016572 -0.043813378 -0.15244503 -0.20587265 0.19832727 0.15425286 0.12855284
-0.3060093 -0.10449384 -0.042848043 -0.3085513 0.16383076 -0.26044324 -0.098907165 0.07653017
-0.1010411 -0.20782134 0.23364234 0.40541962 0.123544455 -0.16738966 0.20752437 -0.01937563
-0.009344562 -0.04866199 0.050742142 0.14058615 0.017418044 -0.0003935957 0.17514674 -0.009637442
0.043153353 0.06805746 0.15985294 0.115507886 -0.07056569 -0.0708674 -0.109936565 -0.040030003
0.12488207 0.13816473 0.20695637 -0.13065994 0.027069977 0.02089828 0.004276053 -0.14463815
-0.01683209 -0.081046976 -0.012077276 0.12800255 0.38401985 0.008031385 0.244169 -0.04005649
0.28507203 -0.08847106 0.14953677 0.10006894 -0.09733925 -0.06563624 -0.09782794 -0.020980338
0.20841563 0.0019142176 0.08160861 0.22461821 -0.09358781 -0.18004142 -0.15563422 -0.19906272
0.0079100905 -0.02541569 -0.1861219 0.04171193 0.2095124 0.043803826 0.2943153 0.46956313

network_body._body_endoder.seq_layers.0.bias f4 [128]
00000000: 0000 0000 0000 0000 0000 0000 0000 0000
00000010: 0000 0000 0000 0000 0000 0000 0000 0000
00000020: 0000 0000 0000 0000 0000 0000 0000 0000
00000030: 0000 0000 0000 0000 0000 0000 0000 0000
00000040: 0000 0000 0000 0000 0000 0000 0000 0000
00000050: 0000 0000 0000 0000 0000 0000 0000 0000
00000060: 0000 0000 0000 0000 0000 0000 0000 0000
00000070: 0000 0000 0000 0000 0000 0000 0000 0000
00000080: 0000 0000 0000 0000 0000 0000 0000 0000
00000090: 0000 0000 0000 0000 0000 0000 0000 0000
000000a0: 0000 0000 0000 0000 0000 0000 0000 0000
000000b0: 0000 0000 0000 0000 0000 0000 0000 0000
000000c0: 0000 0000 0000 0000 0000 0000 0000 0000
000000d0: 0000 0000 0000 0000 0000 0000 0000 0000
000000e0: 0000 0000 0000 0000 0000 0000 0000 0000
000000f0: 0000 0000 0000 0000 0000 0000 0000 0000
00000100: 0000 0000 0000 0000 0000 0000 0000 0000
00000110: 0000 0000 0000 0000 0000 0000 0000 0000
00000120: 0000 0000 0000 0000 0000 0000 0000 0000
00000130: 0000 0000 0000 0000 0000 0000 0000 0000
00000140: 0000 0000 0000 0000 0000 0000 0000 0000
00000150: 0000 0000 0000 0000 0000 0000 0000 0000
00000160: 0000 0000 0000 0000 0000 0000 0000 0000
00000170: 0000 0000 0000 0000 0000 0000 0000 0000
00000180: 0000 0000 0000 0000 0000 0000 0000 0000
00000190: 0000 0000 0000 0000 0000 0000 0000 0000
000001a0: 0000 0000 0000 0000 0000 0000 0000 0000
000001b0: 0000 0000 0000 0000 0000 0000 0000 0000
000001c0: 0000 0000 0000 0000 0000 0000 0000 0000
000001d0: 0000 0000 0000 0000 0000 0000 0000 0000
000001e0: 0000 0000 0000 0000 0000 0000 0000 0000
000001f0: 0000 0000 0000 0000 0000 0000 0000 0000
0.0 0.0 0.0 0.0 0.0 0.0 0.0 0.0
0.0 0.0 0.0 0.0 0.0 0.0 0.0 0.0
0.0 0.0 0.0 0.0 0.0 0.0 0.0 0.0
0.0 0.0 0.0 0.0 0.0 0.0 0.0 0.0
0.0 0.0 0.0 0.0 0.0 0.0 0.0 0.0
0.0 0.0 0.0 0.0 0.0 0.0 0.0 0.0
0.0 0.0 0.0 0.0 0.0 0.0 0.0 0.0
0.0 0.0 0.0 0.0 0.0 0.0 0.0 0.0
0.0 0.0 0.0 0.0 0.0 0.0 0.0 0.0
0.0 0.0 0.0 0.0 0.0 0.0 0.0 0.0
0.0 0.0 0.0 0.0 0.0 0.0 0.0 0.0
0.0 0.0 0.0 0.0 0.0 0.0 0.0 0.0
0.0 0.0 0.0 0.0 0.0 0.0 0.0 0.0
0.0 0.0 0.0 0.0 0.0 0.0 0.0 0.0
0.0 0.0 0.0 0.0 0.0 0.0 0.0 0.0
0.0 0.0 0.0 0.0 0.0 0.0 0.0 0.0

network_body._body_endoder.seq_layers.2.weight f4 [128, 128]
00000000: 1b53 5d3d ebe1 95bb 8b9e 2f3d 9e5b fe3c
00000010: e7d4 0b3e 95a3 fbbc 7099 2ebe f167 06bc
00000020: 2b35 87bd cfd5 c63d 82aa dd3d f59f d2bd
00000030: fce3 34be 475a a73d 4452 98bd e4b2 4abd
00000040: 31fe eaba 802d fe3c 7acd 5ebd c6bf 08bd
00000050: 5860 2a3e b772 f03b 9b00 a53b 055f fbbd
00000060: ff7b 0dbc abd2 d83d 673e 78bd 1f2e 5bbd
00000070: f354 3bbe 9012 20bc b0b1 a0bd dbd7 3b3c
00000080: edc7 123e 160e 933d b760 09be a1bc d13b
00000090: f03b dfbd ee5f abbc 0ddb d4bc 7882 2fbd
000000a0: f49c d53d 7922 16be 240c 17bc cd2f 4cb9
000000b0: 6b38 59bc e462 f1bd 1578 79bb 1cf5 c4bc
000000c0: f2cb 4e3d 08bc 9b3d e362 16bc 6ba6 89be
000000d0: 1868 453d b434 fa3c 52f3 97bd 2982 d6bd
000000e0: 0153 e5bd 170c 08bd 949d 25be 6cd0 063e
000000f0: a8f8 163d f096 823d 935f d8bc d8a1 063e
00000100: 5937 093c 1d07 edbd 9394 a43d a43a 623d
00000110: 68fa c0bd d517 703c 14f9 78bd 5db5 e83d
00000120: 1598 6d3d f125 b4bd 33d9 c23d a726 a23c
00000130: 8561 a5bd a0a3 073e 625f b63d d064 8b3b
00000140: d5b6 143e 9e41 dd3d 0d9d 3d3d 8eb8 85bc
00000150: 7421 cb3d c821 b33c b7f1 c63d 8f23 9fbc
00000160: 1db3 3abd da28 e5bd daac 513e 0c09 5abd
00000170: a6c1 d33d 51f8 153e 3ff0 a23d 3c2d a43d
00000180: ad72 2ebd 344a 79bd 7908 1cbd f5ca 0b3c
00000190: 1b7f 45be 6d2f d0bb 7424 8d3d 817a 21be
000001a0: fd7e 0ebe ba7f f93d ab2e 173e ea60 c23d
000001b0: a222 76bd 404f b83d 680f 0f3e 8780 043d
000001c0: cc95 b83d dcb1 80bc 9fe7 9cbb dd40 263d
000001d0: abf8 49bd 63de 8b3d c480 aabd f1d8 af3d
000001e0: e312 873a 6929 0cbd 7d8e acbc 76f2 e03d
000001f0: fb5f e2bd e0b5 0e3a 9a5e e83c 465f 153e
00000200: 7b21 553d 1473 d93d 2fd7 1abc b113 933d
00000210: 75dd e13d 0cb1 583d 0ac4 1cbd 65f6 26bd
00000220: a254 9d3d a6cf 39bd e35d 0fbd f22a 63be
00000230: 1f3c 04bd 16e9 48bc 324c cbbc 2818 5f3d
00000240: cf4a c53d 0752 573d 0bd9 58bb 6188 2dbe
00000250: 8b00 b6bd 955e 8dbc 01d1 eb3c 33a7 c13d
00000260: 675a 32bc 84e3 38bd 3f84 34be c268 e9bd
00000270: 2068 143d 2e70 7cbd 3e83 b93d 6c64 85bd
00000280: a765 5d3d 60e0 a1bd 4622 0bbd a10c 09bd
00000290: 014e 4bbd 17f0 efbc d947 8b3b b87a 6f3d
000002a0: e884 ea3c 2e9d 323e 4847 b03d c8aa 913d
000002b0: 69c1 483d 00fe 1ebe ebd0 bf3d 118a d33c
000002c0: 238d 923d 5fdc 9e3d 133b 5dbd a57f d53d
000002d0: 1116 94ba b439 bf3d eb1a a4bc fd03 72bd
000002e0: d6ab 30bd 5c35 81bd 9550 2cbd 4eee 203c
000002f0: 8c5e 2f3e 30b5 a7bb 6388 a8bb 64d2 1a3d
00000300: 137a b73d bb0c bbbc 5c96 cabd 7807 363d
00000310: 6df4 94bd cc2b 01bd bcdf 193d 044d 1fbb
00000320: 8113 8e3c a9a0 efbd 749b a33c a8de 5b3b
00000330: 786a f8bc 8a17 e1bd acc8 1dbc 24f2 383c
00000340: 8c8c 003e c9f4 353d db14 39bd cd69 463e
00000350: 455b c5bd fb3c 553d 8086 87bc b67a e3bc
00000360: 1acb 9c3d 6522 4b3b 758b 693d a3c6 f0bc
00000370: 4935 823d 0d6e e7bd 8df4 413d e6ec 98bd
00000380: 5fdd b0bd bf76 94bd 398a 033e 8096 9d3d
00000390: 0c34 12be cde4 c03d 7402 a93d 3b8c 9e3d
000003a0: 7a93 b93c 9cbc 193d 022a 23bd 7f67 04bc
000003b0: c444 013e 094e ce3d 33ca 4cbe 2eaf 363a
000003c0: e3a1 7b3d e735 283d b93c 243e f782 063d
000003d0: 829c 81bd 842e cc3d 51dd 05be 3774 25be
000003e0: b3dd 26bd 7ae8 59bd 2382 66bc 51d4 03bd
000003f0: 0099 ba3d 7d2f 32be c04a cbbd 1afc 0bbe
0.054034334 -0.0045740507 0.042875808 0.031049546 0.13655435 -0.03071765 -0.1705072 -0.0082034925
-0.06601938 0.097087495 0.108235374 -0.10284416 -0.17665094 0.08171516 -0.07437566 -0.04948701
-0.0017928538 0.031027555 -0.054395176 -0.033386014 0.16638315 0.007337894 0.0050354726 -0.12273983
-0.00863552 0.10587057 -0.060606387 -0.05351078 -0.18294124 -0.009770051 -0.07846391 0.011465038
0.14334078 0.07180421 -0.134158 0.00640066 -0.10900104 -0.020919766 -0.025983358 -0.042849034
0.10430327 -0.14661588 -0.009219203 -0.00019472763 -0.01325808 -0.1178644 -0.003806596 -0.024042659
0.050487466 0.076042235 -0.00917885 -0.2688478 0.048194975 0.030542709 -0.074194565 -0.10474045
-0.11197472 -0.033214655 -0.16173393 0.13165444 0.03685823 0.06376445 -0.02641276 0.13147676
0.008375012 -0.115736224 0.08036151 0.055231705 -0.09422761 0.0146541195 -0.060784414 0.11362717
0.058006365 -0.08796299 0.09514084 0.019793821 -0.08075241 0.13246012 0.089049116 0.004253961
0.1452287 0.10803531 0.046292353 -0.016323354 0.0991849 0.021866694 0.09714072 -0.019426135
-0.045580972 -0.111894324 0.20476094 -0.053231284 0.1033967 0.14645506 0.079559796 0.0801644
-0.042589832 -0.06086178 -0.038094018 0.008532275 -0.19286768 -0.00635331 0.068917185 -0.15769388
-0.1391563 0.12182565 0.14763896 0.09491141 -0.060091622 0.08999491 0.13970721 0.032349136
0.090129465 -0.01570981 -0.0047883536 0.040589202 -0.049309414 0.06829526 -0.08325341 0.085863
0.0010305311 -0.03421918 -0.021064037 0.10983746 -0.11053463 0.00054439716 0.028365422 0.14587125
0.052033883 0.106176525 -0.009450718 0.0718149 0.11028568 0.05290322 -0.038272895 -0.040762324
0.07682158 -0.045364045 -0.035001647 -0.22184351 -0.0322839 -0.012262603 -0.024816606 0.054466397
0.09633409 0.05256846 -0.0033088352 -0.16946556 -0.08886822 -0.017257014 0.028786184 0.09455719
-0.010885811 -0.04513885 -0.17628573 -0.11396934 0.036232114 -0.06163042 0.090582356 -0.065132946
0.05405202 -0.07904124 -0.033968233 -0.03345931 -0.049634937 -0.029289288 0.0042505083 0.058466643
0.028627828 0.17442772 0.08607346 0.07112652 0.049012575 -0.15526581 0.0936602 0.025822671
0.07155826 0.07756876 -0.054011416 0.10424737 -0.001129808 0.09337178 -0.020032367 -0.059085835
-0.043132626 -0.063090056 -0.042069037 0.009822441 0.1712591 -0.005118035 -0.0051432117 0.0377983
0.08958831 -0.022833219 -0.0989196 0.044440717 -0.07273183 -0.03153591 0.037566885 -0.002430738
0.017343285 -0.11700565 0.019971587 0.0033549462 -0.030324206 -0.10990818 -0.009630363 0.0112882
0.12553614 0.0444229 -0.045185905 0.19376297 -0.09636549 0.05206011 -0.016543627 -0.027768474
0.07655926 0.0030995843 0.057017762 -0.029391592 0.063578196 -0.113002874 0.047352362 -0.0746706
-0.08635973 -0.072492115 0.12845697 0.07694721 -0.14277667 0.0941864 0.08252421 0.077415906
0.02265333 0.037533388 -0.039834984 -0.008081316 0.12623888 0.10073478 -0.19999008 0.0006968853
0.061433684 0.04106703 0.16038789 0.03283974 -0.063286796 0.0996981 -0.13072707 -0.16157614
-0.040738773 -0.053200223 -0.014069113 -0.032184903 0.09111214 -0.17400928 -0.09926367 -0.13670388

action_model._discrete_distribution.branches.0.weight f4 [4, 128]
00000000: b665 823c e0cd 9abc 6b02 9e3b 02ba 16bb
00000010: d7f8 9ebb f797 6cbc 7f1b b03b 1a15 d03b
00000020: d130 aabb e9ea 91bb 262a 37bc 2f39 c6bb
00000030: 98e9 56bc 8a21 10bb c256 80bb f7a0 5cbc
00000040: 006d 25bb 08d0 42ba 8af4 4cbc cfc8 0fbc
00000050: 20b1 6dbb 28ec 86ba c788 e6bb bffa 29bc
00000060: 2937 ba3b 95b9 0a3c 5516 cf3b 9838 6b3b
00000070: ce97 933b 616d 893b 7f00 7d3b 5761 7b39
00000080: 30e3 8c39 329e cfbb 6215 f1bb 97fd 9d3c
00000090: f6e7 a13c 4073 bfba 58f8 923c 785c 83bc
000000a0: d638 853a b7ad 3e3b d8e8 5e3a c8af 073c
000000b0: 9fe0 83bc 2bee 61bb ffe4 b3ba d0ec 68bb
000000c0: ed88 ff3a 5de6 cd3a eb3a 95bb 080c 7e3c
000000d0: 8ed8 2ebb 7bce 9738 9995 063b 371a 9e3c
000000e0: 0c63 2bbc 41c6 803c a3eb 90ba 2d0a 70ba
000000f0: a759 563b 636c 4c3c 4282 a2bb fbaa 53bb
00000100: c421 ccbb c5a5 903c d705 983a d21c b43b
00000110: 8036 e9bb 8152 3cbb c039 8d3c d4a4 433b
00000120: 7b9e 063c 3f8b 21bc 47da 5f3c 4568 e03b
00000130: b373 87bb 696c 8dbc 0740 233b 9012 1a3c
00000140: 6b15 103c acc0 08b9 604c 98b7 8650 13bc
00000150: 4777 6939 4661 42bc 09d4 9aba 32c3 9fbc
00000160: 904d 1cbc 70e0 673b d747 41bb 3d40 073c
00000170: e869 743b 3d6f 193c 0089 12bc c777 cbbc
00000180: 9272 5f3c 580b 62bb 6565 4a3c a75b 8bba
00000190: 1126 193b 3764 7a3a 1da7 04ba 424f 963b
000001a0: 1f63 27bc be0e 29bc 6511 e6bb 5838 72bc
000001b0: a399 e53b 2568 fd3b 054e 4e3b db85 aa3c
000001c0: 6645 a1bb f325 2abc fb00 b6bb 7389 973c
000001d0: 372f 973a 2f94 8bbc 03b0 8a3c 7459 863b
000001e0: 572b 0fbc edb5 e0bb b5e4 0abc 526c bfbb
000001f0: 603d 6abb bf8a 943b 7344 27bc a77d 813c
00000200: 5006 a3ba 832f 813a f831 543c 136e 103c
00000210: 43e4 8f3b 6047 8fbc ea0d 8c3c 4bf8 1b3b
00000220: 20f5 d6bb a36f 90b8 6747 1abb 3c4b a63b
00000230: 650c 5abc f065 aabb 544e 21bb 8303 00bc
00000240: d9c9 c53a c5dd efbb 77c3 af3b 8231 fd3b
00000250: 5526 27bc 1660 b7bb 5092 7dbc 1b65 8e3a
00000260: a3cc 38bc 435e 92bc 49bc 013c 5f04 19bc
00000270: 8d4b 5b3c 702d 8e3c 2a68 a3ba b160 0dbc
00000280: 63ee 3aba 623a 023b b681 0fbc 7b98 0d3c
00000290: 3b99 9abb ef8c 3a3c 83bb 3d3c 68ff 603c
000002a0: a84e e43a c3aa 883b 19d0 3e3c 4e4b 323b
000002b0: 9227 a8bb 14f0 81bb 6b9f 1f3c 01b4 b839
000002c0: 2301 a5bb aa50 8f3b bb31 78ba 1a0d 54bc
000002d0: b84d 1b3c 275f 5dbc 66b5 abbb 6386 6eba
000002e0: 34c5 0639 f0e2 fabb a391 27bc 9061 ddb9
000002f0: 3f15 08bb fae4 c3bb a128 9b3a d40d 00bb
00000300: 6ccf 873b 9a79 76bc 6396 323c ec69 28bc
00000310: 8147 c1bb 8b29 92bb be7a 0c3c 26e6 24bc
00000320: 0bdb ecb9 7bc6 e5bb 7fff ebbb ba40 ebbb
00000330: 4d3e f23a 0155 9e3a 18b6 dc3b 033b 54bc
00000340: 13e1 0abc ef06 32b8 64d7 a73b eb06 da3a
00000350: 9a68 863c a528 7abc d3d8 01bc 2ef5 383a
00000360: 3f21 ba3b b7e5 bbbb b7c0 10bc d81f db3b
00000370: e34e dbba 159d 8fbb 7a89 70bb 22d9 a43b
00000380: d5a8 763a 81d4 33bb 6325 3abc bd68 5fbc
00000390: 1965 83bc 1384 0e3c 4c85 4c3c 5269 51bc
000003a0: a273 c7ba ca83 64bc 7b33 ebbb 53c3 8dbb
000003b0: a377 83bb a6d2 803b 0401 823c e5bf 5c3b
000003c0: 20d1 80b9 27bb b63b 56cb 05bc ca5c 263c
000003d0: d7ec 2cbb ff7f 863c f811 31bc bd88 6c3c
000003e0: 086e f2bb 3255 48bc 0a02 cdbb 1f07 433b
000003f0: ef6b b6bb 8bb8 79bc 17a1 a33b 8159 18bb
0.01591764 -0.018896997 0.0048220656 -0.0022999053 -0.0048514414 -0.014440528 0.0053743715 0.0063501718
-0.0051938077 -0.0044530523 -0.011179483 -0.0060492973 -0.0131172165 -0.0021992647 -0.0039165923 -0.013466111
-0.002524197 -0.0007431512 -0.0125094745 -0.008775904 -0.0036268905 -0.0010293769 -0.007035348 -0.010374724
0.005682845 0.008467098 0.006319801 0.0035891887 0.0045041805 0.004193947 0.0038605032 0.00023973487
0.0002687215 -0.006335997 -0.0073572854 0.01928596 0.019763928 -0.0014606491 0.017940685 -0.016035303
0.0010164033 0.0029095241 0.00085033244 0.008281656 -0.016098319 -0.0034474235 -0.0013724862 -0.0035541542
0.0019495763 0.0015708912 -0.0045541427 0.015505798 -0.002667937 7.238701e-05 0.0020535944 0.01929961
-0.010460626 0.015719535 -0.0011056553 -0.000915679 0.0032707246 0.012477013 -0.0049593756 -0.0032297957
-0.006229611 0.01765717 0.001159842 0.0054965997 -0.0071170926 -0.00287357 0.017239451 0.0029852884
0.008216496 -0.009859859 0.013662881 0.0068483674 -0.0041336655 -0.017263608 0.002490999 0.00940384
0.008794169 -0.00013041747 -1.8155377e-05 -0.008991366 0.00022265046 -0.011864012 -0.0011812459 -0.019502256
-0.009539977 0.0035381578 -0.0029492283 0.008255062 0.003729457 0.0093649 -0.008943796 -0.024837388
0.013638156 -0.0034491625 0.012353276 -0.0010632173 0.0023368637 0.00095516763 -0.0005060302 0.004587085
-0.010216503 -0.010318456 -0.0070211166 -0.014783941 0.0070068403 0.0077333623 0.0031479609 0.02081578
-0.004921603 -0.010385024 -0.005554316 0.018498158 0.0011534457 -0.017038433 0.016929632 0.004100019
-0.00873836 -0.0068576247 -0.00847738 -0.00584177 -0.0035742149 0.0045331414 -0.010209191 0.015806986
-0.0012437794 0.0009856079 0.012951367 0.008815306 0.0043912246 -0.017490089 0.017096478 0.0023799117
-0.006559983 -6.887249e-05 -0.0023541094 0.0050748866 -0.013308619 -0.00520014 -0.0024613338 -0.007813337
0.0015090063 -0.007320138 0.0053638774 0.007726849 -0.01020201 -0.005596171 -0.015476778 0.0010863872
-0.011279258 -0.017867213 0.007918426 -0.009339421 0.013384712 0.01735565 -0.0012466956 -0.00862901
-0.00071308593 0.0019871225 -0.008758953 0.008642311 -0.0047179735 0.01138614 0.011580351 0.013732769
0.0017418461 0.004170747 0.011646294 0.002720553 -0.0051316703 -0.003965387 0.009742598 0.00035229328
-0.005035536 0.0043736296 -0.00094678596 -0.012942577 0.009478979 -0.013511456 -0.0052401302 -0.00090990047
0.000128527 -0.0076564476 -0.010227594 -0.00042225095 -0.0020764617 -0.005978224 0.001183767 -0.0019539492
0.0041445997 -0.0150436405 0.010900113 -0.01027916 -0.0058984165 -0.0044605187 0.008574186 -0.010064637
-0.00045176627 -0.007012186 -0.0072020884 -0.007179347 0.0018481702 0.0012079776 0.0067355745 -0.012953523
-0.008476513 -4.2444964e-05 0.005122112 0.0016634142 0.0164073 -0.0152684795 -0.00792523 0.00070555776
0.005680233 -0.0057341713 -0.008835009 0.0066871457 -0.0016731884 -0.0043827393 -0.0036703036 0.005030767
0.0009409313 -0.0027439895 -0.011361453 -0.013635811 -0.016039418 0.008698481 0.012482952 -0.012781458
-0.0015216956 -0.013947437 -0.007177768 -0.004326263 -0.0040120645 0.0039313613 0.015869625 0.0033683714
-0.00024569873 0.0055765095 -0.008166155 0.010153959 -0.0026386285 0.016418455 -0.010807507 0.014436898
-0.0073983707 -0.012227343 -0.0062563466 0.0029758883 -0.005567066 -0.015241752 0.0049935686 -0.0023246708

action_model._discrete_distribution.branches.0.bias f4 [4]
00000000: 0000 0000 0000 0000 0000 0000 0000 0000
0.0 0.0 0.0 0.0

action_model._discrete_distribution.branches.1.weight f4 [3, 128]
00000000: 6fc3 0dbc b519 df3a 83b7 83bc c504 35bc
00000010: 3ff0 90bb 33a7 d73b 20ab 4ebb eb52 3abc
00000020: 93ce cebb e578 9e3b 8aad 8e39 43d5 f1bb
00000030: e363 c4bb 77ff 6dba 992d 033c 4b5a 563c
00000040: f765 12bc 4ef7 283c caed 2a3c 743e b83a
00000050: 9f66 f4bb e049 8dba 9f4a 56bb 3e53 98bb
00000060: cdbf 1dbc af29 bd3b 9259 823b 13be f3bb
00000070: 5942 92bb 3bd8 a5bc efc8 1cba b096 de3b
00000080: 3806 66bb 1003 463b 5274 eebb b47e 97ba
00000090: db7a 4bbb e288 35bb e28a 4abc c296 1a3c
000000a0: 82dd 72bc 4533 12bc caf0 bf3a b490 c5ba
000000b0: efaf 633a 6045 59bc 6a41 d73b 4d4a 7cbc
000000c0: 7c22 3fbb a2cb 9b3b 959a cc3b c697 8b3a
000000d0: 85f8 163c 4801 78bc 3f84 243c 571e dfbb
000000e0: 57c7 49bc 7176 9a3b c93d 9e3c ebef 15bb
000000f0: 5ff4 fb3a 5c13 be3a 652a a33b 454e aebb
00000100: 1f3e ca3b 5d45 633b 83fa 333c cf89 863b
00000110: 8f3a 963b dc76 c13c 0a41 87bb 6427 10bc
00000120: 578f 6a3b add1 103b fa59 c93b 2acf c33b
00000130: 0d13 1dbc 7336 9a3c 83d7 1fbc 5d4c b9bc
00000140: 38d5 c33c 07bc b0bb 0d96 783b 58e6 7f3a
00000150: f71c aebb 98da f53a bc47 2d3c 9563 26bc
00000160: 80e1 4c3c ed0e 8d3b 7b27 b639 5812 263c
00000170: 8cb8 143c 6c28 ad3b b58b aebb ccc1 a2ba
00000180: 97a0 0f3c 1d9a 003c 420f 0d3c f15e 97bc
00000190: f70d 18bc 03f2 9d3b dfb9 863b 4ad0 f63b
000001a0: 28e7 e13b 5b53 92bb 6547 433c e2be 5ebb
000001b0: 4b9b d8bb 32af d23a 6636 08bb 7820 623c
000001c0: 235f 19bc e5f3 893c 4419 14bb 88a1 23bc
000001d0: abc8 08bc 1098 26bc c099 053c d28d daba
000001e0: 3331 d5bc 73b1 22bc 8662 bbba 8858 eabb
000001f0: da72 ffbb 1a87 d63b 1c61 293b 4b89 793c
00000200: 7844 c53b 3a53 dd39 6d20 8e3b c26a fc3b
00000210: 107f 3fbc 08cd 38bc cc6a 863a b322 a4ba
00000220: db84 823b ea4d 62bb e8f0 e2bb 0510 57bc
00000230: 5f38 fd3b 1318 fc3b f547 82bc 35e3 b1ba
00000240: ad1a 273b 0ef1 2fbc 48f2 7fbc d385 383b
00000250: 540a c53b f0ef 12bc 6566 883c c0f0 53bc
00000260: 9310 1cba c7e8 ac3b 2572 0a3c e59b fd3b
00000270: 2257 5e3b 15e9 b83a cbe2 773a d020 fe3b
00000280: 43d2 823b 0d53 04bc d8de f03b 341c 38bc
00000290: 8d41 fc39 281b 94bc fbe9 af3b 7d5e 2fbc
000002a0: 5fca 0bbc 3f94 c1bb 8f58 44ba 402c 01bc
000002b0: b6e7 c6bc 8b5c e2ba b150 29bb 8b65 9b3c
000002c0: ad30 02bc 809b 18bc abdb 5b3a bd09 f7b9
000002d0: 3ff3 8d3b f42e 2c3b 67b7 b93a 5310 8e3c
000002e0: 6fd1 5c3a 6751 8fbc 7be9 90b7 9063 043b
000002f0: 508f 3f3c 7b6c 6838 3bca fe3b f1b3 493c
00000300: b98a 32bc d7df 7d3a aff5 ba3b 62db 64ba
00000310: 3b96 413c 0bf0 873a 52b9 6bbc 8554 3cba
00000320: 6665 3e3c d7cd 55bc b52a e83b 97b8 df3b
00000330: 6ad6 62bb 5d24 ef3b 2df1 3b3c 6346 ba3a
00000340: 50f1 71bc 42de 5c3b 9560 87bb 6771 42bc
00000350: 272a a9ba 00e4 023a 1f22 2ebc 7817 5e3b
00000360: a1d7 14bc b622 24bb ad69 3e3b 272c 9f3b
00000370: 5195 99bb dc4d 25bc 6025 e43a 5592 cb3b
00000380: e7ef b3ba 92dc 7f3a da56 08bc c945 86bb
00000390: dc03 8e3c 391c 1fbc 0130 4abc 4ffd 10bc
000003a0: 1c7f 30bc 303c ba3a db2f 46ba 0300 9bbb
000003b0: b13c a6bb c1eb 34bc 00c2 fe3b 251e 6f3c
000003c0: a419 223c d72d 4a3c 1ac6 dc3b 3fb7 12bc
000003d0: df78 a53c 5bdc a5bb c048 7e3c b755 d1b9
000003e0: 5750 3c3a a3f4 4e3c 2123 25bc 276f 053c
000003f0: 91dc c9bb fd4f 2abb 5ba1 b8bc a161 afbc
-0.008652552 0.0017021211 -0.016078716 -0.0110485 -0.004423171 0.006581211 -0.0031535104 -0.011372308
-0.0063112467 0.004836189 0.00027213647 -0.007380159 -0.0059933527 -0.00090789 0.008006477 0.013083051
-0.008935443 0.010312868 0.01043267 0.0014056698 -0.0074585225 -0.0010779463 -0.0032698286 -0.004648595
-0.009628248 0.0057727913 0.003977963 -0.00743843 -0.0044634757 -0.020244708 -0.0005980869 0.0067928657
-0.0035098922 0.0030214228 -0.00727705 -0.0011558146 -0.003104857 -0.0027699997 -0.012362214 0.0094353575
-0.014823319 -0.008923356 0.0014643904 -0.0015073032 0.0008685579 -0.013261169 0.0065690773 -0.015398574
-0.0029164841 0.0047544995 0.0062440136 0.001065009 0.009214525 -0.015137024 0.010041296 -0.0068090367
-0.012315593 0.0047138263 0.01931657 -0.0022878598 0.0019222609 0.0014501619 0.004979419 -0.005319389
0.006171956 0.0034678795 0.01098502 0.0041057835 0.0045846174 0.023616247 -0.0041276263 -0.008798454
0.0035791004 0.0022097633 0.0061447592 0.0059756236 -0.009587062 0.018824792 -0.009755972 -0.02261942
0.023905382 -0.0053935084 0.0037931234 0.0009761802 -0.0053135115 0.0018757163 0.010576185 -0.010155578
0.012504935 0.004304758 0.0003474316 0.010136209 0.0090772025 0.0052843597 -0.005326713 -0.0012417375
0.008766315 0.0078492435 0.008609595 -0.018477889 -0.009280673 0.00482011 0.004111513 0.007532154
0.006894011 -0.004465503 0.011918877 -0.0033988287 -0.0066103092 0.0016073941 -0.0020784377 0.0138016865
-0.009361061 0.01683993 -0.0022598067 -0.0099872425 -0.008348624 -0.01016809 0.008154333 -0.0016674346
-0.026024437 -0.0099300025 -0.001429633 -0.007151667 -0.007795674 0.006546867 0.0025845235 0.015230487
0.006020125 0.00042214413 0.0043373615 0.007703156 -0.011688009 -0.011279352 0.0010255217 -0.0012522548
0.0039831228 -0.0034531304 -0.006925691 -0.013126378 0.007727667 0.0076932996 -0.015903452 -0.0013571741
0.0025498078 -0.010738624 -0.015621729 0.0028155937 0.006013194 -0.008968338 0.016650388 -0.012935817
-0.00059533975 0.0052767727 0.008450066 0.0077395313 0.0033926447 0.001410755 0.0009456097 0.0077553764
0.0039923503 -0.0080764415 0.007350784 -0.011237193 0.00048114025 -0.018079355 0.005368469 -0.01070368
-0.008532136 -0.005907565 -0.0007490003 -0.007884085 -0.02428041 -0.0017270012 -0.002583545 0.018969318
-0.0079461755 -0.009314418 0.000838692 -0.00047118767 0.0043319757 0.0026273103 0.0014169038 0.017341768
0.0008423542 -0.01749487 -1.727486e-05 0.0020200945 0.011691883 5.541414e-05 0.0077755726 0.012310968
-0.010897332 0.0009684539 0.0057055573 -0.00087302004 0.011815603 0.0010371221 -0.0143874455 -0.0007184225
0.011620855 -0.013049564 0.007085169 0.0068274247 -0.0034612664 0.007298036 0.011471075 0.0014211651
-0.014767006 0.0033701812 -0.0041313865 -0.011867858 -0.0012906239 0.0004993081 -0.010628252 0.00338885
-0.009084613 -0.0025045103 0.0029054687 0.0048575583 -0.0046869894 -0.010089364 0.0017406158 0.0062125125
-0.0013728113 0.00097603456 -0.008321488 -0.0040976745 0.017335825 -0.009711319 -0.012340547 -0.008849456
-0.010772493 0.0014208611 -0.00075602316 -0.004730226 -0.005073153 -0.011042536 0.0077745914 0.014594589
0.0098938085 0.012340031 0.0067374827 -0.008954822 0.020199237 -0.005061669 0.015520275 -0.0003992745
0.00071836024 0.012631568 -0.010079176 0.008144177 -0.006160327 -0.0025987618 -0.022537878 -0.021408858

action_model._discrete_distribution.branches.1.bias f4 [3]
00000000: 0000 0000 0000 0000 0000 0000
0.0 0.0 0.0
