results/companionv1/CompanionBehavior.onnx (onnx, 91694 bytes, 9 tensors)

discrete_act_size_vector f4 [1, 2]
4.0 3.0
00000000: 0000 8040 0000 4040

network_body._body_endoder.seq_layers.0.weight f4 [128, 28]
0.30981016 0.10883194 -0.0570891 -0.2653936 -0.12596108 0.22543426 -0.23970658 -0.023738092
-0.14235255 -0.08060801 0.061115872 0.31822497 -0.21792744 0.062241606 -0.24986266 0.12895906
0.072276786 -0.23242348 0.23423551 0.25070778 -0.20599568 0.02521019 0.028445749 -0.23171557
0.08055931 -0.06176583 -0.007997322 0.14069991 0.27234656 -0.18147783 -0.07113303 0.13978387
0.01581687 0.08964792 -0.17606157 0.19877996 -0.06813189 -0.13612714 -0.026189901 0.1576121
0.09081965 -0.21799663 -0.28705254 0.14989552 -0.108865716 0.20526658 -0.17636685 0.34679866
-0.14720346 -0.18799758 0.22078112 -0.037402432 0.1459162 0.13157092 -0.122777335 -0.30357754
0.26400515 0.19057572 0.012419574 0.16239986 0.024487596 -0.37709925 -0.019006696 -0.09491304
-0.13343382 -0.46566793 -0.07871128 0.32019994 -0.015860517 0.10249294 -0.056882896 0.14654641
0.178675 -0.46547118 0.19748694 -0.24514699 0.20700137 0.08976901 -0.048758727 -0.1629889
-0.04332468 0.06700213 -0.2376981 0.12103205 -0.27767333 0.077850595 0.01191383 -0.027316764
0.032253716 0.12198292 -0.22098795 0.082650416 0.16429451 0.32602152 -0.11841757 -0.3907763
-0.063361295 0.296462 0.23412234 0.20630704 -0.047707703 0.014274926 0.4368013 -0.097347535
-0.1127315 0.17131227 -0.2789957 -0.20804788 0.14063632 -0.18018785 0.17063181 0.3441324
0.27194092 0.11240714 0.031447455 0.05081671 0.2346347 -0.2709308 0.1446458 0.009217758
-0.037146643 0.015359172 0.06676461 -0.09918876 -0.6437309 -0.1954285 0.036918573 0.17489593
-0.10419395 -0.15643272 0.15089563 0.27731428 -0.21762215 -0.048667204 0.031094842 0.1587192
0.03690092 0.16522026 -0.17457196 -0.061404172 0.09927728 -0.022290496 -0.46600592 0.014126462
0.24273479 -0.30193338 -0.24253058 -0.38079178 0.013884914 0.030249888 -0.1945174 -0.21189837
-0.009085133 0.18115251 -0.19103144 -0.012759587 0.09010827 -0.09377412 -0.24561825 0.015816865
-0.2861875 -0.04751187 0.039985776 -0.4255143 -0.22164924 -0.0016443463 0.050907206 0.28646663
0.07903056 0.048463464 0.33369493 -0.20076361 0.027798312 0.030695077 -0.20610386 0.47971886
-0.22561419 -0.094190225 0.21643803 -0.37589824 0.120952085 -0.16622017 -0.49322373 -0.19959918
-0.06007343 0.21007316 -0.0021497041 -0.47077167 -0.19199573 0.018334124 0.24041252 0.33029455
-0.00756629 0.2497696 0.14648946 0.06163009 -0.05096275 -0.1991875 -0.13416612 -0.09962631
-0.14149173 -0.31201 -0.42001674 0.31587216 -0.08184215 -0.1671823 0.2806451 0.19139259
0.043510012 -0.007883219 0.122174926 -0.0497825 -0.19267909 -0.3212169 0.030290456 0.026931288
0.08389198 0.010753801 0.20406929 0.24815136 -0.12856396 0.071653865 -0.3350297 0.24104233
-0.365969 0.15686592 -0.07369405 -0.137904 -0.1653347 0.1147909 -0.33159122 -0.042696297
0.072205484 -0.094814025 -0.04543646 0.17023581 0.36952558 0.02266018 0.090553954 -0.30471805
0.30565533 -0.16078736 0.2035573 -0.4540635 0.007059154 0.30996868 -0.5579168 -0.3255561
-0.07508163 -0.033151828 -0.043375503 0.03280269 0.15847531 0.23492439 -0.21272363 0.086595
00000000: 709f 9e3e 48e3 de3d 43d6 69bd ace1 87be
00000010: f1fb 00be 3dd8 663e a475 75be 6376 c2bc
00000020: dec4 11be d015 a5bd a354 7a3d 62ee a23e
00000030: 5f28 5fbe 0ef1 7e3d ffdb 7fbe d80d 043e
00000040: da05 943d 6c00 6ebe 6fdb 6f3e c55c 803e
00000050: 88f0 52be 9a85 ce3c 0f07 e93c d946 6dbe
00000060: 48fc a43d 2bfe 7cbd 3307 03bc a313 103e
00000070: 0271 8b3e 53d5 39be 32ae 91bd 8123 0f3e
00000080: 6192 813c 5499 b73d 7c49 34be f98c 4b3e
00000090: bb88 8bbd ea64 0bbe 348c d6bc 1165 213e
000000a0: a7ff b93d 823a 5fbe 8df8 92be 367e 193e
000000b0: fdf4 debd 6731 523e 8399 34be 988f b13e
000000c0: 81bc 16be 7082 40be 7214 623e 4b33 19bd
000000d0: 0e6b 153e 87ba 063e af72 fbbd 846e 9bbe
000000e0: af2b 873e 4826 433e 787b 4b3c 264c 263e
000000f0: 369a c83c 2713 c1be eeb3 9bbc c561 c2bd
00000100: e0a2 08be 076c eebe 6133 a1bd 3ff1 a33e
00000110: eaed 81bc d2e7 d13d 0afe 68bd 4310 163e
00000120: 94f6 363e 3d52 eebe 043a 4a3e d007 7bbe
00000130: 2bf8 533e d1d8 b73d 3bb7 47bd 90e6 26be
00000140: 3875 31bd 6a38 893d 2167 73be a7df f73d
00000150: 332b 8ebe 2270 9f3d 3a32 433c 68c7 dfbc
00000160: 791c 043d 2ed2 f93d aa4a 62be 9f44 a93d
00000170: d23c 283e 4bec a63e e984 f2bd d513 c8be
00000180: 91c3 81bd dec9 973e c4bd 6f3e 2742 533e
00000190: 2769 43bd 61e1 693c 6ca4 df3e 255e c7bd
000001a0: c6df e6bd 7c6c 2f3e 86d8 8ebe 810a 55be
000001b0: f802 103e 2a83 38be 1bba 2e3e 1f32 b03e
000001c0: d73b 8b3e b735 e63d 0ccf 003d 2f25 503d
000001d0: 1444 703e 71b7 8abe 071e 143e 1406 173c
000001e0: 1427 18bd 09a5 7b3c e2bb 883d 7a23 cbbd
000001f0: 8ccb 24bf 691e 48be ee37 173d eb17 333e
00000200: a363 d5bd e62f 20be 6284 1a3e 23fc 8d3e
00000210: 57d8 5ebe 4357 47bd 9cba fe3c 4987 223e
00000220: 6b25 173d 802f 293e fec2 32be f182 7bbd
00000230: e351 cb3d 8f9a b6bc 5498 eebe ad72 673c
00000240: 788f 783e 0397 9abe f059 78be 24f7 c2be
00000250: 8d7d 633c 9dce f73c 922f 47be e3fb 58be
00000260: cfd9 14bc 0b80 393e bf9d 43be 960d 51bc
00000270: af8a b83d a50c c0bd 5a83 7bbe 5f92 813c
00000280: 2b87 92be ce9b 42bd 20c8 233d 03dd d9be
00000290: 05f8 62be 1b87 d7ba 1384 503d c1ab 923e
000002a0: c6da a13d a081 463d 10da aa3e fa94 4dbe
000002b0: 49b9 e33c 3e74 fb3c e40c 53be b69d f53e
000002c0: 6807 67be cee6 c0bd eea1 5d3e bc75 c0be
000002d0: bab5 f73d 9f35 2abe d287 fcbe ba63 4cbe
000002e0: 8f0f 76bd 6b1d 573e 0de2 0cbb fc08 f1be
000002f0: 879a 44be 7231 963c b32e 763e 5e1c a93e
00000300: a4ee f7bb 9ac3 7f3e 5501 163e d56f 7c3d
00000310: 51be 50bd cff7 4bbe d862 09be e108 ccbd
00000320: 35e3 10be c6bf 9fbe 6f0c d7be ffb9 a13e
00000330: db9c a7bd d631 2bbe b7b0 8f3e 6bfc 433e
00000340: 8e37 323d 9e28 01bc d936 fa3d bce8 4bbd
00000350: ab4d 45be 8b76 a4be b123 f83c 019f dc3c
00000360: 8fcf ab3d b630 303c 8af7 503e 641b 7e3e
00000370: 45a6 03be 43bf 923d 0389 abbe cdd3 763e
00000380: 4a60 bbbe 76a1 203e e8ec 96bd b536 0dbe
00000390: 804d 29be 7e17 eb3d 53c6 a9be 50e2 2ebd
000003a0: 78e0 933d db2d c2bd 951b 3abd 4c52 2e3e
000003b0: 7532 bd3e d8a1 b93c 5a74 b93d 0104 9cbe
000003c0: db7e 9c3e 71a5 24be 5371 503e 037b e8be
000003d0: 7a50 e73b 37b4 9e3e a3d3 0ebf 4aaf a6be
000003e0: 66c4 99bd 36ca 07bd 83aa 31bd 1d5c 063d
000003f0: 5a47 223e 0590 703e 39d4 59be b858 b13d

network_body._body_endoder.seq_layers.0.bias f4 [128]
-0.016287928 0.008787921 -0.041412294 0.010360993 0.025559917 -0.03555487 -0.00024957096 -0.04552706
0.019172516 -0.002271701 -0.003473584 0.008155431 0.020451859 0.009280801 0.023144927 -0.01731722
-0.04459325 0.006370201 -0.015457777 -0.026398355 -0.061125997 -0.009833706 -0.038250696 0.014543712
-0.03689437 0.02443389 -0.03984197 0.013808111 -0.03498368 -0.033398606 -0.04790902 0.012771686
-0.006419897 0.00289416 -0.05058065 0.01741454 -0.044519115 -0.05622682 0.015921686 -0.0040619248
-0.013798195 0.0136419665 0.012176988 0.0116325375 0.02414084 -0.033861432 7.2168514e-05 -0.021905042
0.004851648 0.017708365 0.017540751 -0.018103296 0.03212607 -0.0517765 -0.005061501 0.008171546
-0.017403353 0.031169733 -0.003437928 -0.026111927 0.024677796 -0.020403938 0.00049325055 -0.004916334
-0.0028481986 -0.01131964 0.023203522 0.005642219 0.0011760001 -0.031814057 0.009483557 -0.061768524
-0.031175733 -0.023645477 -0.014896068 0.014979874 0.015270471 0.012679568 -0.042723224 -0.019970316
0.026583314 0.036984593 0.036673028 0.02022801 -0.034242667 0.025632672 -0.00878696 0.012212169
0.012650197 0.019195588 0.012572711 0.025970167 0.03690435 -0.013439825 -0.0043899044 0.019242646
-0.013279883 0.026503408 0.025853865 0.022838451 0.008844723 0.016923051 -0.026891498 0.021815227
0.009393862 0.013558148 0.04145952 -0.010083298 -0.006072354 -0.00902534 0.016691528 0.040270448
0.032405958 -0.039689858 -0.015656844 -0.0072254087 0.031841945 -0.0039444836 -0.026372494 0.019474043
0.024182796 0.04426618 0.0029038028 -0.02869845 0.012695877 0.04796817 0.042797603 0.012541421
00000000: 436e 85bc 36fb 0f3c f09f 29bd 28c1 293c
00000010: 0863 d13c fca1 11bd d9d8 82b9 957a 3abd
00000020: ae0f 9d3c d2e0 14bb 12a5 63bb 5b9e 053c
00000030: a88a a73c 800e 183c 6e9a bd3c d8dc 8dbc
00000040: 69a7 36bd 1ebd d03b 9e42 7dbc 5d41 d8bc
00000050: 415f 7abd 8d1d 21bc c3ac 1cbd c048 6e3c
00000060: 8d1e 17bd 9529 c83c 5531 23bd 6a3b 623c
00000070: 0c4b 0fbd facc 08bd 403c 44bd 5540 513c
00000080: 005e d2bb f3ab 3d3b a82d 4fbd f0a8 8e3c
00000090: ad59 36bd 184e 66bd 326e 823c e519 85bb
000000a0: d311 62bc 8e82 5f3c fd81 473c 6696 3e3c
000000b0: 03c3 c53c 49b2 0abd 2d59 9738 3472 b3bc
000000c0: 93fa 9e3b 2211 913c 9fb1 8f3c 5d4d 94bc
000000d0: a096 033d 9813 54bd f3da a5bb f3e1 053c
000000e0: 7a91 8ebc ab57 ff3c dc4e 61bb aee8 d5bc
000000f0: 1729 ca3c 2926 a7bc 7c4d 013a 3319 a1bb
00000100: d8a8 3abb 0376 39bc 5015 be3c 5de2 b83b
00000110: 0424 9a3a 754f 02bd ec60 1b3c fe00 7dbd
00000120: 4064 ffbc 29b4 c1bc a30e 74bc 256e 753c
00000130: ff30 7a3c f6bd 4f3c 8cfe 2ebd ca98 a3bc
00000140: 40c5 d93c 287d 173d 7536 163d 36b5 a53c
00000150: 0a42 0cbd 9cfb d13c 2ef7 0fbc 8d15 483c
00000160: c642 4f3c 1140 9d3c c6fd 4d3c 63bf d43c
00000170: 0429 173d b632 5cbc 30d9 8fbb c1a2 9d3c
00000180: de93 59bc ad1d d93c 7ccb d33c b417 bb3c
00000190: 75e9 103c 36a2 8a3c 8f4b dcbc d9b5 b23c
000001a0: b7e8 193c ff22 5e3c 75d1 293d 6b34 25bc
000001b0: 99fa c6bb 05df 13bc acbc 883c a0f2 243d
000001c0: 1cbc 043d d591 22bd c842 80bc 1fc3 ecbb
000001d0: b36c 023d ba40 81bb 210b d8bc 0788 9f3c
000001e0: 001b c63c 7450 353d ba4d 3e3b 0319 ebbc
000001f0: 5e02 503c 467a 443d 8a4c 2f3d 887a 4d3c

network_body._body_endoder.seq_layers.2.weight f4 [128, 128]
-0.113534525 -0.10887396 0.021071622 0.06857626 0.046281055 -0.09769501 -0.1720057 -0.07379876
-0.013887774 0.17933978 -0.15584004 -0.061335918 -0.06551871 0.012144551 -0.051218707 -0.18722539
0.026045455 -0.10284194 -0.0614514 0.24874546 -0.037546944 0.06035537 -0.048874877 0.050986435
-0.11233038 -0.0043998393 0.019434623 -0.062470466 -0.08040122 0.10703073 0.0289902 0.097941115
-0.01630994 0.13975865 0.11417566 0.08610014 -0.08129765 0.054550525 -0.031168738 -0.02741555
-0.13342883 -0.24314618 0.1733506 0.040956985 -0.042459156 0.0148974145 0.0690764 0.029137881
-0.14433293 -0.104424186 0.09307126 -0.10414166 0.04208829 -0.012333564 -0.0014843114 -0.096355826
-0.14849931 -0.020132925 -0.02066375 -0.15736161 -0.011694601 0.04482065 -0.106300466 0.037800226
0.05892957 -0.056476347 0.013789111 0.060353145 -0.18372552 0.09676964 -0.046565633 0.014878807
-0.048486557 -0.010675004 0.03699183 -0.12027221 0.06744771 0.034021735 -0.116601385 -0.11146559
-0.08298156 0.050634764 -0.008195085 0.009453954 -0.08703474 0.1709677 0.044903822 0.04995264
-0.08324787 0.112546295 0.102798566 0.12681504 -0.014792995 0.0038596338 0.14661703 0.05684865
-0.21766953 0.08404888 0.045917433 -0.021259317 0.06904487 0.109742634 0.05119286 -0.006523599
-0.014457058 0.0733762 0.05479709 -0.04503164 0.046741635 -0.04440709 -0.07112377 0.069853544
0.06628329 -0.08690525 0.086115494 -0.12615529 0.23155715 -0.091552414 0.218556 -0.02907925
0.15351008 0.12628567 -0.067913756 0.047673754 0.15618667 0.012002 0.06549777 0.1617998
-0.0056876335 -0.020542288 -0.035083435 0.16536209 0.09168826 -0.15451777 -0.05329309 -0.043443147
-0.077693865 -0.010711871 0.027584039 0.018799622 -0.05558639 0.2037934 0.0040597003 -0.06689248
0.0042448393 -0.00075872283 0.061199024 -0.16789201 -0.07554829 -0.11807298 -0.09593544 0.0040368983
0.00657474 0.07742853 -0.09162736 -0.04478203 -0.03159355 0.023273017 -0.023942182 -0.08724836
-0.0492599 0.08955662 0.007611853 0.06601344 -0.05482151 -0.058169793 0.09897192 0.00327646
0.14532343 0.039012883 -0.029691542 0.004514492 -0.08431745 0.07292523 -0.09355885 0.053308114
0.091664664 0.06890706 -0.0062786634 -0.028485106 0.013642926 -0.14879364 -0.02561214 -0.13795416
0.065612964 0.14089161 -0.087828636 0.0754986 0.15106085 -0.020005155 -0.11850273 -0.031711955
-5.4588894e-05 -0.16654298 -0.009647834 0.027814731 -0.04751912 0.00856538 0.01310356 -0.047348697
0.0952932 -0.06354052 0.23694989 -0.060581293 0.10537666 -0.010482954 -0.067118615 -0.010464567
0.107988425 -0.0073285466 -0.012688836 0.009155371 -0.036606338 0.08321891 -0.03464367 -0.157686
0.12910216 -0.027543204 -0.031849384 0.119457096 0.26153103 0.07282548 -0.005510833 -0.0280429
-0.08270832 0.008767706 0.09791838 0.06533622 -0.23370646 0.06983808 -0.10683022 -0.033957694
-0.13675748 0.055562757 -0.044177093 -0.17176561 -0.038794998 0.060906347 0.18275917 -0.091861874
0.20644622 0.016375747 0.04437772 0.114233874 0.18849559 -0.04120711 -0.060322717 0.1315894
0.068397656 0.037754152 -0.037886593 0.11599865 0.039212693 -0.17975187 0.025287967 0.16019161
00000000: ca84 e8bd 50f9 debd 659e ac3c b671 8c3d
00000010: 3491 3d3d 5214 c8bd 4322 30be ce23 97bd
00000020: 8c89 63bc d9a4 373e 8894 1fbe 5f3b 7bbd
00000030: ac2e 86bd f0f9 463c b5ca 51bd 03b8 3fbe
00000040: 475d d53c cc9e d2bd 77b4 7bbd 21b7 7e3e
00000050: d3ca 19bd 3137 773d 0631 48bd 27d7 503d
00000060: 780d e6bd 872c 90bb 5c35 9f3c 08e1 7fbd
00000070: 65a9 a4bd ed32 db3d db7c ed3c 5a95 c83d
00000080: 6c9c 85bc e41c 0f3e eed4 e93d 4555 b03d
00000090: 627f a6bd 5f70 5f3d 9555 ffbc 9396 e0bc
000000a0: 91a1 08be 50fb 78be d282 313e 83c2 273d
000000b0: a7e9 2dbd 4914 743c ed77 8d3d 91b2 ee3c
000000c0: 03cc 13be 59dc d5bd 259c be3d 3948 d5bd
000000d0: c564 2c3d b812 4abc 3a8d c2ba 3456 c5bd
000000e0: 3410 18be ceed a4bc 0647 a9bc 6723 21be
000000f0: b69a 3fbc dc95 373d 0fb4 d9bd 69d4 1a3d
00000100: 2260 713d be53 67bd b9eb 613c dc34 773d
00000110: 8b22 3cbe 292f c63d 9bbb 3ebd 3dc6 733c
00000120: d799 46bd 36e6 2ebc bf84 173d 4751 f6bd
00000130: 0622 8a3d 605a 0b3d b5cc eebd 1248 e4bd
00000140: 3cf2 a9bd 6666 4f3d ae44 06bc c2e4 1a3c
00000150: 453f b2bd 2812 2f3e 12ed 373d 249b 4c3d
00000160: dc7d aabd ac7e e63d 0e88 d23d cddb 013e
00000170: 515e 72bc e9f1 7c3b c622 163e 21da 683d
00000180: c3e4 5ebe d221 ac3d eb13 3c3d 0528 aebc
00000190: 6667 8d3d bfc0 e03d 9baf 513d eac3 d5bb
000001a0: 4cdd 6cbc 4346 963d ea72 603d 1973 38bd
000001b0: 2874 3f3d 35e4 35bd 57a9 91bd 600f 8f3d
000001c0: 89bf 873d 61fb b1bd 525d b03d da2e 01be
000001d0: 511d 6d3e d57f bbbd 25cd 5f3e 9b37 eebc
000001e0: bf31 1d3e 0851 013e 5e16 8bbd 8e45 433d
000001f0: 66ef 1f3e 09a4 443c b223 863d d9ae 253e
00000200: 545f babb 4d48 a8bc a6b3 0fbd ae54 293e
00000210: 0ec7 bb3d e839 1ebe db49 5abd 71f1 31bd
00000220: f61d 9fbd d880 2fbc ecf7 e13c aa01 9a3c
00000230: 8eae 63bd 38af 503e 3c07 853b edfe 88bd
00000240: 4b18 8b3b 07e5 46ba d4ab 7a3d e2eb 2bbe
00000250: 10b9 9abd 3fd0 f1bd cd79 c4bd f547 843b
00000260: eb70 d73b d992 9e3d 20a7 bbbd 5d6d 37bd
00000270: 3d68 01bd 0ea7 be3c 6522 c4bc 45af b2bd
00000280: c0c4 49bd 7669 b73d da6c f93b 0e32 873d
00000290: 858c 60bd 7343 6ebd cab1 ca3d e1b9 563b
000002a0: aacf 143e f9cb 1f3d ad3b f3bc 4eee 933b
000002b0: a1ae acbd d359 953d c89b bfbd 9c59 5a3d
000002c0: afba bb3d 251f 8d3d 3fbd cdbb 9959 e9bc
000002d0: 9486 5f3c 5c5d 18be 8dd0 d1bc db43 0dbe
000002e0: 1760 863d e445 103e 80df b3bd 039f 9a3d
000002f0: b2af 1a3e dae1 a3bc 8fb1 f2bd 65e4 01bd
00000300: 61f6 64b8 3e8a 2abe f311 1ebc b8db e33c
00000310: 69a3 42bd cf55 0c3c 50b0 563c b5f0 41bd
00000320: 1529 c33d 8821 82bd fea2 723e 1724 78bd
00000330: b8cf d73d b2c0 2bbc 7c75 89bd 9373 2bbc
00000340: 0929 dd3d 4e24 f0bb d6e4 4fbc 6900 163c
00000350: 87f0 15bd ad6e aa3d 85e6 0dbd 7078 21be
00000360: 5b33 043e 49a2 e1bc 8074 02bd eca5 f43d
00000370: 65e7 853e 8625 953d 3894 b4bb 39ba e5bc
00000380: fb62 a9bd 6da6 0f3c 6e89 c83d ffce 853d
00000390: bf50 6fbe 4407 8f3d cdc9 dabd 3917 0bbd
000003a0: 270a 0cbe c695 633d 0af3 34bd 53e3 2fbe
000003b0: 81e7 1ebd ef78 793d 3825 3b3e 1422 bcbd
000003c0: a366 533e 6e26 863c 6ac5 353d 73f3 e93d
000003d0: fd04 413e c9c8 28bd f414 77bd 5fbf 063e
000003e0: 1214 8c3d 19a4 1a3d f92e 1bbd b390 ed3d
000003f0: 7d9d 203d e010 38be b628 cf3c 4509 243e

network_body._body_endoder.seq_layers.2.bias f4 [128]
0.025474396 0.026549563 -0.01594637 -0.021221716 0.015615312 0.0056358525 0.005532995 0.05582889
-0.0041792826 -0.0020405117 0.036781702 0.05976416 0.012208804 0.009599979 0.008044775 -0.008093861
-0.019117847 -0.009500553 0.0029845005 -0.021850767 -0.006600184 0.014345579 0.08512455 0.020347143
0.012792099 0.02908878 -0.0103336405 0.009331413 -0.0013579808 0.050149694 -0.015785716 0.014533173
0.015174674 -0.013975056 -0.008111408 0.03028817 -0.023235265 -0.00022991102 -0.021188075 0.01491644
-0.01546707 0.023512242 0.014939166 -0.011198321 0.02774202 -0.008472643 -0.024393532 -0.02138037
0.037344668 -0.003089411 0.016897155 0.025567947 0.047860455 -0.032333154 0.016569834 -0.0005822349
0.033864353 -0.01438401 0.020496525 -0.019461729 0.023654537 0.035278022 -0.01553845 0.011589334
-0.010604005 0.0014318635 0.025736397 0.019490967 -0.016698878 0.009982814 0.018266544 0.002389408
0.002216048 0.017435562 0.021531964 -0.027858632 -0.012716495 -0.008891387 -0.013164089 -0.014486132
0.0023032739 -0.03035674 -0.00792728 0.014482958 -0.013391837 0.026757848 0.024426786 -0.0063488027
-0.017683737 0.016359331 0.019452766 0.0063221157 0.062491883 0.02804044 -0.0012575405 0.043265738
-0.017543064 -0.00788213 -0.0027792654 -0.024251105 -0.024114298 0.0021577007 0.020854434 0.032613225
-0.0063214838 -0.019601746 0.05766034 -0.024691239 0.021320855 -0.018965531 0.038496036 -0.02258431
0.0295105 0.05487917 0.028605936 0.04311574 0.018376144 -0.0136040505 -0.017472515 -0.005503272
0.004064021 0.018940628 0.030909138 -0.007284942 0.0802872 0.037304357 -0.008635636 0.033565022
00000000: aeaf d03c 787e d93c f6a1 82bc 2ad9 adbc
00000010: 5ed7 7f3c f5ac b83b 204e b53b d6ac 643d
00000020: 5df2 88bb 1bba 05bb 69a8 163d 44cb 743d
00000030: 6f07 483c 3b49 1d3c 3bce 033c 1d9c 04bc
00000040: 089d 9cbc 35a8 1bbc 9c97 433b 6100 b3bc
00000050: 5b46 d8bb b809 6b3c c855 ae3d 0daf a63c
00000060: f495 513c 984b ee3c 6e4e 29bc c8e2 183c
00000070: 46fe b1ba c469 4d3d 0c51 81bc 8c1c 6e3c
00000080: 329f 783c a2f7 64bc b6e5 04bc e51e f83c
00000090: e257 bebc 4514 71b9 9d92 adbc 1564 743c
000000a0: 9869 7dbc bf9c c03c 67c3 743c 2a79 37bc
000000b0: 3c43 e33c d7d0 0abc f2d4 c7bc e325 afbc
000000c0: b9f6 183d b777 4abb e76b 8a3c df73 d13c
000000d0: 5309 443d c56f 04bd 76bd 873c 1fa1 18ba
000000e0: 59b5 0a3d e9aa 6bbc 54e8 a73c 346e 9fbc
000000f0: 29c7 c13c b07f 103d fc94 7ebc 31e1 3d3c
00000100: 6cbc 2dbc 5ead bb3a 23d5 d23c 85ab 9f3c
00000110: 16cc 88bc f58e 233c b8a3 953c 9d97 1c3b
00000120: 1e3b 113b 06d5 8e3c cd63 b03c c937 e4bc
00000130: d958 50bc 2ead 11bc 31ae 57bc 3e57 6dbc
00000140: 86f2 163b b3ae f8bc 6ce1 01bc ee49 6d3c
00000150: 6f69 5bbc 4633 db3c af1a c83c 9e09 d0bb
00000160: 7cdd 90bc 0104 863c 685b 9f3c c029 cf3b
00000170: 7df7 7f3d 11b5 e53c 0fd4 a4ba 6a37 313d
00000180: 79b6 8fbc 0d24 01bc 5624 36bb 41aa c6bc
00000190: 598b c5bc 3668 0d3b ebd6 aa3c 7295 053d
000001a0: 7324 cfbb d793 a0bc 402d 6c3d 4845 cabc
000001b0: 13a9 ae3c 9a5d 9bbc 05ae 1d3d bb02 b9bc
000001c0: 01c0 f13c fbc8 603d ff56 ea3c 219a 303d
000001d0: 9189 963c 86e3 5ebc 8522 8fbc cb54 b4bb
000001e0: 7b2b 853b 6029 9b3c 2935 fd3c 86b6 eebb
000001f0: 9e6d a43d 74cc 183d 7c7c 0dbc 7a7b 093d

action_model._discrete_distribution.branches.0.weight f4 [4, 128]
-0.027020704 -0.0268617 0.022188691 0.02230285 0.018610911 0.034077868 -0.003364508 -0.030882804
0.0029280256 0.004514059 -0.027226822 -0.030894108 0.00018054366 -0.008318475 -0.0062698787 0.027950194
0.020176025 0.012827524 -0.0039007242 0.021722982 0.028773574 -0.020816155 -0.03827796 0.02386856
-0.015404704 -0.019067781 -0.0025521754 -0.01473656 -0.0044818344 -0.06164715 0.010684296 -0.014958174
-0.020284558 -0.0005036053 0.031049192 -0.0064027323 0.013822667 0.007577689 0.029927528 -0.0083791595
0.043508038 -0.0077397954 0.015163861 -0.0005165906 -0.0056972625 -0.0079517905 0.028878376 0.022185877
-0.0014941755 0.017533608 -0.005713397 -0.024042653 -0.03850817 0.03416046 -0.024579352 -0.0057580513
-0.06199031 0.034684997 0.002803412 0.031671815 -0.016995378 -0.03248271 0.030749762 -0.009228641
0.019360503 0.004934107 0.0028932083 0.009657735 0.01363108 0.0019134374 -0.016072936 0.0077694175
-0.017556973 -0.008423794 -0.017200533 0.043815233 0.0050185528 0.010757857 0.013281392 0.005153468
0.012866005 0.04247132 0.020467682 -0.011015447 0.020830207 -0.0071658646 -0.0106318835 0.02387729
0.017315248 -0.002071447 -0.017315669 -0.005883566 -0.04618797 -0.008929882 -0.0052154427 -0.05144373
0.026548257 0.006917976 0.010899796 0.04245165 0.024344178 -0.0076626106 -0.017058166 -0.027733453
-0.0008603853 0.03660173 -0.038783394 0.022880536 -0.0023640587 0.010762656 -0.015231851 0.047028918
0.010667305 -0.03369604 -0.017038422 -0.031242564 -0.013367566 0.013542507 0.028907742 0.022458432
-0.0060843984 0.020629432 -0.012390437 0.0010228414 -0.060755245 -0.037702926 0.0016904091 -0.0037700795
-0.004251689 0.012688121 -2.1571479e-05 0.008820888 0.017093964 -0.034446236 0.004614801 0.02697247
0.015914943 0.006068203 0.025257273 0.013128174 0.016643925 -0.0016496939 -0.0072393976 0.015079396
0.007848961 -0.009989779 0.010322939 -0.0069298153 -0.005509983 0.021465907 0.019116273 -0.024829308
-0.010717957 0.0038499876 0.008455943 -0.023253113 0.015014863 -0.0064532943 0.009158497 -0.008037517
0.0015017268 0.0061825654 -0.030126683 0.024395725 0.0064310976 0.01489019 0.008026649 0.019948686
-0.007181 0.026163895 -0.03791928 0.009403099 -0.017937431 -0.010603804 -0.003362972 0.0065817162
-0.024432784 0.0027083042 -0.010475517 0.018482495 0.032843325 -0.0020701026 0.010635383 0.011176681
0.017881755 -0.010212219 -0.036292356 -0.010637592 -0.0016284294 -0.031691458 0.017355349 0.013458205
0.0013593927 0.0025161963 -0.018682297 -0.03259004 0.0022418716 0.00976825 0.014672039 0.013615742
-3.2850257e-05 0.0034262557 -0.041503783 -0.0014423674 0.00988075 0.0091428915 0.019906038 0.0015457352
0.0012028384 -0.023335671 0.0014451747 -0.0022185098 -0.005406908 -0.049234964 -0.023837376 -0.0031480612
-0.021911925 -0.03624802 0.020538174 0.014788629 -0.0030298945 -0.021765558 0.014899005 0.0418035
0.0073579876 0.014919655 0.022968268 0.0077064317 -0.005627205 0.01146089 0.013000502 -0.0097235115
0.014915079 -0.006648838 0.0065125045 -0.018615978 -0.0011726682 0.003212606 0.017311532 -0.0023930278
1.8096471e-06 0.025314843 -0.0039928975 0.016991215 0.022839433 0.0013572865 -0.01562864 0.02118614
0.014695886 -0.047031567 -0.022870531 0.0103432955 0.02041573 -0.024387622 -0.004637482 -0.020075332
00000000: 865a ddbc 110d dcbc 0fc5 b53c 77b4 b63c
00000010: e975 983c 3c95 0b3d 147f 5cbb effd fcbc
00000020: 1ee4 3f3b acea 933b c90a dfbc a415 fdbc
00000030: 5250 3d39 374a 08bc 8e73 cdbb cef7 e43c
00000040: 3148 a53c 892a 523c 4ba3 7fbb 65f4 b13c
00000050: 8fb6 eb3c a486 aabc 5ac9 1cbd 0088 c33c
00000060: 0364 7cbc 0934 9cbc 6642 27bb 9d71 71bc
00000070: 5adc 92bb b981 7cbd 2f0d 2f3c 2113 75bc
00000080: cd2b a6bc 6104 04ba e05a fe3c 03ce d1bb
00000090: 7878 623c 434e f83b 932a f53c be48 09bc
000000a0: 7c35 323d 1c9e fdbb d871 783c cf6b 07ba
000000b0: 1ab0 babb 3a48 02bc 5892 ec3c 28bf b53c
000000c0: 36d8 c3ba a4a2 8f3c 7337 bbbb 19f5 c4bc
000000d0: beba 1dbd d7eb 0b3d a35a c9bc 09ae bcbb
000000e0: 8de9 7dbd db11 0e3d 73b9 373b 4eba 013d
000000f0: e439 8bbc 970c 05bd ede6 fb3c ba33 17bc
00000100: eb99 9e3c 4aae a13b fb9b 3d3b 7a3b 1e3c
00000110: e554 5f3c 4ecc fa3a 64ab 83bc 9996 fe3b
00000120: a4d3 8fbc f403 0abc 22e8 8cbc 9a77 333d
00000130: ac72 a43b b941 303c 329a 593c 6cde a83b
00000140: f0cb 523c 68f6 2d3d d7ab a73c 227a 34bc
00000150: 1ca4 aa3c a1cf eabb 5a31 2ebc 4e9a c33c
00000160: b5d8 8d3c 1dc1 07bb 97d9 8dbc eeca c0bb
00000170: 992f 3dbd a44e 12bc 4ee6 aabb a9b6 52bd
00000180: bb7b d93c 30b0 e23b 0f95 323c c8e1 2d3d
00000190: 716d c73c a316 fbbb 91bd 8bbc 4431 e3bc
000001a0: 7b8b 61ba b2eb 153d 56db 1ebd f66f bb3c
000001b0: 53ee 1abb da55 303c 038f 79bc 65a1 403d
000001c0: ecc5 2e3c dc04 0abd 2994 8bbc 68f0 ffbc
000001d0: a303 5bbc 64e1 5d3c eecf ec3c bffa b73c
000001e0: a25f c7bb 0eff a83c 4201 4bbc dd10 863a
000001f0: 7eda 78bd 626e 1abd b890 dd3a 7013 77bb
00000200: c151 8bbb d6e1 4f3c 66f4 b4b7 7c85 103c
00000210: a408 8c3c 7f17 0dbd c237 973b 5ff5 dc3c
00000220: 0e60 823c c7d7 c63b 57e8 ce3c 8d17 573c
00000230: d758 883c 8b3a d8ba 7838 edbb 920f 773c
00000240: ee98 003c 2cac 23bc 8b21 293c 8113 e3bb
00000250: 168d b4bb 45d9 af3c bb99 9c3c d566 cbbc
00000260: 5f9a 2fbc 1350 7c3b cc8a 0a3c 507d bebc
00000270: e600 763c 2876 d3bb 850d 163c caaf 03bc
00000280: 97d5 c43a 1e97 ca3b 3ccc f6bc 8bd9 c73c
00000290: f5bb d23b fcf5 733c 3582 033c 6d6b a33c
000002a0: 984e ebbb aa55 d63c 3f51 1bbd 750f 1a3c
000002b0: 85f1 92bc 94bb 2dbc 4f65 5cbb 70ab d73b
000002c0: 4327 c8bc ce7d 313b 81a1 2bbc 9a68 973c
000002d0: b986 063d 8faa 07bb 0840 2e3c 661e 373c
000002e0: c27c 923c 2751 27bc 4ba7 14bd 4b49 2ebc
000002f0: 0671 d5ba e7ce 01bd ce2c 8e3c ce7f 5c3c
00000300: a62d b23a c5e6 243b 9e0b 99bc 227d 05bd
00000310: 5dec 123b 030b 203c fe62 703c 9014 5f3c
00000320: b2c8 09b8 088b 603b dfff 29bd d20d bdba
00000330: dfe2 213c 11cc 153c fd11 a33c 449a ca3a
00000340: 8fa8 9d3a 732a bfbc 046c bd3a 6b64 11bb
00000350: 6f2c b1bb 9aaa 49bd 9a46 c3bc b44f 4ebb
00000360: a380 b3bc ce78 14bd ac3f a83c 014c 723c
00000370: 3291 46bb af4d b2bc f51a 743c 263a 2b3d
00000380: 461b f13b 9271 743c f327 bc3c 3c86 fc3b
00000390: 6b64 b8bb 75c6 3b3c 0f00 553c 5d4f 1fbc
000003a0: 605e 743c 7fde d9bb d966 d53b 8980 98bc
000003b0: 37b4 99ba 968a 523b ead0 8d3c 58d4 1cbb
000003c0: 00e3 f235 1361 cf3c dad6 82bb 2931 8b3c
000003d0: c319 bb3c fae6 b13a a207 80bc 8e8e ad3c
000003e0: 03c7 703c 2ca4 40bd fb5a bbbc ed76 293c
000003f0: e43e a73c 8dc8 c7bc 05f6 97bb 0675 a4bc

action_model._discrete_distribution.branches.0.bias f4 [4]
-0.02603822 0.010928881 0.003206597 0.018699512
00000000: 1b4e d5bc 0d0f 333c c525 523b b82f 993c

action_model._discrete_distribution.branches.1.weight f4 [3, 128]
-0.021230178 -0.029162018 0.020506315 0.01237114 0.008024099 -0.0059551573 -0.023376204 0.01596981
0.000639802 -0.006447541 0.034617797 0.025770256 0.009780481 0.030136159 -0.011448485 0.031031715
0.00092583674 0.00014265985 -0.012414097 0.009805911 0.030127406 -0.0054704463 0.0019094303 -0.024211075
-0.0068873754 -0.024434855 0.016288416 0.0026434641 -0.0062496583 0.0073154164 -0.00086663105 -0.026378052
-0.014021124 0.00022804315 -0.013378796 0.02775539 0.007952332 -0.0046577235 -0.00511401 -0.014350623
0.007207981 0.007357557 -0.0162322 -0.008182324 -0.015614298 -0.0105530955 0.0024098747 -0.0036785968
-0.024571067 0.007057269 0.007749784 -0.024059739 0.021480488 0.007499184 -0.023366729 0.0015418831
0.012276933 0.0022291006 -0.007573699 5.8951522e-05 -0.00919558 -0.017705614 0.010429495 -0.0066434667
-0.005531653 0.012923412 -0.0115072355 -0.019613978 -0.0120800035 0.0028078158 -0.00088639354 -0.018271226
0.00991402 0.032489255 -0.019453906 0.016030585 -0.008168957 -0.00016904663 0.001753561 -0.008551108
0.024830837 -0.005419242 -0.02310464 -0.013947192 -0.0038850857 -0.017205438 -0.013411368 0.015562082
0.0040565333 -0.005899408 -0.0079994565 -0.0145741915 -0.01700306 -0.019545166 0.0051736594 0.03794293
0.009811417 0.012374399 -0.0019633153 0.0045406125 0.02211917 0.012859013 0.016395256 -0.027650215
-0.0032138291 -0.0009096827 0.007780114 0.0116171045 -0.01624605 -0.012135732 0.0034560135 0.01207837
0.023874046 -0.015268389 -0.03801453 -0.011784923 -0.021287065 0.018228436 0.015275175 0.016411483
-0.01128125 -0.004382396 -0.01114812 0.0005718571 -0.0052921963 -0.0028453066 -0.004835102 -0.030012874
-0.030979455 -0.030235233 0.021054978 0.015433157 0.008144045 -0.005126821 0.018101795 -0.02253583
0.025697665 0.019532721 -0.0038482128 -0.0049491595 -0.0028964323 0.036184106 0.0041565336 0.015639741
-0.0018682374 0.008533927 0.0008869914 -0.010713747 -0.005097254 0.0065148715 -0.004004856 0.000195783
-0.015592861 -0.007772621 -0.00018408435 -0.00037353172 -0.0053639845 -0.008505876 0.027557481 0.00010412508
-0.007645372 0.009302366 0.012543714 0.010306113 0.009043434 0.0057624853 0.008359372 0.008113417
-0.010246182 -0.0033438997 0.021123948 0.0011556563 -0.010262426 0.016258463 0.009117307 -0.00805546
0.013097876 0.011267652 -0.009629412 -0.017535344 -0.013070369 0.00067787524 -0.004929342 -0.0077188476
0.0010199535 0.005149183 0.0021014714 0.020286327 -0.0030713477 0.0025754068 0.014079575 0.004769541
0.005987045 0.014909447 -0.020163503 -0.016491048 0.009668517 0.019935928 0.01812784 0.01430497
0.009199255 0.007938736 -0.010614951 -0.00013040974 0.0076032053 0.023458015 0.013355883 0.01094742
0.00705901 0.012475623 -0.020433456 -0.00086646585 0.010155266 -0.016502896 -0.0078649195 0.010031109
-0.003475998 -0.013484324 0.0047543594 0.022211725 -0.0063371905 -0.0027286927 -0.001223092 -0.014567262
0.009830478 0.012304901 0.01328981 0.013433643 -0.01048637 0.0044575096 0.010485796 -0.020389272
0.0026748946 -0.0041378625 -0.0025257908 0.0047359364 -0.0029815512 0.0052431207 0.0020471541 0.011622362
-0.0033875587 0.01767674 -0.011534902 -0.001698962 -0.017935948 -0.010684456 0.019307801 0.014209647
0.004359965 -0.0056603807 -0.010526759 0.008841144 -0.0011117009 -0.008899946 0.006382525 -0.0049541513
00000000: e9ea adbc 2fe5 eebc dcfc a73c 52b0 4a3c
00000010: 8377 033c 7b23 c3bb 747f bfbc 1ed3 823c
00000020: 63b8 273a e545 d3bb 64cb 0d3d 251c d33c
00000030: 503e 203c 1be0 f63c 6d92 3bbc 3936 fe3c
00000040: dab3 723a f696 1539 7f64 4bbc f9a8 203c
00000050: c0cd f63c 6e41 b3bb d945 fa3a 4e56 c6bc
00000060: 7eaf e1bb 9b2b c8bc 496f 853c f83d 2d3b
00000070: efc9 ccbb 29b6 ef3b a02e 63ba c916 d8bc
00000080: dbb8 65bc de1e 6f39 bd32 5bbc 465f e33c
00000090: 7f4a 023c d19f 98bb 6d93 a7bb e01e 6bbc
000000a0: ed30 ec3b a917 f13b 64f9 84bc 270f 06bc
000000b0: 1dd3 7fbc e4e6 2cbc fdee 1d3b 9d14 71bb
000000c0: 4349 c9bc aa40 e73b e6f1 fd3b ee18 c5bc
000000d0: d9f7 af3c b7bb f53b 956b bfbc 0319 ca3a
000000e0: 3025 493c 1a16 123b cb2c f8bb b742 7738
000000f0: 0fa9 16bc 5d0b 91bc 79e0 2a3c 70b1 d9bb
00000100: de42 b5bb b8bc 533c d888 3cbc 7ead a0bc
00000110: 35eb 45bc 5503 383b dd5c 68ba 8aad 95bc
00000120: 6a6e 223c 7413 053d cc5d 9fbc 9352 833c
00000130: 17d7 05bc 1c42 31b9 bed7 e53a f219 0cbc
00000140: 0a6a cb3c e693 b1bb f145 bdbc c382 64bc
00000150: ec9c 7ebb 6bf2 8cbc 5bbb 5bbc 1af8 7e3c
00000160: abec 843b d24f c1bb 2710 03bc 97c8 6ebc
00000170: 004a 8bbc 2f1d a0bc cd87 a93b 0c6a 1b3d
00000180: 11c0 203c febd 4a3c f7aa 00bb 6bc9 943b
00000190: 4333 b53c 9cae 523c 584f 863c b482 e2bc
000001a0: 1b9f 52bb c677 6eba 54f0 fe3b ab55 3e3c
000001b0: 7016 85bc f3d4 46bc 497e 623b 5be4 453c
000001c0: 8193 c33c 4428 7abc 20b5 1bbd 8d15 41bc
000001d0: 3662 aebc cd53 953c ba44 7a3c 6071 863c
000001e0: fed4 38bc 349a 8fbb 9ba6 36bc aee8 153a
000001f0: 296a adbb 5378 3abb c66f 9ebb 8fdd f5bc
00000200: a0c8 fdbc e1af f7bc 7d7b ac3c 5adb 7c3c
00000210: 9a6e 053c e4fe a7bb 374a 943c 109d b8bc
00000220: e983 d23c 1603 a03c 4c32 7cbb 8f2c a2bb
00000230: 12d2 3dbb c935 143d 8833 883b ea1e 803c
00000240: a5df f4ba e2d1 0b3c fc84 683a b688 2fbc
00000250: de06 a7bb b47a d53b 2b3b 83bb 194b 4d39
00000260: 3379 7fbc 78b1 febb c406 41b9 94d6 c3b9
00000270: 5dc4 afbb 3b5c 0bbc 3ac0 e13c ba5d da38
00000280: 0786 fabb f368 183c 2684 4d3c f9da 283c
00000290: e92a 143c 3bd3 bc3b bff5 083c 23ee 043c
000002a0: 9adf 27bc 5425 5bbb 210c ad3c 6479 973a
000002b0: bc23 28bc 7830 853c c260 153c 0cfb 03bc
000002c0: 7998 563c f59b 383c aec4 1dbc 48a6 8fbc
000002d0: 1a25 56bc 70b3 313a 5186 a1bb 63ee fcbb
000002e0: f6af 853a 7aba a83b d7b8 093b 832f a63c
000002f0: aa48 49bb 28c8 283b 05ae 663c cf49 9c3b
00000300: f92e c43b c146 743c ee2d a5bc 3c18 87bc
00000310: b368 1e3c ac50 a33c d680 943c 655f 6a3c
00000320: 79b8 163c 7911 023c 55ea 2dbc 99be 08b9
00000330: 4f24 f93b 062b c03c a2d2 5a3c cf5c 333c
00000340: 454f e73b 8e66 4c3c 1064 a7bc 8a23 63ba
00000350: 4662 263c 1531 87bc dddb 00bc 8559 243c
00000360: 92cd 63bb 5bed 5cbc 75ca 9b3b 5df5 b53c
00000370: 35a8 cfbb ded3 32bb 2850 a0ba 86ab 6ebc
00000380: 0310 213c 7f9a 493c 81bd 593c c818 5c3c
00000390: 06cf 2bbc 4d10 923b 9ecc 2b3c 6707 a7bc
000003a0: 494d 2f3b e896 87bb bd87 25bb ea2f 9b3b
000003b0: 2166 43bb 7cce ab3b 8c29 063b b86b 3e3c
000003c0: ce01 5ebb d0ce 903c e3fc 3cbc b4af deba
000003d0: 69ee 92bc db0d 2fbc 652b 9e3c 94cf 683c
000003e0: 0ade 8e3b b77a b9bb 6d78 2cbc 72da 103c
000003f0: 7eb6 91ba 14d1 11bc 8024 d13b 6f56 a2bb

action_model._discrete_distribution.branches.1.bias f4 [3]
-0.010434938 -0.0040021692 0.013876474
00000000: 4df7 2abc a124 83bb 275a 633c
