results/test2/My Behavior.onnx (onnx, 92206 bytes, 9 tensors)

discrete_act_size_vector f4 [1, 2]
000000 00 00 80 40 00 00 40 40
       4.0 3.0

network_body._body_endoder.seq_layers.0.weight f4 [128, 29]
000000 f6 40 ce bb 52 e2 06 3e 36 78 eb 3c 89 d3 64 3d
       -0.006294365 0.13172272 0.028743844 0.0558658
000010 18 9b e5 bc b8 ae 9e 3e 42 ad 97 be 76 6d 5c 3e
       -0.028028056 0.30992675 -0.29624373 0.21526131
000020 9c 07 f3 3d 49 d2 f3 3d c2 a4 85 bd 3e 4e e0 3d
       0.11866686 0.11905343 -0.06525566 0.109524235
000030 b0 a8 8c 3e 03 d7 b1 3d ba 30 d7 3c af 90 8c be
       0.27472448 0.08683588 0.026268352 -0.27454135
000040 80 fa 53 3e dc 2b 8a bd 65 1c 34 bd 93 86 4c be
       0.20701027 -0.06746647 -0.04397239 -0.19973211
000050 a9 67 15 be 93 38 f2 3d 25 2f 3b be ba cc 82 bd
       -0.14590324 0.11827197 -0.18279703 -0.06386705
000060 91 61 07 be e1 cb 36 bd 17 19 02 3e 99 30 7a bb
       -0.13220812 -0.044628028 0.12704884 -0.003817594
000070 a8 50 c4 3d f4 82 e0 bd 7c 76 8e bd 6a 99 4a be
       0.095856965 -0.10962477 -0.06956193 -0.19785085
000080 26 8f 26 be 23 60 cc be c0 dd 8c 3d 2e 1c 15 be
       -0.16265544 -0.39917096 0.06878233 -0.14561531
000090 a2 68 67 bd 32 63 30 bd cb 17 14 3d b3 e3 a2 3d
       -0.05649627 -0.04306335 0.036155503 0.079535864
0000a0 7d 66 f9 bd 3f 8b 3f 3e 0b 7e 1f be 01 64 a2 3d
       -0.12177751 0.18705462 -0.15575425 0.079292305
0000b0 1e 48 36 bd 11 60 09 3d 45 d7 27 be e8 b5 d0 3d
       -0.04450237 0.03353888 -0.16390713 0.10190946
0000c0 c3 0b 11 be c2 4f 39 be ca 52 6c 3c 27 e7 1c be
       -0.14164643 -0.18096831 0.014424035 -0.15322553
0000d0 77 fa c3 3c f7 87 a4 be a0 8f 9e be 7a f4 6f 3d
       0.023923142 -0.32134983 -0.30968952 0.05858276
0000e0 82 b3 30 3e f0 4b 8a bd b0 a2 13 bd ee 59 b2 bc
       0.17255977 -0.06752765 -0.036043823 -0.021771397
0000f0 89 32 e8 3d 9c e0 10 3d 25 3b 9d 3d db 6e 50 3c
       0.11337764 0.035370454 0.076772965 0.0127217425
000100 bb c3 a1 bd 4f c4 7c be 76 c4 22 be 46 3c aa bd
       -0.07898661 -0.24684261 -0.15895256 -0.083122775
000110 97 a3 a9 3d 81 42 ee bd 64 d7 50 be 05 08 10 3d
       0.082831554 -0.11633778 -0.20394665 0.035163898
000120 59 15 a9 3d 69 cc fe 3c b7 19 09 be 45 d5 9b be
       0.08256025 0.03110333 -0.13388716 -0.3043615
000130 e7 6f 00 be bf d3 89 bd 2a 1e 7d 3c 39 ea 6f 3d
       -0.12542687 -0.067298405 0.015449086 0.05857298
000140 c8 8b 48 bd 3b b2 01 be 91 a6 a4 be 5a 3a d5 3d
       -0.04896143 -0.12665646 -0.3215833 0.1041152
000150 0f 0f 5d bd 99 5f bb 3d f1 fb 8e bc 31 88 83 bd
       -0.05396944 0.09149093 -0.01745412 -0.06422461
000160 ef 1a a3 bd 9c e7 67 bd 14 43 ea 3d bd ab 57 3e
       -0.079641216 -0.056617364 0.114385754 0.21061607
000170 bd 56 06 3e a1 1f 3a be 38 4d e5 bc c3 d9 24 be
       0.13119026 -0.18176128 -0.027990922 -0.16098695
000180 cf 60 be be 03 37 6e 3e 2a 3f 23 bc 10 f4 42 bd
       -0.37183234 0.23263173 -0.00996379 -0.047596037
000190 a1 f8 78 be d2 8f 8b 3d e8 ca fb 3d e5 25 c2 3b
       -0.24313594 0.06814541 0.12294561 0.0059249275
0001a0 0e ef f0 3e 34 d2 95 be 86 2f e0 3c 0c a9 ba 3a
       0.47057384 -0.29261935 0.027366411 0.0014241054
0001b0 b0 1f 0f be ae 3b 1b 3e 53 b3 97 be 75 86 f8 bd
       -0.13976932 0.15159485 -0.29629 -0.12135021
0001c0 c6 0a d1 bc 22 0c 2a 3e a1 fb a8 3b ce 0d c0 bd
       -0.025517832 0.16606191 0.0051569496 -0.09377633
0001d0 1d 3e 93 3d 5d bf 32 be e6 81 f7 3e 34 6c 22 be
       0.071895815 -0.17455812 0.48341292 -0.15861589
0001e0 f9 49 3a 3e 83 14 82 be c7 4f 0c bd 57 bc ca bd
       0.18192281 -0.25406274 -0.03425577 -0.09899204
0001f0 c2 d8 2e 3c bd f4 b1 3d 9d c7 7a be 5c 4b 17 3e
       0.010671796 0.08689258 -0.24490209 0.14774841
000200 fc 91 96 bb 01 c5 9b bd 80 cc 13 be 25 92 86 bc
       -0.0045950394 -0.07605935 -0.1443348 -0.016427109
000210 d3 fc d6 3d 92 49 18 bc 8a 7c 4c be 85 48 69 be
       0.10497441 -0.009294884 -0.19969383 -0.2278157
000220 f0 41 66 3e 08 97 e4 3d 4b 54 c6 3e 69 76 53 3e
       0.2248609 0.111616194 0.38736185 0.20650639
000230 b8 6d 60 3e 29 c4 33 bf 2e a8 48 3e 59 97 05 be
       0.21916854 -0.7022119 0.19595405 -0.13046016
000240 05 d8 c7 3c 16 99 d6 3e 20 34 96 3c 8f ac 87 be
       0.024394998 0.4191367 0.018335402 -0.2649884
000250 49 b0 75 3e e5 f9 e2 3d 08 bd 55 3e 51 ec a7 bc
       0.23993029 0.1108282 0.20872891 -0.020498427
000260 28 2c 22 3e 97 dc 68 3d 36 04 0d 3e a1 4b b5 bd
       0.15837157 0.056850996 0.13771138 -0.08852316
000270 92 0a 4d 3e 47 2c 1e 3e 4b 4a 21 bd 19 d0 18 3d
       0.20023564 0.15446578 -0.039377492 0.037307832
000280 e9 33 20 be 62 e1 c6 3d eb c5 13 3e 08 ef 70 3e
       -0.15644802 0.09710957 0.14430968 0.23528683
000290 a7 d4 3f be bb fb ca 3d 86 09 c4 3e 74 cd 55 be
       -0.18733464 0.09911295 0.38288516 -0.20879155
0002a0 6a 73 38 bc 5b 60 80 3d 73 b9 6d 3e 1d ea 04 3e
       -0.011257986 0.06268378 0.23215275 0.12979932
0002b0 4a d1 b9 3e 49 a4 6f be 30 1e 12 3c 10 02 d8 3d
       0.36292487 -0.23402514 0.00891833 0.105472684
0002c0 7a 2b ac 3d dd e4 a8 3d fe 75 7d be 6d b9 a5 3c
       0.0840673 0.08246777 -0.24752042 0.02023002
0002d0 1f 9c d4 3c 4a 73 95 be 95 82 aa 3d b9 09 9c 3d
       0.02595335 -0.2918952 0.08325688 0.07619042
0002e0 00 c1 34 3e 77 fc 60 be c2 7b 1b 3e c2 fa f0 3c
       0.17651749 -0.21971308 0.15183929 0.029416446
0002f0 21 73 73 be f4 6b ce be dc ef 84 3d fa 80 81 be
       -0.23774387 -0.40316737 0.06491062 -0.25293714
000300 bb d3 27 3d 17 60 3b 3e 98 50 d4 3d 16 0b be be
       0.040973406 0.18298374 0.103669345 -0.37117833
000310 73 7d 19 be 84 79 94 3d 99 f3 4d bd a3 7b 9c b9
       -0.14989261 0.0724974 -0.05028114 -0.00029846755
000320 09 61 32 be b2 9b ac bd df e4 52 3e 7c b1 89 3d
       -0.17419828 -0.08428134 0.2059512 0.067233056
000330 40 ee 9f bb 77 8c a9 bd 9c a0 57 3e fa 37 09 3e
       -0.0048806965 -0.08278745 0.21057361 0.1340026
000340 54 c4 ae bd 93 9b 02 3d fb cf ec bc 10 c8 b5 3d
       -0.0853354 0.03188665 -0.028907767 0.088760495
000350 d7 1c 84 be 98 59 b6 3e f1 27 c4 bd a6 94 6d be
       -0.25803253 0.3561523 -0.09577931 -0.23201236
000360 09 a9 91 be 11 28 59 be 62 86 0e 3c 9a 4c f4 bc
       -0.28449276 -0.2120669 0.008699032 -0.029821683
000370 bb fb 68 3d 53 04 e2 bd d6 b4 00 3e 67 39 c0 be
       0.056880694 -0.11035981 0.12568983 -0.37543795
000380 05 7b e4 bc 7e 3d 29 be 03 97 85 3e 96 bb 9f be
       -0.027890692 -0.16527364 0.26091775 -0.31197804
000390 8d 76 21 3e b8 8f 02 3d 7a 44 5c 3d 2c 48 da bd
       0.1576788 0.031875342 0.05377624 -0.10658297
0003a0 1c 57 4a 3e dc 47 34 3e 37 60 e0 be ff f8 d8 bd
       0.19759792 0.17605537 -0.43823406 -0.10594367
0003b0 4c 75 7f 3e 7c 6c 5f be 39 6a 5d 3e 4f bb 99 bd
       0.24947089 -0.21818727 0.21622552 -0.075064294
0003c0 f4 da 4b 3e 4d df 88 3e e2 07 ca 3c bc 1d 08 3d
       0.19907743 0.26732865 0.024661962 0.033231482
0003d0 c1 6b b4 bd bf da 6e 3e ae 8c 1f be c8 0a b8 be
       -0.08809615 0.23325633 -0.15581009 -0.35945725
0003e0 8c 7b e0 3d 33 a0 2e be 1e f9 b7 3d 9f bb e9 bb
       0.10961065 -0.17053299 0.08983062 -0.007132962
0003f0 81 d4 e4 bd 98 e2 a2 3e c9 0b 82 3e 6b 69 59 3e
       -0.111733444 0.31813502 0.25399616 0.2123162

network_body._body_endoder.seq_layers.0.bias f4 [128]
000000 e9 ac cf bb 03 e1 3b 3b e8 cd 88 3a 17 a7 80 bb
       -0.006337751 0.0028668053 0.0010437341 -0.0039261687
000010 9a e0 4a 3c 7c 01 09 bb c7 59 d0 bb 44 6f f4 3b
       0.012382651 -0.0020905426 -0.0063583585 0.007459553
000020 a2 05 6a 3b 5d 7b 84 3b 6a e2 b1 3b ca 1a 08 38
       0.0035708924 0.0040430264 0.005428602 3.2449876e-05
000030 74 76 c6 3b 2b 36 8e bb c2 2b 39 bb 63 b9 3b 3c
       0.006056601 -0.0043399534 -0.0028254841 0.011457774
000040 8c b0 99 b8 58 9d b2 b9 95 f8 c4 3a 5c 91 5f 3b
       -7.328493e-05 -0.00034068036 0.0015027696 0.003411374
000050 31 c2 3e 3c 88 dd 71 38 5f 5f d4 ba 98 98 66 b6
       0.0116429785 5.7665195e-05 -0.0016202739 -3.4361492e-06
000060 6f c4 5f bb 0b 5b 69 3a 0f 55 26 3b bb db ea bb
       -0.0034144183 0.0008901811 0.0025380289 -0.007167307
000070 04 28 7e 3b 81 37 a4 3b 60 82 35 3b 57 67 df 3a
       0.0038781175 0.0050114994 0.0027696118 0.0017044347
000080 f9 cd 4b bb c7 c9 93 bb 12 15 aa 39 80 c9 e2 39
       -0.003109811 -0.0045101377 0.00032440625 0.00043256208
000090 2c 18 1e bb 5c fc f5 3a 18 38 57 bb 61 6f 1f ba
       -0.0024123294 0.0018767226 -0.003283983 -0.00060819654
0000a0 84 de 38 38 b7 70 cc b8 fe 88 ca ba ac 88 ad bb
       4.4076252e-05 -9.748473e-05 -0.0015452204 -0.0052958336
0000b0 c7 ce ee bb 19 44 cb 3a 6a 77 bf ba 63 31 8d bb
       -0.0072878334 0.0015507966 -0.0014607732 -0.004308866
0000c0 9f b7 8e bb ae 96 01 bb a5 e7 cf 3b a4 a1 85 3c
       -0.0043553854 -0.001977365 0.006344753 0.016312428
0000d0 aa 95 eb bb c0 83 19 3a ae b8 f2 ba e6 c2 f8 bb
       -0.007189472 0.0005856119 -0.0018518174 -0.007591593
0000e0 7f aa 36 bb 7a ac 4e 3c 0f 27 c7 3b a0 20 0b 3b
       -0.002787262 0.012614364 0.006077654 0.0021229163
0000f0 03 55 7a 3b 80 92 ef 3b 69 3c 65 bb b4 e7 86 bb
       0.0038197644 0.0073111653 -0.0034978634 -0.0041169766
000100 30 6e d4 ba d0 e8 d9 ba 84 5b 4c 3b 97 20 47 bc
       -0.0016207155 -0.001662517 0.0031182477 -0.012153766
000110 d7 11 a8 3b 19 07 14 bb fd 15 ae b9 e1 1f 03 bb
       0.00512908 -0.0022587238 -0.0003320425 -0.0020008015
000120 3a 75 ba 3b 73 33 bf 3b b3 53 a8 3a 98 54 5c 39
       0.005690244 0.0058349906 0.0012842327 0.00021012349
000130 49 e4 b7 3b 82 8d 42 3b 13 46 9c 39 fd 39 72 3a
       0.0056119305 0.0029686396 0.00029806848 0.00092402083
000140 ef a5 3d bb 94 92 94 bb ac df 1c 3c 2c 62 8d bb
       -0.0028938015 -0.004534075 0.009574812 -0.0043146815
000150 ed 2d 4a ba 91 18 ff ba 39 82 71 3b 76 5f b3 3b
       -0.0007712532 -0.0019462277 0.00368513 0.0054740263
000160 5c cf 9f ba bd e8 0d ba b7 b8 fc 37 88 37 75 3c
       -0.0012192535 -0.0005413404 3.0126756e-05 0.014966853
000170 60 71 f9 bb a0 29 dd b6 ba f9 36 3c 36 d9 5a bb
       -0.0076123923 -6.591159e-06 0.011167938 -0.0033393628
000180 2b c9 19 3b 78 5b 01 3b f6 7d b9 3b bf 6b 62 3b
       0.0023465853 0.0019738358 0.0056607677 0.0034549085
000190 a7 62 a7 bb 05 0c f0 3a cd 36 bc b9 13 b7 ab 3b
       -0.005108196 0.0018314129 -0.00035898984 0.00524033
0001a0 9f 53 c1 38 cf 6c 15 bb eb bf 43 3c 83 6a 42 3b
       9.218533e-05 -0.002280045 0.011947612 0.0029665537
0001b0 d4 8e d3 bb ec 23 89 bb e1 a5 99 3a 39 54 45 3c
       -0.0064562354 -0.0041851904 0.0011722409 0.012044006
0001c0 2e 18 42 bb bb 11 1f bb 10 5f a1 bb 5d 88 29 bb
       -0.0029616463 -0.0024272043 -0.0049246624 -0.0025868632
0001d0 e3 09 5e 3b db 12 47 bb 5a 91 03 3b 4f ea bb bb
       0.0033880405 -0.003037623 0.002007565 -0.005734719
0001e0 e7 04 81 3a 9a c4 8c bb 1a 33 f2 3b cb d1 9c bb
       0.000984338 -0.0042958977 0.0073913457 -0.0047857515
0001f0 5f 35 19 bb 9c 04 fd ba 91 fb c3 3a 3f fa 83 bb
       -0.002337776 -0.0019303742 0.0014952292 -0.0040276344

network_body._body_endoder.seq_layers.2.weight f4 [128, 128]
000000 62 42 65 3c ea de 02 3e 08 69 7d 3d fd d6 e5 3b
       0.013992878 0.12780347 0.061867744 0.007014154
000010 ab 7d 15 3e 56 af cf 3c 82 1a 52 be c2 f5 eb 3d
       0.1459872 0.025352161 -0.20517924 0.11521484
000020 7e 4d 58 3d 6c e5 0c be 33 3c 93 3d 2c 72 c7 3d
       0.052808277 -0.13759392 0.071892165 0.097385734
000030 e4 33 4f b8 2f 69 1d be ec 16 de 3d 29 07 99 3d
       -4.9400973e-05 -0.15372156 0.10844216 0.07472069
000040 96 37 5c bd 29 fb 68 bc f9 1d b2 3d 60 c8 03 3d
       -0.05376395 -0.0142200375 0.08697123 0.032173514
000050 e5 d1 b4 3b 8b 4c a2 3d 3b 51 3e bd ca 6b 9d bd
       0.0055181854 0.07924756 -0.046464186 -0.07686575
000060 12 b7 28 bd c1 85 72 3a eb 1e 1d be df d6 7f bd
       -0.041190214 0.0009251498 -0.15343826 -0.062460776
000070 dc fc 43 bd 1e 49 7a bd c3 a0 80 bd 2f 9b f6 bd
       -0.047848567 -0.061104886 -0.06280663 -0.12041318
000080 ae c1 07 be 24 0e fa bb 41 f6 06 3e 61 5b 0a be
       -0.13257477 -0.00763108 0.13179876 -0.13511421
000090 65 2e 92 bd 87 63 bc bd 8b 1f 66 bc 68 6a 23 3d
       -0.07137755 -0.09198671 -0.014045606 0.0398964
0000a0 29 d1 8e bd 50 67 89 3d 03 95 eb bc cf 9a 15 bd
       -0.06973488 0.067091584 -0.028757578 -0.03652459
0000b0 21 3f 8a 3c 3c d0 9b bd 52 39 47 3d 73 6f 06 3e
       0.016875805 -0.07608077 0.04863865 0.13128452
0000c0 f1 7d 6a 3d b6 8a 04 be 5b a4 68 bd 64 18 d4 3d
       0.057249013 -0.12943539 -0.056797367 0.10356215
0000d0 50 6e ca bd 3e 6e a8 3d bd 10 5a 3b 21 96 98 bd
       -0.09884322 0.08224152 0.0033274137 -0.0745051
0000e0 a6 68 e1 3c 58 73 7c bd 04 78 ab bd 1d c3 55 3d
       0.02751572 -0.061633438 -0.083725005 0.052188028
0000f0 6f d9 0c 3d 05 78 e4 39 29 2c 17 be 0f 45 91 bd
       0.03438705 0.0004357697 -0.1476294 -0.0709325
000100 d1 1c 2b 3e 33 73 37 bd 9b de d2 bd db d5 24 be
       0.16710211 -0.044787597 -0.10296365 -0.16097204
000110 98 78 ee 3c db f6 43 bd 12 00 1a 3d 04 f0 4b bd
       0.029110238 -0.04784284 0.037597723 -0.049789444
000120 5e 95 ce ba 15 86 56 bd e0 b4 2a be bc b8 a9 bc
       -0.0015761068 -0.052373964 -0.16670561 -0.020717971
000130 fc 10 30 3e 85 64 f2 3d 6d cc ac bd 41 5c 31 3b
       0.17193979 0.11835579 -0.084374286 0.0027063044
000140 e1 a9 52 bd c2 d5 9d bd 53 a8 c2 bc 6c a4 14 bd
       -0.05143154 -0.07706787 -0.023761904 -0.036289617
000150 51 db 81 bd 7d 0c fc 3d 87 e6 59 3d c3 b7 d1 bd
       -0.063406594 0.123070695 0.053198364 -0.10240128
000160 12 00 84 3d c3 db ec 3d 75 1f 85 3c be 69 43 3e
       0.06445326 0.11565354 0.016250351 0.19083306
000170 16 f6 0d be 57 7c 81 bd 1c 0e 73 3c 19 be 47 3b
       -0.13863406 -0.06322544 0.014834907 0.0030478297
000180 76 f3 ae 3d 1f 0b b3 bd 24 91 71 3c d5 15 ee bd
       0.0854253 -0.087423556 0.014744077 -0.11625258
000190 fc 50 e1 3b 0a 10 07 3c fa 3f df 3d 91 82 00 bd
       0.006876109 0.00824357 0.109008744 -0.031374518
0001a0 f4 b9 31 bd a4 ae e1 bd 84 fb b2 3c e6 b2 dd bc
       -0.04339023 -0.11019638 0.021848448 -0.027062844
0001b0 68 4b 17 be b1 cb d7 bd ea 73 b3 3d 59 a2 13 be
       -0.14774859 -0.10536898 0.08762343 -0.144174
0001c0 17 54 a3 3d ef 12 a6 3a 21 ce fd bc f3 7a 0e 3e
       0.07975023 0.0012670438 -0.030982079 0.13914089
0001d0 b3 bf 19 be 51 d4 dc 3d 98 22 66 3c a2 0c 8a bd
       -0.15014534 0.10782684 0.014046334 -0.06740691
0001e0 1c 7b ca bd 53 67 c7 3d 00 f2 54 3c 89 15 55 3d
       -0.098867625 0.097365044 0.01299715 0.05202249
0001f0 05 90 fc bb 8a ba 4b be 6e 8b 03 3e 4d e3 51 3c
       -0.007707598 -0.19895378 0.12846157 0.01281054
000200 e2 d4 1a be 45 ed 7b be 43 81 4b 3e 57 57 fe bd
       -0.15120271 -0.2460223 0.19873528 -0.124190025
000210 12 e2 de bd ee b4 eb 3d 77 23 b2 bd ac 57 51 bc
       -0.10882963 0.11509119 -0.08698171 -0.01277725
000220 ad 81 db 3d 20 20 17 3e fa 68 3b bd c4 de 1f be
       0.10718093 0.14758348 -0.04575441 -0.15612322
000230 ff ee 89 3c 5c 8c c4 3d d8 85 6e bd 3c 1f 4d bd
       0.016837595 0.09597084 -0.058233112 -0.050078616
000240 fb 98 21 bd 60 d9 4b bd a5 68 2e bd 18 ee 37 be
       -0.039452534 -0.04976785 -0.042580266 -0.1796192
000250 d2 dd c9 3d 3d 25 50 bd a8 4d d2 3d d2 f5 97 3c
       0.09856762 -0.050816763 0.10268718 0.018549833
000260 94 58 13 3e 71 ae 8c 3c c2 5a ef 3b b7 87 ff 3c
       0.14389259 0.017173024 0.0073045203 0.031192644
000270 2b 39 3a be ff 81 1f 3e 04 cb 23 3e 4c f3 0a bd
       -0.1818587 0.15576933 0.15995413 -0.033923432
000280 7a d2 90 3d f1 40 d4 3b 9c ed b3 bc 47 08 84 3d
       0.07071395 0.006477468 -0.021963887 0.06446891
000290 35 67 66 3d 80 54 20 bd cf 15 e0 bc a4 64 09 3d
       0.05625077 -0.039143085 -0.02735415 0.033543244
0002a0 af 2a 50 3b b9 75 d2 3b f5 16 19 3e 32 70 30 be
       0.0031763723 0.006422725 0.14950164 -0.17230299
0002b0 aa 73 77 bc c3 c5 a1 bd 3f 7b 64 3d e7 b2 f8 3c
       -0.01510326 -0.07899048 0.0557816 0.030358745
0002c0 c8 c5 aa 3d 17 09 0b 3d 47 17 3d be cb 8f 06 3e
       0.08338505 0.033944216 -0.18465911 0.1314079
0002d0 c3 7d 1d 3d 8d 3f af 3d 5c 96 99 bd 54 73 1b 3e
       0.038450014 0.08557043 -0.07499382 0.15180713
0002e0 b7 30 f3 bd 76 35 c2 bd f7 0d 48 3e b0 2d 7b 3c
       -0.11874526 -0.09482853 0.19536577 0.015330717
0002f0 29 65 59 be 90 0c 71 bc eb 94 78 bd db 67 5e bd
       -0.21229996 -0.014712468 -0.060688894 -0.054298263
000300 ea 0a 11 bc 70 db 8f 3d db 06 2c be d4 33 b0 bd
       -0.0088527 0.07024276 -0.1679949 -0.086036354
000310 ae be cd 3c ec 94 e1 ba 4e 47 dd 3d 5f 46 e6 bd
       0.025115337 -0.001721052 0.10804616 -0.11243891
000320 e5 f1 f3 3c 95 b0 23 bd 2d 61 bc 3c ae ae 38 3d
       0.02977843 -0.039963324 0.022995556 0.045088463
000330 69 3e d8 3d 38 52 95 3d 4c fd b2 3d b8 13 0e be
       0.10558779 0.072910726 0.08739719 -0.1387471
000340 4e 6e da bd df ef 32 bd 01 03 c2 bc 1d 31 03 3e
       -0.1066557 -0.04368579 -0.023683073 0.12811704
000350 f5 09 c0 bd 01 ae 01 be 41 ee 5a bd 8c 31 d9 bc
       -0.09376899 -0.12664033 -0.053449873 -0.026512884
000360 e3 dd 35 bc e3 89 73 3d 1d fc e8 3d ec 2e 28 3d
       -0.011100265 0.05945767 0.11376212 0.041060373
000370 92 78 27 3d 2c a9 99 bd 77 34 a4 bd d1 aa 04 bd
       0.04088647 -0.0750297 -0.080178194 -0.032389466
000380 04 bb e3 3c 55 d3 ca 3c db 97 52 3e 3e 10 87 bd
       0.027799137 0.024758974 0.20565741 -0.06594895
000390 ca 87 5f be 14 31 0f be 04 f9 07 bd 8d 9a 68 3d
       -0.21829143 -0.13983566 -0.033196464 0.056788016
0003a0 3d 38 d8 bd ee 9a 42 bd 5c 20 10 3d 40 cc 39 bd
       -0.105576016 -0.047511034 0.03518711 -0.045360804
0003b0 06 e7 9e bd 9e 5e 76 bd 1c 99 1b 3b dc aa 28 bd
       -0.07758908 -0.060148828 0.0023742383 -0.04117857
0003c0 75 f2 24 bd 53 ee 5e 3d 56 e1 9c 3c f9 7e 14 3e
       -0.040270288 0.054426502 0.019150417 0.14501561
0003d0 db 40 48 3e 7f ef 03 bd 65 02 75 3c 7a d0 b4 bd
       0.1955599 -0.032210823 0.014954184 -0.08828826
0003e0 87 6f 1a be fd d8 8a bd 50 3e 58 3d 70 65 0e bd
       -0.15081607 -0.067796685 0.0527938 -0.034764707
0003f0 86 e1 8b bc 9d 9e 6f 3d 52 1d 3b 3e 87 4a f3 3d
       -0.017075311 0.058500875 0.18272904 0.11879449

network_body._body_endoder.seq_layers.2.bias f4 [128]
000000 fb 22 53 3b 85 ac e2 3b f4 6f ee bb 4f 92 91 bb
       0.0032216895 0.0069175386 -0.0072765294 -0.00444249
000010 be 6b 85 bb 01 9a 6b b9 14 4e 59 39 36 c6 da 39
       -0.0040716818 -0.00022468717 0.00020723819 0.0004172788
000020 1b 2f a7 ba e6 a9 68 bb e4 d0 b9 3a 39 35 df bb
       -0.0012755127 -0.0035501658 0.0014176634 -0.0068117646
000030 ea 4c 7a 39 a6 0b ba 3b 96 46 83 3b 90 a6 d4 3b
       0.0002387051 0.005677658 0.0040062172 0.0064895824
000040 74 c8 1b 39 71 72 9c ba 6d 8c 8b bb 9d 67 ec 3a
       0.00014856627 -0.0011935962 -0.0042586834 0.001803625
000050 5c d7 67 3b 40 51 01 3a 47 55 9c 3b 69 3d fa 3a
       0.0035376167 0.00049330667 0.004770908 0.0019091788
000060 f7 a2 83 bb ab ad 7a ba 33 6f 2c bb 88 25 44 bb
       -0.0040172297 -0.00095626217 -0.0026311397 -0.0029929597
000070 d2 56 b8 ba fd 79 84 bb 99 be c7 3a d8 84 97 3b
       -0.001406396 -0.0040428624 0.0015239298 0.0046239905
000080 b5 26 49 3b 2a e8 26 bb ba aa cc bb ac bc 46 3b
       0.0030693237 -0.002546797 -0.006245938 0.003032486
000090 c4 5a bd 3a eb 2d 60 bb e9 a0 e4 3b 7b 3b 0b 3b
       0.0014446606 -0.0034207057 0.00697719 0.002124517
0000a0 10 af f6 38 3f ad a2 3b 0d ea 34 3b 6e d8 11 bb
       0.00011762802 0.0049645 0.0027605325 -0.0022254246
0000b0 49 02 0b 3c 5a fd 20 3c 83 78 fa 3a e5 db 19 3b
       0.008484432 0.009826029 0.0019109402 0.0023477015
0000c0 16 4c 86 3b d4 a9 99 3b 66 d8 2d bb 9c 9d ca 3a
       0.0040984256 0.0046894345 -0.0026526689 0.0015458348
0000d0 f4 38 82 bb e2 3b 5d ba 9d 94 76 3b 4f 3c 2c b9
       -0.0039740745 -0.0008439404 0.0037625202 -0.00016425665
0000e0 4d 98 0d bb c2 6b d0 3b 4f e7 a0 3b 17 f1 16 bb
       -0.002160567 0.006360502 0.0049103866 -0.0023031884
0000f0 aa 0b e6 3a ef 36 c1 3b 14 53 93 b8 e1 70 2d ba
       0.0017551084 0.005896441 -7.024981e-05 -0.00066162465
000100 5e 4e 28 3c b9 8f 38 b9 b9 55 2d ba ac 1b 18 bb
       0.01027259 -0.00017601148 -0.00066122 -0.0023209853
000110 34 b3 70 3b bc 0a 47 3a 22 85 23 3c 76 15 1a ba
       0.0036727907 0.0007592847 0.009980472 -0.0005877832
000120 ee d6 01 3b 3e 1e 52 3b 46 73 23 bb 07 b4 eb ba
       0.0019811946 0.0032061483 -0.0024940534 -0.001798273
000130 31 61 57 b9 a1 ee f0 3a ae 1c 26 3b 20 7f 9d 37
       -0.00020540204 0.0018381664 0.0025346684 1.8775056e-05
000140 12 07 68 bb c6 dd 19 3b 72 2a 4b bb 16 6a 01 3c
       -0.0035404605 0.0023478135 -0.0031000641 0.007898828
000150 38 bc 85 ba e2 10 e2 ba 9e aa b2 39 7f 33 8d bb
       -0.0010203188 -0.0017247463 0.00034077925 -0.0043091173
000160 e3 d9 8f bb 73 d0 31 bb 59 b2 58 3b b1 0f 07 3b
       -0.004389988 -0.0027132302 0.0033065288 0.0020608718
000170 c3 17 0d bb b6 c1 95 3b 4b 4e 94 3a 09 15 58 3b
       -0.0021529056 0.0045702113 0.0011314837 0.0032971522
000180 0f ff 82 bb b7 bd 96 3b ae e5 ef 3b 2b 6b f0 3a
       -0.0039976905 0.0046002525 0.007321081 0.0018342485
000190 48 57 95 bb 6d 10 c3 39 a4 ab f7 3b e4 89 1b 3b
       -0.004557524 0.00037205537 0.007558303 0.0023733312
0001a0 24 77 64 38 5b a3 45 3b 85 69 1f 3b 6b a8 89 3b
       5.4470394e-05 0.0030157182 0.002432437 0.004200985
0001b0 40 0f f1 3a 4c 2d 72 bb 28 32 c5 3a 4d 33 a6 ba
       0.0018391386 -0.0036953269 0.0015044855 -0.0012680084
0001c0 2b 95 c7 ba cd 88 70 bb b5 e3 65 3a 9d 92 eb 39
       -0.0015226951 -0.0036702633 0.0008769588 0.00044931928
0001d0 b6 de 22 bb 07 0d 93 bb cd f7 3d bb 00 cd 05 b7
       -0.0024851984 -0.004487637 -0.0028986812 -7.975148e-06
0001e0 76 f7 04 3c 81 1f 12 3b 32 42 0a bb e7 03 a2 3b
       0.00811564 0.002229661 -0.0021096584 0.004944313
0001f0 2b 5b e7 3b 8c bb 6b bb ee 83 eb 3b 13 9c b4 ba
       0.0070604286 -0.003596994 0.007187358 -0.0013779424

action_model._discrete_distribution.branches.0.weight f4 [4, 128]
000000 0a 12 46 bc 65 1c 94 3b e1 ea 1b 3b 06 cd 9d bb
       -0.012089262 0.0045199865 0.0023791122 -0.0048157005
000010 5f e8 6c bc 48 1a 05 bc 51 ba 59 bb 68 13 77 3c
       -0.014459698 -0.008123942 -0.0033222625 0.01508031
000020 73 ae 5f bc d4 c5 bc 3b 12 58 d7 38 96 60 9b 3a
       -0.013652432 0.0057608876 0.00010268403 0.0011854346
000030 42 35 81 3b 14 50 2e bc b1 82 f0 bb 17 f0 56 bb
       0.0039431164 -0.010639209 -0.0073397984 -0.0032796913
000040 1d e4 36 3c 8b b7 45 bc 2e 0d bc bb b5 a0 6f bc
       0.011162785 -0.012067686 -0.005738876 -0.014625718
000050 b6 53 f4 39 b4 82 73 3c 24 1b 9f bb a6 3a 91 bb
       0.00046601676 0.014862705 -0.0048555303 -0.0044320403
000060 04 e0 b9 3b 0c 47 e6 3b 69 20 36 bb 94 c5 0e 3d
       0.0056724567 0.0070275124 -0.0027790314 0.034856394
000070 e6 14 2a bc 36 7b a4 3b e6 cf 2a 3c 3c 3c 9e bb
       -0.010380959 0.0050195707 0.010425543 -0.004828958
000080 db 08 92 bb 1f 76 8c ba 7d 08 5a bb 43 2f 3e bc
       -0.004456622 -0.0010716355 -0.003326922 -0.011607948
000090 1a f3 55 bc 58 dd 6e bb 1d cf b9 bb a5 6d 76 3b
       -0.013058448 -0.003644785 -0.005670442 0.0037601974
0000a0 f5 bf 38 bc 5a 32 1d bc dc 72 8c 3b dc 5f 04 bc
       -0.011276235 -0.009594524 0.0042861532 -0.008079495
0000b0 eb 5f 46 bc f7 47 11 3a c3 b0 74 3b e0 8b 27 3b
       -0.01210783 0.00055420346 0.0037336804 0.002556555
0000c0 aa 3a 8a bb 2c 45 b0 bc aa 0d 76 ba 32 52 9f bc
       -0.004218419 -0.021517359 -0.00093861914 -0.019448373
0000d0 d0 41 79 3b 6a f0 05 bc eb 38 68 bc 95 8b 94 bb
       0.0038033612 -0.008174995 -0.014173727 -0.004533241
0000e0 b1 c2 20 bc 63 be b8 3a 00 d4 27 bc aa 3b 76 3c
       -0.009812043 0.0014094826 -0.010243416 0.015028873
0000f0 73 77 0d 3c eb 58 c0 bb bb 4f 95 3b 2f 29 a3 bb
       0.008634436 -0.005869975 0.0045566238 -0.0049792747
000100 85 57 cf 3b 3b d9 c8 3b 30 e7 a0 3a 3a 94 79 3c
       0.006327572 0.0061294115 0.001227593 0.015233094
000110 e9 a9 e6 bb a6 47 8c 3a a5 a0 93 ba a6 64 9e 3b
       -0.007039298 0.0010702505 -0.0011263086 0.0048337756
000120 1f 63 12 3c 49 4a 60 3b 50 8f 36 bc 59 69 82 3b
       0.008934765 0.0034223965 -0.011142567 0.0039798436
000130 c3 d5 13 3a 20 49 35 bb 19 f6 3b bc 7e 53 25 3c
       0.0005639458 -0.0027661994 -0.0114722485 0.010090707
000140 c2 9f db 3b 4b b3 f0 bb a8 f7 aa b8 06 bf 5e 3c
       0.006702394 -0.007345592 -8.152361e-05 0.013595348
000150 95 ad 50 3c 2d c9 c8 3b e2 73 1e 3c 8b 58 03 bb
       0.012736698 0.0061274976 0.009671183 -0.002004179
000160 3f c5 12 bb 34 64 05 3c 68 8e ea ba 1b 77 c3 ba
       -0.00223954 0.008141566 -0.0017895224 -0.0014912816
000170 1d 40 ff 3b 82 96 57 bb 8c e3 9e 3b a3 c5 c6 3b
       0.0077896253 -0.0032896106 0.004848903 0.0060660406
000180 a6 e9 60 3b db 72 08 3c b0 73 61 bc 0a 01 4f 3c
       0.0034318953 0.008328165 -0.013760492 0.012634525
000190 58 18 23 3c 87 7b 77 bc 14 21 92 bb 87 11 5f bc
       0.0099545345 -0.015105135 -0.0044595096 -0.013615019
0001a0 fb 78 8f bc 0d b1 ce 3b a2 ec 4a 3b 10 01 3c 3c
       -0.017513743 0.006307727 0.0030963798 0.011474863
0001b0 a3 f2 84 3b 3f 2b 5a 3c 95 db 5f 3c 86 51 6f bb
       0.004057245 0.013315975 0.013663192 -0.0036517098
0001c0 98 56 23 3c 33 e9 c8 b9 7f 7b 2f 3b e3 a8 ef ba
       0.009969376 -0.0003832072 0.002677649 -0.0018284585
0001d0 f0 60 1b bb 77 3a 9b bb d5 3a 8c bb cf a5 ce 3a
       -0.0023708902 -0.004737194 -0.0042794743 0.0015765968
0001e0 58 fc 67 bc 9f 5b 2f 3c e2 d1 33 3c a6 f4 3a 3b
       -0.0141592845 0.0107029965 0.010975333 0.002852717
0001f0 25 94 38 bc f3 9e 12 3c 06 94 0d bc 70 99 c9 bb
       -0.011265789 0.008949029 -0.008641249 -0.0061523244
000200 e1 bd d0 3b 54 a6 0b bb 97 c8 88 3a 83 63 4f bc
       0.0063702916 -0.0021308856 0.0010435757 -0.012658003
000210 8e 52 4d bc d8 b7 29 bb 2a d6 27 bc 6f fc 0c bb
       -0.01253189 -0.0025896933 -0.010243932 -0.0021512767
000220 60 e7 1f bc ad 6a 6b bc c7 bb a0 bc 81 23 0a 3b
       -0.009759754 -0.014368695 -0.01962079 0.002107829
000230 47 ef 7f 3b ed a4 46 3b fa 61 91 3c 4a f9 fb ba
       0.0039052533 0.0030310706 0.017746914 -0.0019224074
000240 f2 16 68 3b 54 fd 22 3c b2 6f 46 bc 8d a9 69 3c
       0.0035414067 0.009948093 -0.012111591 0.014261615
000250 40 37 5c 39 6b c6 fe bb 2b f9 ab 3b 77 7f 2d 3c
       0.00021001417 -0.007775118 0.005248209 0.010589472
000260 c7 bc b6 bc fd 87 af 3a 08 7a 1c bb 4b a6 22 3c
       -0.022306813 0.0013391968 -0.0023876447 0.009927343
000270 a5 3a c8 bc 0c 0c f8 bb d6 f8 9b 3c 91 3e ca bb
       -0.024442026 -0.0075697955 0.019039553 -0.0061720093
000280 a5 42 13 bc 20 53 90 3a d1 15 86 3b e2 1c d2 3b
       -0.008988057 0.0011011101 0.004091956 0.0064121345
000290 ce c0 60 3c 6e 73 98 bb af fe 5b b9 fd 17 b3 ba
       0.013717843 -0.004652432 -0.00020980345 -0.0013663765
0002a0 3c 10 a7 bb f2 21 e6 3b 58 7d cd bb d1 66 96 bb
       -0.005098371 0.0070230896 -0.0062710457 -0.0045898934
0002b0 54 15 2b ba c6 4f 7c 3c 2d 4d 03 bb d3 2b 31 3a
       -0.00065263105 0.015399879 -0.0020035014 0.00067585445
0002c0 4d ac 0c bb d2 22 94 3c 51 97 11 3c 86 13 a3 39
       -0.0021465004 0.01808301 0.008886174 0.0003110433
0002d0 8b bd 32 bc e7 7e 6c bc 87 fc 15 3c a3 9d 80 3c
       -0.010909448 -0.014434553 0.0091544455 0.015700167
0002e0 6a 75 00 3c 65 c6 74 ba 43 ce 7f 3c 01 f7 5d 3b
       0.007840494 -0.00093374244 0.0156131415 0.003386915
0002f0 f6 c4 0a b9 c8 01 5f 3c ca 6c a8 38 b8 02 e3 bb
       -0.00013234079 0.0136112645 8.031128e-05 -0.0069278143
000300 c3 14 b4 3b c5 c2 e8 bb 11 33 41 bc 0d 95 b3 3b
       0.005495639 -0.0071032965 -0.01179196 0.0054804147
000310 46 06 a7 3b c3 f4 13 b9 0a 62 97 3c e8 90 ab 3b
       0.0050971834 -0.00014110193 0.018479366 0.00523578
000320 2a 14 86 3a f7 3f a1 3b f3 d4 5d 3b 9f 85 88 bb
       0.0010229398 0.0049209553 0.0033848851 -0.0041663195
000330 f8 74 a4 ba cd 2a 67 3c 43 73 5e ba 4f a4 b9 bb
       -0.0012547066 0.014109326 -0.0008485803 -0.005665339
000340 86 1d 18 3c 41 f2 bb bb aa 62 53 bc f1 e9 be 3a
       0.009284383 -0.005735666 -0.012901941 0.001456557
000350 5f ca 0c 3a 28 2b 9c bb e7 ee a1 bb 9a 11 0a bb
       0.0005370732 -0.004765887 -0.0049418095 -0.002106762
000360 b2 6a 4d bb ea ec 80 3c 91 e7 ad bb a0 c4 10 bc
       -0.0031344113 0.01573797 -0.005307146 -0.008835942
000370 ce 4d 52 bc b9 9e 3a 3c 3a 9c 2f 3c 8c 2d 65 bb
       -0.012835933 0.0113903815 0.0107184 -0.0034969775
000380 de f8 ab bb c7 cf b6 3c cc 05 f2 bb 1e 1c 41 ba
       -0.005248173 0.022315873 -0.007385945 -0.00073665555
000390 40 c9 da bb 0f 35 3d 3b 8b f2 a2 3c ed 56 29 bc
       -0.006676823 0.0028870737 0.019891044 -0.010335666
0003a0 56 89 bd bb 4b 48 50 bc a0 9e 80 3c 57 06 75 bc
       -0.005784194 -0.0127125485 0.015700638 -0.014955125
0003b0 05 4a b4 bb 13 45 8b bc d2 32 02 bc 49 09 94 bc
       -0.005501988 -0.01700071 -0.007946687 -0.018070834
0003c0 6c 44 19 bc 3c 0a d6 ba 3d a2 b8 bb 96 b8 17 3a
       -0.009354692 -0.0016329954 -0.0056345747 0.00057876983
0003d0 7b 0f 23 3c 56 15 17 bc 02 02 9d bb 42 20 d1 bb
       0.009952421 -0.0092213955 -0.004791499 -0.0063820193
0003e0 b6 d7 f6 bb 25 b7 6a bb a7 90 23 3c 69 88 8d 3b
       -0.007533039 -0.003581473 0.009983218 0.00431924
0003f0 81 38 50 3c 09 6a 9a bc c6 2c f2 bb ee 7a 6b bb
       0.012708784 -0.01884939 -0.0073905913 -0.0035931426

action_model._discrete_distribution.branches.0.bias f4 [4]
000000 a2 e5 eb ba 54 01 57 3a 7e 59 97 3b 80 1e 8e bb
       -0.0017997513 0.0008201797 0.0046188226 -0.004337132

action_model._discrete_distribution.branches.1.weight f4 [3, 128]
000000 8b 42 be 3c 5b 19 d7 3c 96 64 f0 3b ae 01 9d ba
       0.02322509 0.026257208 0.0073362095 -0.001197865
000010 54 67 fe bb 91 20 bf bb 71 8a ff b8 f1 d8 33 3c
       -0.0077637825 -0.0058327396 -0.00012185134 0.010977016
000020 33 0c 15 3a 6c 05 97 bc 6b 67 55 bc d6 dd b3 3b
       0.0005685717 -0.018435203 -0.013025145 0.0054890914
000030 41 86 0e 3c 17 9d bc 3c 5e de 06 3c de 6c 03 3c
       0.008699001 0.023024125 0.008231727 0.008021561
000040 87 ee db bc d1 30 16 3c 49 c3 de ba 60 f8 52 bc
       -0.026847137 0.009166912 -0.0016995455 -0.0128766
000050 a6 e0 9c 3b 36 8d 74 3b b4 d4 d4 bb d0 99 fa bb
       0.0047875224 0.0037315614 -0.0064950828 -0.0076477304
000060 45 24 37 bc 84 b1 ab 3c d8 7b a9 3b d3 bf 1b bc
       -0.011178081 0.02095867 0.005172234 -0.009506184
000070 dc a1 08 3b c4 70 49 bc fd af 5a bc c0 37 5a 3b
       0.0020848429 -0.012294952 -0.013347623 0.003329739
000080 69 ce 37 ba 9b 6d 5f bb 79 5d e7 bb c3 ac 85 bb
       -0.00070116535 -0.003409243 -0.0070607034 -0.0040794327
000090 9b b9 0a bc 81 d9 ee bb 86 e0 0f b9 9e 27 85 3b
       -0.008467103 -0.007289112 -0.00013721184 0.0040635606
0000a0 88 18 1e bb 9c e6 b5 3b 5b a3 ab 39 df 08 7e bc
       -0.0024123508 0.0055511724 0.0003273737 -0.015505045
0000b0 f6 19 b1 3c 35 fc a0 3c 5b f3 99 3c 0d 85 06 3b
       0.021618824 0.019651512 0.018792799 0.0020526082
0000c0 b0 aa ed ba bc a7 79 bb da 56 16 bc 52 57 82 bb
       -0.0018132534 -0.0038094362 -0.00917598 -0.0039776945
0000d0 91 83 c9 bc 1b 34 3b bc 2d 43 80 3c cd 62 f7 3b
       -0.024598869 -0.011425997 0.015657032 0.00754962
0000e0 3d 09 9f 3b 5d 58 c9 3a 3b 56 33 3c 89 3b 11 ba
       0.004853396 0.0015361417 0.010945852 -0.00055401825
0000f0 95 a1 e8 bb 11 e4 69 3c 73 fe 5b 3c 3d cd 73 bc
       -0.00709934 0.014275567 0.013427365 -0.014880476
000100 e2 3a 15 3b 4c fd f3 bb 07 bc a8 bc 9f 17 78 bc
       0.0022770693 -0.007445967 -0.02059747 -0.01514235
000110 2e a6 99 3c 8a 54 8b bc aa ed 0d bb 86 2d b9 3b
       0.018755998 -0.017008085 -0.0021656551 0.005651179
000120 17 f3 d0 b9 35 fa ba 3c 71 d0 1c b8 dc ce 84 3b
       -0.00039853968 0.022824386 -3.7387425e-05 0.00405298
000130 5a fb 9f bb 13 a5 0e 3c 68 5f 35 3c 09 a7 bd bb
       -0.0048822584 0.008706349 0.01107011 -0.0057877344
000140 0f 40 83 bc 17 3e 4a b8 7d 20 86 bc 43 d2 98 b9
       -0.016021756 -4.821838e-05 -0.016372913 -0.00029148356
000150 da b4 4d bb 58 e9 60 3b dd b9 b6 3b ed ab f5 bb
       -0.0031388314 0.0034318771 0.005576356 -0.007497302
000160 10 5a a8 ba 22 ad 90 39 95 98 62 bb 9e 79 ab bb
       -0.0012844224 0.00027594814 -0.003457581 -0.0052330038
000170 4f ec 1b 3c fb 7a 16 bc ec 39 08 3b 14 91 07 ba
       0.00951679 -0.009184594 0.0020786477 -0.00051714596
000180 fb 37 6d 3b 96 e5 25 3c 3c 83 0b 3c 70 4d 4b 3b
       0.0036196697 0.010125538 0.008515175 0.0031021498
000190 84 d9 1e 3b 31 dc 53 bc 82 67 b4 ba 7d 97 65 bb
       0.0024238536 -0.012930916 -0.0013763758 -0.003503292
0001a0 70 71 79 ba a3 e0 0b 3c 81 9f 94 bb 1c bc 82 bb
       -0.00095154997 0.008537444 -0.004535616 -0.0039897095
0001b0 3f ed 27 bc 9b a6 0c bc 44 f8 a6 3a 29 0b c2 bc
       -0.010249435 -0.008584644 0.0012738784 -0.023686962
0001c0 3b 17 78 bc b5 e0 6b 3c f8 f5 aa 3a 2d ef cd ba
       -0.015142257 0.014396836 0.0013043275 -0.0015711539
0001d0 f8 d4 e5 ba 4c 27 20 bc 6c 28 11 3b cc 11 20 bc
       -0.0017534783 -0.009774994 0.0022149337 -0.009769868
0001e0 6c f9 ee 3b 5c 33 8f 3b 69 d6 12 b9 43 24 01 3c
       0.007292917 0.004370136 -0.00014003519 0.007882181
0001f0 ae 2e 0a 3b 41 9e b6 3b 50 7e 17 3c 6d a7 f4 3b
       0.0021084952 0.0055730646 0.009246424 0.007466248
000200 38 24 14 bc 3e ef 58 3b 03 f5 4e 3b 89 61 f8 3a
       -0.009041838 0.0033101584 0.0031579144 0.0018949966
000210 47 e4 ad bb 6a fa 54 3c b0 31 2a bb be 58 a0 3c
       -0.005306754 0.0129991565 -0.0025969557 0.019573566
000220 fa e3 c6 3a 7c f3 c1 bb 22 bc 7c 3c 49 26 97 3c
       0.0015174143 -0.005918918 0.015425714 0.018450873
000230 d2 15 0c 3b 0c 1e c9 ba 6e 56 40 3c fe e0 23 bc
       0.002137531 -0.0015344038 0.011739356 -0.010002373
000240 80 e1 8b 3c 5d e1 72 3b a0 a8 5e 3a c7 bd a5 3b
       0.0170753 0.0037060597 0.0008493755 0.0050580236
000250 91 e8 40 3a a2 1b a8 3c 12 78 a3 3c ab c6 bf 3b
       0.0007358874 0.020520989 0.019954715 0.0058525405
000260 d4 25 61 3a 9c ff 88 3b d2 1c 80 3c fb 11 15 b9
       0.00085887057 0.0041808616 0.015638743 -0.00014216446
000270 04 49 1c 3c ec bc 19 bb 88 7d 71 bc a4 f1 71 ba
       0.009538893 -0.0023458553 -0.014739402 -0.00092294277
000280 df 71 15 bc 57 de 66 3c a2 33 91 3b 37 c3 e1 3a
       -0.009121387 0.014091096 0.004431204 0.0017224316
000290 0f 62 33 bc cd df 9a 3b df d4 2d bc d2 ad 14 bc
       -0.010948672 0.004726386 -0.010609834 -0.009074645
0002a0 2a 95 be 3c 13 2f 64 3a 8c d2 93 3b 4b 6d 81 3b
       0.023264486 0.00087045244 0.004511183 0.0039497963
0002b0 79 bd 18 bc 8f 1e 3b 3c f9 de 28 3c 81 6b f1 ba
       -0.009322518 0.01142086 0.010307067 -0.001841888
0002c0 b5 c4 56 3c c2 14 a6 bc b5 47 c7 bb 1b 15 1b 3c
       0.013108422 -0.02027357 -0.006081546 0.009465481
0002d0 f6 c9 65 bc ad e7 a7 3b 13 15 d8 ba 01 ba af bb
       -0.014025202 0.0051240535 -0.0016485773 -0.0053627496
0002e0 3c 48 96 bb c5 89 20 bc 29 c6 25 bc a7 b7 17 bc
       -0.0045862477 -0.009798472 -0.010118046 -0.009260095
0002f0 f4 f7 cd bb 75 22 92 bc 6a 85 51 bc 55 79 45 bc
       -0.006285662 -0.017838696 -0.012788156 -0.012052854
000300 e7 a1 a1 b9 5e 21 b2 3b 33 42 3b bc d4 77 b0 3b
       -0.0003082894 0.0054361066 -0.011429357 0.0053853784
000310 65 97 b6 3b c0 9f 27 bb 36 ab 86 bb ee 09 03 3c
       0.005572247 -0.0025577396 -0.0041097654 0.007997973
000320 e6 1a 57 3b ea 86 13 bc 25 f5 f7 3b 5e 5d 9a 3b
       0.003282243 -0.009004334 0.0075670653 0.0047108373
000330 06 1f c4 bb 6f eb 86 bc b5 81 fe bb a2 74 a4 3c
       -0.0059851436 -0.016469685 -0.007766927 0.020075146
000340 de 53 0c 3c e1 a8 37 3b b7 18 07 3c b2 25 44 bb
       0.008564917 0.0028024244 0.008245639 -0.0029929695
000350 9c aa 29 3c cf 1d b7 bb 38 53 12 3b e0 14 0f 3c
       0.010355618 -0.0055882703 0.0022327434 0.008733004
000360 03 48 2d 3a 8a e0 3d 3c bb 63 f2 3a 67 47 8d 3c
       0.0006610157 0.011589179 0.0018492857 0.017245961
000370 dd 96 f8 3b af e7 1e 3b 13 eb 6a bb 9c 0c 06 bb
       0.0075863437 0.002424698 -0.0035845682 -0.0020454293
000380 96 9d 08 bc 69 ae e3 3b c6 78 8f bc 0e ce 88 bb
       -0.008338353 0.0069482815 -0.017513644 -0.0041749543
000390 18 51 30 bb 82 c6 b6 3b 7f 7d 75 bb 1f 95 a8 3b
       -0.0026903804 0.005577863 -0.0037458835 0.0051447297
0003a0 43 61 36 3b 34 b1 96 3b 2d 9d be bb ae 2b a9 39
       0.0027828969 0.004598761 -0.0058170767 0.00032266736
0003b0 31 d7 42 bc 50 90 be 3b 93 9c 8d bb 59 35 75 3c
       -0.011892126 0.0058155432 -0.0043216436 0.014966332
0003c0 0d 8c d0 ba 4b e5 ac bb ba f3 9f 3b e5 77 02 bc
       -0.0015910879 -0.0052763573 0.0048813494 -0.007963155
0003d0 12 2f de bb 0a 4a db ba 2a 3f 5e 3b 93 87 05 3c
       -0.0067805136 -0.0016730439 0.003391216 0.008149999
0003e0 2e c4 d8 3b f4 c2 36 bb fd 41 11 3b 0e f4 bf bb
       0.0066151833 -0.0027887197 0.0022164576 -0.005857951
0003f0 68 f9 cf 3b 48 48 96 ba 7c 67 ff ba 07 3c 35 3c
       0.00634687 -0.0011465633 -0.0019485797 0.011061675

action_model._discrete_distribution.branches.1.bias f4 [3]
000000 87 8b c0 3a a7 4e 55 3a 17 25 a1 ba
       0.001469002 0.0008137025 -0.0012294379
