Assets/CompanionBehavior.onnx (onnx, 91694 bytes, 9 tensors)

discrete_act_size_vector f4 [1, 2]
00000000: 0000 8040 0000 4040
4.0 3.0

network_body._body_endoder.seq_layers.0.weight f4 [128, 28]
00000000: 7a69 5b3f 1d00 92be 43d6 69bd 7398 97be
00000010: d0be 2dbe e0a5 5f3e af49 83be 6f5e ff3c
00000020: 896b b1be 8bc7 f1bd a354 7a3d 8e39 be3e
00000030: 202f b53e b52b 5fbe ffdb 7fbe 8913 f43d
00000040: 360a 853e 824f 39be 6fdb 6f3e 83a4 1f3e
00000050: c777 51be f9c0 2c3e 0f07 e93c e972 8fbe
00000060: 25f2 7c3d 376e 3a3e 3307 03bc 49ee 0e3e
00000070: a0bd e8bd b787 c6bc 32ae 91bd aa43 083e
00000080: 8b84 853d a0ff a73d 386f 18be f5e1 363e
00000090: eef0 fdbb 190f 9cbe 348c d6bc 9f39 5b3e
000000a0: 3fc5 5dbe a674 363e 8df8 92be 550e 8d3e
000000b0: 20c4 cbbd ae1a fb3e 8399 34be 0c33 eb3e
000000c0: 95f9 2fbe 6854 b8bb 7214 623e c84d 56bc
000000d0: bcd0 cc3d dc0b ae3e af72 fbbd 3886 ccbe
000000e0: e2c8 383e 3183 503e 787b 4b3c 7760 393e
000000f0: eef8 ed3b df3f febe 2612 4abb 40f7 06be
00000100: 856c 3fbe 356f f9be 6133 a1bd 9b76 aa3e
00000110: af5c 8fbd 5205 923e 0afe 68bd 4567 9a3e
00000120: 0fde 6d3e cd19 41be 043a 4a3e 26d8 23be
00000130: e3e7 453e b1bf b93e 3bb7 47bd 7d0e 34be
00000140: a091 9ebd 7232 d83e 2167 73be 46fd cc3d
00000150: 2346 853e fa31 03be 3a32 433c 0b25 0f3d
00000160: 4598 9b3c d317 f83d eec1 85be 4ec1 e03d
00000170: 3acb 783d ed35 ac3e e984 f2bd 6fd6 cabe
00000180: 3740 c93e c206 1b3e c4bd 6f3e efe4 283e
00000190: 479c 663e 1bce 72bd 6ca4 df3e d2e3 33be
000001a0: b70f 29bd dd07 6a3e 86d8 8ebe e305 74be
000001b0: 46d0 453e b2f1 96bd 1bba 2e3e d2b1 b63e
000001c0: a85e f43c b450 823e 0ccf 003d f3a3 91bc
000001d0: 5b4f 683e 82bd c9be 6935 003e aa66 80bd
000001e0: 299e 73bc c66e 66bd e2bb 883d 9dfd b0bd
000001f0: 950c 57bf acc6 fc3d ee37 173d 6db5 893e
00000200: b5fe 53bd e258 0d3e 6284 1a3e 3ee1 b73e
00000210: 6f6e 54be 0e0f 373e 9cba fe3c eb46 313e
00000220: 13a8 1c3b d84a c03e fec2 32be ba71 a9bd
00000230: a517 783d f7e6 bf3d 5498 eebe 939e a0bc
00000240: c269 343e b514 bebe 3bbf 85be 31e6 ecbe
00000250: 3ea8 7b3d 5d5a 423e 922f 47be aed8 a1be
00000260: 7813 a43d e62e f73d bf9d 43be 25d6 25bc
00000270: 277a 403e 8ceb 36bd 5a83 7bbe 868d 163c
00000280: 11c6 84be 9437 3cbe 20c8 233d 31ad f1be
00000290: 5965 48be b352 c13c 1384 503d 9559 853e
000002a0: c00b c63e f127 173b 10da aa3e b11e 12be
000002b0: 593f 4a3e 9e87 e43c f90d a6bd a8ae 263f
000002c0: 6c7b 01bf 9986 02be eea1 5d3e ded6 a8be
000002d0: da0b 9f3e 4f80 f7be d287 fcbe be4e 96be
000002e0: edd7 21be 9f3a 26bd 0de2 0cbb f62c 06bf
000002f0: 6b75 83be 9bee 85be b32e 763e fc90 933e
00000300: b9fe a03c c198 8f3d 5501 163e c378 4b3d
00000310: 1a58 963d 569e 0fbf d862 09be 6915 c3bd
00000320: 802a 23be 4699 b6be 4728 d8be fac0 a53e
00000330: 0e3c 52be 8509 3dbe b7b0 8f3e 4303 553e
00000340: da3e 943e 3661 93bd d936 fa3d 1d63 d93c
00000350: 7b7d d0bd 199e ffbd b123 f83c c643 a33d
00000360: 3af3 4a3d 2756 873e 8af7 503e 9623 863e
00000370: 58be 1ebe 2b8e d43e 0389 abbe c5ba 943e
00000380: b4f2 8d3e 35cb 07be e8ec 96bd 4437 2fbd
00000390: 413c 70bd 7341 dd3d 9585 59be f1f4 af3d
000003a0: 085b 4bbe a91a 0fbe 951b 3abd bab8 8c3e
000003b0: 18e4 683f 6a8d bfbe 5a74 b93d a580 c3be
000003c0: 3cc8 a73e 8a8e cdbe 5371 503e e507 32bf
000003d0: 5409 6a3d 576a 073e a3d3 0ebf 8cf0 0cbf
000003e0: 395a 1cbd d232 dabd 83aa 31bd 2949 3abe
000003f0: 5ba3 6e3e badd ba3e 39d4 59be f97d 013e
0.8570782 -0.2851571 -0.0570891 -0.29608497 -0.1696732 0.2184062 -0.25642154 0.03117296
-0.34652355 -0.11805638 0.061115872 0.37153286 0.35387516 -0.21794017 -0.24986266 0.119177885
0.25984353 -0.18096736 0.23423551 0.155901 -0.20455848 0.16870488 0.028445749 -0.28017357
0.061754365 0.18206106 -0.007997322 0.13958086 -0.11364293 -0.024234636 -0.07113303 0.13307062
0.06519421 0.082030535 -0.14886177 0.17859633 -0.0077496683 -0.3048027 -0.026189901 0.214087
-0.21657275 0.17817935 -0.28705254 0.27549997 -0.09949517 0.49043792 -0.17636685 0.45937383
-0.17185052 -0.0056252964 0.22078112 -0.013080068 0.100007504 0.33993423 -0.122777335 -0.3994615
0.1804538 0.20362546 0.012419574 0.18103205 0.0072623407 -0.49658105 -0.0030833571 -0.13180256
-0.1869374 -0.48717657 -0.07871128 0.33293614 -0.070001 0.28519684 -0.056882896 0.30156913
0.2322924 -0.18857498 0.19748694 -0.16000423 0.19326739 0.3627906 -0.048758727 -0.17583652
-0.077426195 0.42225987 -0.2376981 0.100092456 0.26030073 -0.12812033 0.01191383 0.034947436
0.018993506 0.12113919 -0.2612452 0.1097437 0.060740687 0.33634892 -0.11841757 -0.39616725
0.39306805 0.15139297 0.23412234 0.16493581 0.22520553 -0.05927859 0.4368013 -0.17567375
-0.041274752 0.22854562 -0.2789957 -0.2383037 0.19317731 -0.073703185 0.17063181 0.3568254
0.029830292 0.25452197 0.031447455 -0.017778372 0.22686522 -0.39402395 0.12520374 -0.062695816
-0.014869251 -0.056257986 0.06676461 -0.08642123 -0.84003574 0.12342581 0.036918573 0.2689623
-0.05175658 0.13803437 0.15089563 0.35914034 -0.20745252 0.17876837 0.031094842 0.1731221
0.002390389 0.375571 -0.17457196 -0.08273645 0.060569424 0.09370225 -0.46600592 -0.019606864
0.17618468 -0.37125173 -0.2612246 -0.46269372 0.061439745 0.18979783 -0.1945174 -0.31610626
0.08011526 0.12069492 -0.19103144 -0.010121857 0.18796597 -0.04465823 -0.24561825 0.009189015
-0.25932363 -0.18380576 0.039985776 -0.47202447 -0.19569911 0.023599004 0.050907206 0.26044908
0.3868084 0.0023064578 0.33369493 -0.1426952 0.19750728 0.027896699 -0.08108134 0.65110254
-0.5057895 -0.12746657 0.21643803 -0.3297643 0.3106373 -0.4834008 -0.49322373 -0.2935695
-0.15805025 -0.04058325 -0.0021497041 -0.52412355 -0.2567552 -0.26158604 0.24041252 0.28821552
0.019652711 0.07011557 0.14648946 0.049675714 0.07341023 -0.56100976 -0.13416612 -0.09525568
-0.15934181 -0.35663813 -0.4221823 0.32373792 -0.20530722 -0.18460663 0.2806451 0.20802025
0.28954202 -0.07196276 0.122174926 0.026536519 -0.101801835 -0.124813266 0.030290456 0.07971911
0.049548365 0.26432917 0.20406929 0.26199025 -0.15502298 0.41514716 -0.3350297 0.29048744
0.2772423 -0.13261111 -0.07369405 -0.042777315 -0.058651213 0.10803499 -0.21242364 0.08591641
-0.19858944 -0.13975014 -0.04543646 0.27484685 0.90973043 -0.37412578 0.090553954 -0.38184085
0.32769954 -0.4014781 0.2035573 -0.69543296 0.057137802 0.13224159 -0.5579168 -0.55054545
-0.03817198 -0.106542245 -0.043375503 -0.18191971 0.23304503 0.3649729 -0.21272363 0.12645711

network_body._body_endoder.seq_layers.0.bias f4 [128]
00000000: 4781 323d 123f 453b 886c afbd d980 603d
00000010: d0e5 2ebd d02b 08be c2d1 233e 57ae 84bd
00000020: a52c 313e c4d4 723d 30b3 71bc d80a 28bd
00000030: 3841 ee3d 4a6e a33c 6db1 28bd 2a68 ab3c
00000040: dff8 833d ab3a 233d ad80 1c3c 2dc5 73be
00000050: 4121 25be 1744 b6bb 3a0a f6bd b3eb 9e3d
00000060: e733 a03c 660e f43d dc15 e4bd 9b23 3dbc
00000070: a2de ff3d 2f46 0ebe 4255 35bd 801e 2dbd
00000080: daff 373c d790 4e3d 733c e2bc 1b7a e13c
00000090: 0f82 83ba f21c 2cbe 4e3e a73d a79c 1f3c
000000a0: 8b30 e53d 7b21 743d 6eb6 6a3b b44f 1f3e
000000b0: bd36 ef3d 0f88 94bd 6256 a63d be8d a4bd
000000c0: f433 c13d 49a0 51bb 296a c63d 1ff6 e83d
000000d0: 6a00 fc3c d84c f6bd e5fe 153d 5863 ce3d
000000e0: 6392 73bd eb52 4f3c 8876 df3c 5e40 fcbc
000000f0: abdd d73c e204 89bd 7b1f b93c d361 473c
00000100: ed43 e33d c402 f6bc 1350 623b 621b 663e
00000110: add9 453e 66d7 b8bd 1317 093e 9a96 a8bd
00000120: 5ee1 acbd 7ca1 2abc c721 2a3d 04a7 bd3d
00000130: 7544 9bbc c2f1 853d 216f e3bd dc4b 193e
00000140: af1f 593d 3c44 593d ca65 0ebc 51e6 f0bc
00000150: ba4b a4bd 7da0 493d 0c75 3fbe 1bfb 753d
00000160: 5712 db3c 73b1 143d a91d a0bb 3611 133d
00000170: cb64 503d 8798 b73c 50e3 51bc d771 603d
00000180: 560e 14bc c30f d2b8 ed91 033d 9610 523d
00000190: 245d ad3c ad53 abba 2e0c 07bb 9277 5a3e
000001a0: b9cc db3d 12e3 b53d ab6a 2f3e 9cfd 043e
000001b0: a58f e33c 74dc ea3d ed1d 3d3d b5c0 673d
000001c0: fa19 6c3d 20c5 d2bd d15f 33bd 6fbb 0c3e
000001d0: a4a7 4cbb 2816 da3d f7ee 3abe 6a73 45bc
000001e0: 3202 8c3c 57f0 2b3d 520e e53d 75ee 1b3e
000001f0: 986a 64bc 7650 2e3e af99 a93b 2387 4f3d
0.04358032 0.0030097407 -0.085656226 0.05481038 -0.042699635 -0.13297963 0.15997985 -0.06478565
0.17302187 0.05928494 -0.014752194 -0.041025966 0.11633533 0.01995005 -0.04118483 0.020923693
0.06443953 0.039850872 0.009552163 -0.23805685 -0.16125967 -0.005562316 -0.12013669 0.077598
0.019555999 0.11916809 -0.11136982 -0.011544134 0.12493636 -0.1389396 -0.04427076 -0.042265415
0.011230433 0.0504311 -0.027616715 0.027524045 -0.0010033267 -0.16807917 0.081661806 0.009741939
0.111908995 0.059602242 0.0035814303 0.15557748 0.116803624 -0.072525136 0.08121945 -0.08034848
0.094337374 -0.0031986407 0.09688217 0.11375069 0.030761916 -0.120263755 0.03662004 0.10077542
-0.059465777 0.0126540465 0.0272782 -0.030792411 0.026350817 -0.066903844 0.022598019 0.012169319
0.1109694 -0.030030616 0.0034532591 0.22471383 0.19321318 -0.09025459 0.13387708 -0.0823185
-0.08441423 -0.010414477 0.04153612 0.09260371 -0.018953541 0.06540252 -0.111051805 0.14970344
0.05300873 0.05304359 -0.008691261 -0.029406698 -0.08022256 0.04922532 -0.18696994 0.060053926
0.026742144 0.03630204 -0.0048863483 0.035905086 0.050877374 0.022411598 -0.012810543 0.054796066
-0.009036621 -0.00010016516 0.032121588 0.05128535 0.021162577 -0.0013071202 -0.0020606625 0.21334675
0.10732407 0.08881201 0.17130534 0.1298737 0.027778456 0.11467829 0.046171118 0.056580264
0.05764196 -0.10291505 -0.04379255 0.13743375 -0.0031227851 0.10648757 -0.1825522 -0.012051443
0.01709089 0.041977253 0.11184372 0.15227683 -0.01394143 0.17022881 0.005175791 0.050665986

network_body._body_endoder.seq_layers.2.weight f4 [128, 128]
00000000: 06ef f8bd cd5d 8dbd 82e6 b43c 3bd6 7b3d
00000010: 41c8 a73d a9a6 adbd c44a acbe 0613 b7bd
00000020: aca7 a6bd 59aa 2a3e cf43 a4bd ac03 35bd
00000030: 4904 ecbd 5bda f63a 1374 53bd be19 39be
00000040: f8a9 023c ad61 c3bd bdef b1bd aee8 873e
00000050: 5bdd 79bc dc93 c13d 4c15 08bd 628c 683d
00000060: ae8b 1cbe 85f3 23bd 2ae9 143d 6948 2bbd
00000070: d606 67be e607 ce3d 7ece 133d 661b aa3d
00000080: 3025 ba3b 5b8e 1e3e 71c8 df3d f700 c83d
00000090: a01b b5bd 6569 883d 26fe 9dbd 58d1 89bc
000000a0: 5c18 28be ea39 7cbe 6d5b 3c3e 129f 183d
000000b0: 273a 7dbd 0323 163d 02d8 a73d 83be 1e3d
000000c0: 985f 47be e924 a3bd 11df d33d e550 86be
000000d0: b087 523d f817 853c fbaf b0bc 49ce 1ebe
000000e0: 6965 19be 53e9 903c d68a 11bd c436 0ebe
000000f0: e814 8e3c 94ef 233d 83cc 73bd 34bf 333d
00000100: 88fd 783d 28fd e5bc 8d0f 44bd 0f38 053b
00000110: 242c 65be 0e7d 043e 60bc e4bd 2973 413c
00000120: f046 11bd 9280 57bc 0c1d 673c cbb1 fbbd
00000130: b9b9 b73d 23e0 bc3c 978c 94bd 0b63 04be
00000140: dc4e 80bd 7bc2 b13d 8ab5 c13b babc fe3c
00000150: 21ec 26bd 13c3 123e 5eac 7c3d 7d21 393d
00000160: fa87 5bbd 935d b53d a797 ef3d 17ff 243e
00000170: 7083 fc3b 5747 163d 6901 643e 1811 533d
00000180: 648a 62be 078d ee3d 7c9b 8b3d 9f1f 163d
00000190: 0993 f13d dbc6 033e 9cbd 813d 2bff 0abe
000001a0: 295a 09bd 7628 ac3d 2663 b4bc f63b 4fbe
000001b0: 8451 94bc 2181 17be 7d16 26bd 76ab b33d
000001c0: 76e8 a53d bede 8fbd 2c77 ba3d 1df9 8ebe
000001d0: 85dc 6f3e b5ba efbd a903 6b3e 39ae e4bc
000001e0: eee6 303e 441b 273e 029a d1bd dc4d e93c
000001f0: fe35 3c3e 3b18 313c 1de4 943d 75eb 053e
00000200: c9eb 88bc d2f4 ad3c 0fb7 a53c 123d 473e
00000210: 63c2 063e b4ff 02be c585 42be b912 07bd
00000220: dc46 04be aae5 b4bc f2cd f23d 1f01 1f3d
00000230: 5645 eebd 4ae7 db3d 58fc 8b3c aec1 34bd
00000240: 5a81 183d 44df 1a3c d504 b7bb 3dd7 0dbe
00000250: 8aa4 41bd 7998 e3bd 8dce 89bd 7752 913c
00000260: 28ce 873c a151 713c c6c0 8bbd 80e6 b5bc
00000270: fc2b 45be 9b53 183d 715d febb ccac d9bd
00000280: 005b 57bc b4d8 ba3d 5eb3 fc3a c4fa f23c
00000290: 09ed 33bd 1707 febc 4bf8 663d 967d ae3c
000002a0: a313 0d3e a331 3d3d 4cbb 0dbd 2e21 e13c
000002b0: 34ff 9abd 9b20 de3d 2bf6 5cbd 90b8 ae3d
000002c0: 439b 303d 636b af3d 48f0 f43c 3141 2abe
000002d0: a7d5 b03c ff25 f6bd 7481 2dbd e60d 2abe
000002e0: f7d4 543d 6474 2f3e 22aa b6bd 4e71 e23d
000002f0: 22d9 293e ebb4 94bd 8ba8 6abd 3b2d 00bd
00000300: a9d6 8f3c c7e5 1bbe 3314 3bbe 40c6 fc3c
00000310: c613 82bd 5f4d f33c fda6 b2bc aecd 0bbd
00000320: 4091 fb3d d399 8fbd 5c9f 583e 9439 47bd
00000330: 982c f23d 64be 4d3a 593d d8bb 7d91 98bc
00000340: d785 ea3d 5eda dc3c a29d 403c 81b7 a03d
00000350: c28d 8c3c f7d3 3b3d 5906 f2bb db1e 27be
00000360: cbb9 2e3e c9a1 73bd e523 01bd f987 e03d
00000370: be9c 933e 884d c93d 21fe 9d3c f211 99bc
00000380: 58cc 9cbd 3e67 5b3d 4913 283e 8e93 ab3d
00000390: 6933 3ebe f5c1 e43d 423a a5bd c926 0cbe
000003a0: 2353 15be 4dfc 70bc 1ed6 d1bd d7e9 ccbe
000003b0: fa44 2ebe 2a9e 40bd 897e 0c3e ab6b 96bd
000003c0: f474 603e e010 473d 2278 313d 9103 3dbd
000003d0: 42cf 113e 9d72 76bd c15f 09bd eb22 ce3d
000003e0: bb59 a63d 4424 323d b922 fabc 3308 e33d
000003f0: 7fb2 3b3d 11c4 a0bd 1c10 393a 8fd4 c63d
-0.12154965 -0.06902657 0.022082571 0.061483603 0.08192492 -0.084790535 -0.33650792 -0.08939175
-0.081374496 0.16666545 -0.08020746 -0.044192955 -0.11524255 0.0018833386 -0.05162437 -0.18076226
0.007975094 -0.095401146 -0.086883046 0.26544708 -0.015250529 0.0945203 -0.033223435 0.056774504
-0.15287659 -0.04002716 0.036355175 -0.041817103 -0.22561201 0.100601 0.0360856 0.08306007
0.0056807026 0.15483992 0.10926903 0.09765809 -0.0884316 0.066607274 -0.077144906 -0.016823456
-0.16415542 -0.24631467 0.18394251 0.037261076 -0.061823037 0.036654484 0.08195497 0.038755905
-0.1947006 -0.079660244 0.10345281 -0.26233593 0.051398933 0.01624678 -0.021568289 -0.15508379
-0.14980091 0.017689383 -0.035532795 -0.13888079 0.017343953 0.0400234 -0.05952121 0.043883517
0.06078866 -0.028074816 -0.047866393 0.0020327603 -0.2238012 0.1293833 -0.11168742 0.0118072415
-0.035468042 -0.013153212 0.014106046 -0.12289771 0.08970971 0.023056095 -0.07253378 -0.12928407
-0.06265041 0.08679672 0.0059115337 0.031095851 -0.040752534 0.14332227 0.06168782 0.045197953
-0.053596474 0.088557385 0.11698847 0.16112934 0.0077060983 0.03668913 0.22266163 0.051529974
-0.22123104 0.116479926 0.06816766 0.03665125 0.11795623 0.12868826 0.06334993 -0.13573901
-0.03353325 0.08406155 -0.022019934 -0.20237717 -0.018105276 -0.14795353 -0.04054879 0.08772938
0.08100979 -0.070249066 0.091047615 -0.27924433 0.23423965 -0.117055334 0.22950615 -0.027915107
0.17275593 0.16318995 -0.10234453 0.028479509 0.18379971 0.010809 0.07270072 0.13078101
-0.016713994 0.021234903 0.02022889 0.1945689 0.1316009 -0.12792856 -0.18996342 -0.03297684
-0.12917656 -0.022082169 0.11855687 0.03881943 -0.116343185 0.10737474 0.0170881 -0.04413002
0.037232734 0.009452645 -0.005585293 -0.13851638 -0.047276057 -0.11113066 -0.067288496 0.017739518
0.016577795 0.0147289345 -0.06823878 -0.022204638 -0.1925506 0.037189107 -0.007762604 -0.106286615
-0.013144255 0.09123364 0.001927953 0.02966059 -0.043927226 -0.03100924 0.056389134 0.021300118
0.13777022 0.046189915 -0.03460245 0.027481642 -0.075682074 0.10846063 -0.0539457 0.08531296
0.04311682 0.08565404 0.029899731 -0.16626431 0.021586252 -0.12018966 -0.042359784 -0.16606864
0.05196091 0.17134243 -0.08919169 0.110567674 0.16586736 -0.0726107 -0.05728964 -0.031293135
0.017558413 -0.15224372 -0.18269424 0.030856252 -0.06351428 0.02969998 -0.021808142 -0.0341317
0.122835636 -0.070117615 0.21154541 -0.048638895 0.11824912 0.00078485 -0.00659911 -0.018624062
0.11451309 0.026959594 0.011756333 0.078475006 0.01715744 0.045856442 -0.0073860106 -0.16320364
0.17063062 -0.059480462 -0.031528372 0.10963435 0.28830522 0.09829241 0.019286217 -0.018685315
-0.07656163 0.053565256 0.16413607 0.08377753 -0.18574299 0.11169807 -0.080677524 -0.1368667
-0.14582495 -0.014708591 -0.10245918 -0.40022156 -0.170185 -0.047025837 0.13720144 -0.07344755
0.21919614 0.048600078 0.04332746 -0.04614598 0.14239219 -0.060167897 -0.033538584 0.10065254
0.081225835 0.043491617 -0.030534135 0.11085548 0.045824524 -0.07849897 0.00070595904 0.09708511

network_body._body_endoder.seq_layers.2.bias f4 [128]
00000000: 8cc2 b03b 00c8 07bb 2fd4 993d 8e90 573c
00000010: 01e0 8d3d 37ef 733b d4db 00ba c7c5 103e
00000020: 4d69 423d 5548 423d e7eb c83d 80e9 ac3d
00000030: 117a ec3d 20ec 923d a5fe c1bc cefc ac3d
00000040: 6564 543d 1e82 b9bc e5f8 173d 4eab e33d
00000050: a789 923d 279c c33c 9338 f13d bfc5 abbb
00000060: f758 7dbb 7f62 3e3c 5bd2 043b 3677 2fbb
00000070: 326a 0c3c d421 6b3d c90f 2f3d 4af5 f8ba
00000080: 8cb1 6d3c 9a2d 5c3d 56fd 99bd 4893 e23d
00000090: 970e bc3d 89a2 763d c114 913b 5af6 4b3b
000000a0: ef64 6abd 92f8 e23d b450 32bc 9bb0 143d
000000b0: 0044 29b9 6686 a7bc d644 c3bb eb88 853d
000000c0: 5758 8638 9d22 923d 5bd4 103d ab20 8b3c
000000d0: e88b a03d ab75 e4bc 3c8b 913c 6cf8 77ba
000000e0: 56d1 b03d ca45 42bd a4e3 1d3b fee5 b53c
000000f0: 4734 653b 3a20 a63c b12c a53d 2dd3 a93d
00000100: ce06 e8bb ab05 ba3d 3b08 3a3c 1512 edbb
00000110: 399b 543d 4eae 6c3d 957f 543d 74a0 30bb
00000120: bb6e 293d 5961 8b3d 4290 92bb 12d6 63bd
00000130: 6774 9a3b b2c5 ce3c 25c9 203d f0bb 33bc
00000140: bc54 723d 28be 2fbd 5a69 263c fd55 83bc
00000150: 9a43 88bb 314b b8b7 2489 d9bb 973b ce3d
00000160: 38a1 21bd 90c6 3fbc bae4 cb3d a1eb 8a3d
00000170: 353f 8c3d 504d 02bc 8115 a63d d9f3 a93d
00000180: 54de 6a3d a2da 883d 13a3 823d c2e0 503d
00000190: 3594 babc f158 8c3d 9a4b 043e 0355 063b
000001a0: d300 513d ac17 4dbd 96d1 833d ec2c b23d
000001b0: e773 2dbc 6d65 aabc b5d5 983d d4ba 9d3d
000001c0: 64b0 943d 58d2 a33d dbf2 28ba 1595 883d
000001d0: bfb3 853b 9e39 b63d 791e 983d 7b95 723d
000001e0: 40e2 4d3d 60e8 11bc 0993 463c 0a14 683d
000001f0: 124a ba3d 98d3 0a3d cf25 89bc b918 51bb
0.0053942855 -0.0020718575 0.07511174 0.013157023 0.06927491 0.003722144 -0.00049155694 0.14137946
0.047463704 0.047432262 0.0981062 0.08442974 0.1154672 0.071739435 -0.023680994 0.08446656
0.051853556 -0.022645053 0.0371026 0.11116658 0.07155161 0.02387817 0.11778369 -0.005242079
-0.0038657764 0.011620163 0.0020266983 -0.0026773936 0.008570241 0.057405308 0.042739663 -0.0018994
0.0145076625 0.053754427 -0.07519023 0.11063248 0.0918247 0.0602136 0.004427523 0.0031122179
-0.057225164 0.11082567 -0.010883499 0.036301237 -0.00016142428 -0.020449828 -0.0059591336 0.06520256
6.4060725e-05 0.07135508 0.035358768 0.01698335 0.07839185 -0.02788814 0.017766587 -0.000945932
0.08633678 -0.047429837 0.0024091983 0.022204395 0.0034973787 0.020279039 0.08065165 0.08292232
-0.0070808893 0.09083112 0.011354501 -0.0072348216 0.051905844 0.057783417 0.051879484 -0.0026951106
0.041365366 0.06805677 -0.0044727633 -0.055624075 0.0047135833 0.025240753 0.039254326 -0.010970101
0.05916284 -0.042905957 0.010156954 -0.016032213 -0.0041584494 -2.1969523e-05 -0.006638663 0.100699596
-0.03946039 -0.011705056 0.099557355 0.06783224 0.06847993 -0.007953003 0.0810957 0.082984634
0.057340935 0.06682326 0.0637876 0.050995596 -0.022775749 0.06852902 0.12919465 0.0020497448
0.051026177 -0.050071403 0.0643646 0.086999744 -0.010586715 -0.020800317 0.074626364 0.0770165
0.07260206 0.07999104 -0.00064448797 0.0666906 0.0040802653 0.08897708 0.07427687 0.059224587
0.050264597 -0.0089055 0.012120017 0.056659736 0.09096159 0.033893198 -0.016741661 -0.0031905605

action_model._discrete_distribution.branches.0.weight f4 [4, 128]
00000000: 8eed ef3c dcab 693c 09f9 1d3d 82ef b13c
00000010: bd19 1ebd b499 0a3e 8732 f33b a748 0dbe
00000020: 85be 62bd 4152 55bd 3085 fbbd 6b10 4bbd
00000030: d081 8ebd 564c d0bd edc2 793d 48c2 13bd
00000040: 3b2c 26bc 65dc c43d 507d 0abd 5e50 963d
00000050: b3df 5a3d c004 c4bb 4d41 3abd 5bfc c43d
00000060: a5ef 263d 8f85 2e3d 7426 aabc cc48 563d
00000070: 060c 523d 27b8 10bd 0be1 19bd fee6 093d
00000080: 03eb 0c3d 3d74 71bd 3863 8b3d 7ffb 83bd
00000090: c5cf 943c db12 873d c5e3 a03d 7f3f af3c
000000a0: 42ea f43d 1118 abbd a520 b53d 3429 5dbd
000000b0: 20b5 783d da43 5a3d 0b0a 713d cf7c 1bbd
000000c0: 75f6 483d 6cd3 57bd c7be 363d c0ce b93c
000000d0: 5e02 afbd b081 c63d 667b ed3c ceea 8a3d
000000e0: 1798 09be 2e3b d13d 0c80 8a3d 0d9d 1abc
000000f0: 622a 253d 0b5f 0a3c 80f3 ab3c bc45 8bbd
00000100: 95f4 163d e2fc 89bd 51a5 983d a3b3 c33d
00000110: bacd 093d 4121 0cbd 9061 1ebd 3189 2a3d
00000120: 4c2f 4cbd 0668 77bd dd37 653d 5c38 fb3d
00000130: 4c88 1f3c 159b bebc f4f4 59bd 06c1 763c
00000140: 6284 5dbd 1b12 ce3d cd7c 993d 3947 6c3d
00000150: 0063 82bc 17a1 763d 96b5 643d 644e d63d
00000160: 2cf6 a53d 3cdc 9b3d 61bf e1bd 615d 9ebd
00000170: 8106 5dbc e4f6 4b3d da5e afbd 634f d5bd
00000180: f49c 2abc 27e4 74ba 1675 74bd fa0a 703d
00000190: d69f bc3d cda8 bcbc eef8 22be 7cc8 b33c
000001a0: f29a 89bd b515 823d 0371 c8bc d5ea c63d
000001b0: 9649 693d a90a 293d c5b2 463b 0841 d33d
000001c0: f00e 973d 18fd 0abd 2bba 903c e960 c5bc
000001d0: 2f46 3c3d c2cf 403d 4e63 cf3d cf0a febb
000001e0: 0fd2 8cbd 8ce3 fb3d 45ad 1f3d 67a6 9cbd
000001f0: 4fb4 87bd 3b58 0d39 1526 a13d 976b 693d
00000200: 5fa8 b1bc 185d 353c b691 c7bc 8ad4 073a
00000210: 077d 573d d20f 07bd 4b0e 47bb ed93 d53d
00000220: 5c4b 923b 4387 15bc dfe6 8d3d 8181 823d
00000230: 19d4 843d b4d7 503c 9e73 1bbb ed58 833c
00000240: d1ee da3c b5eb e2bc dcaa ff3c 556d 9cbc
00000250: ac7c 0bbc be87 81ba 862a 513d 1ef1 2ebd
00000260: 71c9 293b 2935 673b 2de2 253d e391 13bd
00000270: e2e1 083d befd 66bb 0abc 7d3c f3f9 45bd
00000280: b7aa 283c a98e 48bc 7a5c aabd 21ab e13d
00000290: aa71 003b 8570 c13c 77f5 e03c a30c a13b
000002a0: 8605 75bd 5c5e a23d 9546 7dbd 1327 e9bb
000002b0: f666 69ba 4acd 18bc 985f c83c 5a8d 983d
000002c0: 5b70 8ebd a61a efbb 7adf 523d 303a 043d
000002d0: 78f8 823d 21d1 76bd 160f 30bb 87db 1f3d
000002e0: 068e 3d3d 7628 38bd f85d 9bbd 95ac 42bd
000002f0: 2736 28bd dbe7 94bd 839b c63c dbb9 183d
00000300: ba28 2dbd 06be 963c 49c6 273c b179 43bd
00000310: 9806 393c bff7 d5bc 5699 b03c dad4 aeba
00000320: 3c4a e6bb 1e1c 2b3d 4609 a1bc 3ceb 4bbd
00000330: 3f51 9abc 6068 22bc 6b00 c53c 693f f5bb
00000340: 326d 893b 896a a8bd 871c a0bc 4eaf 25ba
00000350: b73c 8d3c 81c7 55bd 9872 b3bc d31b 4fbd
00000360: 7ef6 2fbd a942 f2bc 1ced 773d 2d9e 513c
00000370: 18dc a23b cfb7 ddbc 64e1 7dbb 9033 ab3d
00000380: 2657 a93c 13a5 cd3c be0b f03b f26d 55bc
00000390: b3dc 0bbd 1bea 573c 20e1 9d3d 8955 e4bc
000003a0: b0b2 eb3c 7b4a 47bd c32e 583d 1a0b 6abd
000003b0: 40fc 893c e173 8f3c 0b4e 0e3d b758 5bbd
000003c0: f243 393d 8832 e93c 4473 fbbc 8a66 353d
000003d0: 0257 143d 1542 2bbd 21c6 93bd b422 413d
000003e0: 6a26 5bbb 9508 3fbd f25e 0ebd 873f 5f3c
000003f0: c4c3 503d 296e bcbc f9e1 293b 8464 1ebd
0.02928808 0.014262166 0.038567577 0.021720652 -0.038598765 0.13535196 0.007421795 -0.13797246
-0.055357475 -0.052080397 -0.12281263 -0.049576204 -0.069583535 -0.1017081 0.06097691 -0.036073953
-0.010142381 0.096123494 -0.033810914 0.073395476 0.053435992 -0.0059820116 -0.045472432 0.096184455
0.040755887 0.04260784 -0.020770289 0.05231552 0.051280998 -0.03533187 -0.037568133 0.033667557
0.034403812 -0.058948744 0.06806034 -0.064444534 0.018165478 0.06595393 0.078559436 0.021392582
0.11958744 -0.083542 0.08844117 -0.053994372 0.06071961 0.053287365 0.05884747 -0.037960824
0.049063165 -0.052691862 0.044615533 0.022681594 -0.085453734 0.09692705 0.028989505 0.06783067
-0.13436924 0.10216366 0.06762704 -0.009436858 0.040323623 0.008445512 0.020990133 -0.0680041
0.036854345 -0.06737687 0.074534066 0.09555747 0.03364346 -0.0342114 -0.03866726 0.041634742
-0.049849793 -0.06040194 0.05596148 0.12266609 0.009737086 -0.023267308 -0.05321212 0.015060669
-0.05408133 0.10062047 0.07494507 0.05768511 -0.015916348 0.06021222 0.055837236 0.104641706
0.08103594 0.07610366 -0.11022831 -0.07732654 -0.01349032 0.049796 -0.085630134 -0.104155324
-0.010413397 -0.00093418587 -0.059681974 0.058604218 0.09210174 -0.02302971 -0.15915272 0.021946184
-0.067190066 0.063517965 -0.02446795 0.097127594 0.056954943 0.041269932 0.0030318957 0.10315138
0.07375896 -0.033932775 0.017666897 -0.024094062 0.04596537 0.047073133 0.10126363 -0.0077527533
-0.06876003 0.122992605 0.038983602 -0.07648926 -0.06626188 0.00013479676 0.07868592 0.05698737
-0.02168673 0.011069559 -0.024361473 0.0005181512 0.05260947 -0.03297407 -0.003037351 0.10428605
0.00446455 -0.009126487 0.06928801 0.06372357 0.06485767 0.01274674 -0.0023720036 0.016033614
0.026725205 -0.027700284 0.031209402 -0.019095102 -0.008513611 -0.0009882373 0.051065944 -0.042710416
0.0025907422 0.0035279489 0.0404989 -0.0360278 0.033418544 -0.0035246457 0.015486727 -0.048334073
0.010294608 -0.012241044 -0.0831842 0.110189684 0.0019599 0.023613224 0.027460797 0.0049148365
-0.05981972 0.07928154 -0.06183489 -0.0071152537 -0.0008903587 -0.0093262885 0.024459645 0.07448836
-0.06955024 -0.007296878 0.051482655 0.032282054 0.06395048 -0.060258035 -0.002686446 0.039027717
0.046278022 -0.04496046 -0.075862825 -0.04752787 -0.04106727 -0.072707854 0.024244076 0.03728662
-0.042275168 0.018401157 0.010240146 -0.047723476 0.011293076 -0.026119111 0.021557491 -0.0013338581
-0.0070278924 0.04177486 -0.019657742 -0.049784884 -0.01883757 -0.00991258 0.02404805 -0.0074843657
0.0041939253 -0.08223445 -0.019544853 -0.0006320373 0.017240865 -0.052192215 -0.021905228 -0.050563645
-0.042959683 -0.029572802 0.06052886 0.01279406 0.004970085 -0.027065186 -0.003873908 0.08359444
0.020671438 0.025103128 0.0073256185 -0.013026701 -0.034146022 0.013178374 0.07708955 -0.027872818
0.028771728 -0.048655014 0.05277897 -0.057139494 0.016843915 0.01751131 0.034742396 -0.053551402
0.045230813 0.028466478 -0.030694611 0.044287242 0.03621579 -0.041811068 -0.072155245 0.047152236
-0.0033439645 -0.046639044 -0.034758516 0.013625986 0.050967947 -0.023001747 0.0025922044 -0.038670078

action_model._discrete_distribution.branches.0.bias f4 [4]
00000000: 5ea3 87bd 0399 553d b1ca 893c e2f3 183c
-0.06622957 0.052147876 0.016820284 0.00933549

action_model._discrete_distribution.branches.1.weight f4 [3, 128]
00000000: 18e8 a9bd f802 b1bd 02cb 8a3d 3538 d73b
00000010: 24e8 a43d 85cc 4b3d 37fa a7bd b116 123d
00000020: c30e 893d 81b7 c33d b362 6a3d 1547 bc3c
00000030: a683 653d 7045 c53d 250e 1bbd b4a3 403e
00000040: cb85 0c3e 528b 353d dbff 373c 8134 603d
00000050: c965 e63d 4ee8 f43b 1ab3 afbd e77a fe3c
00000060: 9607 823c ac86 dabd 4420 783c 9bb1 9dbc
00000070: 643e 5ebd ec1f d3bc ed21 dd3d 0510 64bd
00000080: 707d a5bd 2822 813d 8f9b 0fbd ae0d 19bc
00000090: 6509 0f3d f9c1 debd 9c48 85bd 3168 f3bc
000000a0: e94a f0bc 7ba8 873c 71a6 37bc b2e4 053d
000000b0: 20a7 5fbc 5a0c 89bd 4fce 83bc 507d 623d
000000c0: f599 7cbd 2bd8 553d a445 c6bd 8d43 8bbd
000000d0: ec8f f93b 663d 8ebc 79bf 3dbd 84f3 95bd
000000e0: e3da 853c 2b08 eabc 9875 61bc 9628 273d
000000f0: 12fc 1cbc b38a 7dbd 0dfb 953d 1de3 6c3c
00000100: 14a5 e53c 5567 9c3d ea2e 943d 9f46 2cbd
00000110: 4c60 e9bd 1b67 ca3d 0631 ffbc 17c1 bcbd
00000120: fab1 0f3d 48b3 ea3d 8555 fcbc 20fb 5fbc
00000130: db55 8d3d 7dc6 8b3d f49e c73d 74c3 023d
00000140: 8efd 103e 3527 f3bc 08de d9bc 1b30 54bd
00000150: fbe1 28bd ee3a 6bbd 23af b0bc 7216 aebc
00000160: a043 96bc 621a 33bd d7d4 053c d311 fabb
00000170: 7c7e c4bd f74b 2cbd ed8e 773d 6f79 2a3d
00000180: 7fe6 0c3e 6ac3 0a3c b799 8f3d d0a7 c13a
00000190: d641 283e 1bbf 6f3d 78b4 813d ef7c 82bd
000001a0: 4787 f33d 7f45 653d e920 86bd 5deb 8b3b
000001b0: 06d6 1dbd 3ffe 49bd 7d09 ecbd a1c0 533d
000001c0: 353d 3cbe 3e66 a5bd 8f30 5cbd bf37 c9bd
000001d0: 1b6b b7bd aaae 3c3d 214e 41bd 4958 f23d
000001e0: 6b21 1b3d 28d8 67ba 312b 003c fe75 0a3e
000001f0: 791f 37bd cd27 dbbc 3f70 97bd bdb0 abbc
00000200: 4112 c1bc 8a74 08bc 36f4 7d3d d084 933a
00000210: 36ad bb3d f8f2 11be 0951 623d 84a5 0c3d
00000220: 629e 893d 5e9d fc3c d3bc de3d b0c8 193c
00000230: f5d2 193d da17 1b3e 48b6 cabc e621 e33c
00000240: b334 f6bd 0e93 a5bd b3d1 6c3c d0ab 0cbd
00000250: faa2 8ebd 90e5 e0bb 9b4a 763d 925e 93bd
00000260: d878 adbd d5c2 b1bc 2b2a 3d3c 1f7e 6ebd
00000270: 46df 3cbd ecd1 a83b d200 8bbd 8fc0 e7ba
00000280: f9a6 f2bc a88b a43d 3423 983c 222d 5b3d
00000290: 9545 54bc a82d 983d 0531 1fbc 763c 2d3c
000002a0: 9c5d 4c3c 6a09 b03d 9b10 02bd ba45 9b3d
000002b0: e02a 9cbd 35f1 ec3b 9a87 c03b 9f67 18bd
000002c0: 6b50 033d 21c2 0b3e 3467 afbb a422 0fbd
000002d0: 8cfa 5a3d 510c 693b 37be 20bd 5dc2 38bd
000002e0: b069 863d 8ceb 273c 2003 97bc 4588 0f3e
000002f0: 3822 14bd 73ca b23c 963d ccbc 1151 ad3d
00000300: dd19 80bd bb85 943d 7576 15be 348e 96bd
00000310: 6613 793d 505a 053d 65b0 aa3d 6fa3 893d
00000320: fabe 693d 3e55 2f3d 0389 aebd 99e2 8e39
00000330: 4558 0b3d 0390 123d 55b3 cabc c981 1cbc
00000340: ef53 5d3d e510 9c3c 5e5c b9bd 02a9 09bd
00000350: 4d48 463d 22db 63bd 2bcd 8ebd 8d12 633c
00000360: 8280 b4bc bc0f 9cbd 3171 cd3d dfaf 263e
00000370: 1122 883c d0d4 a5bc ee31 e93d b79c 0c3d
00000380: 32f3 aebd bf5c 71bc 171d bb3d f778 0d3d
00000390: 55c7 1bbe b6ed 36bd 89de ff3d cd51 08bd
000003a0: 3190 93bd 44f5 8abd b7e9 783d 597b 263d
000003b0: a4f6 39bd 5c69 ab3c 2762 153e e071 a5ba
000003c0: 8f6b 173d 6897 fc3d f329 ce3b 165e 8e3d
000003d0: b28b 2fbd 758e 47bd 0371 723d e302 c8bd
000003e0: c8b9 a63d 6d7f cabd 4c0b 8dbd 1fee 61bd
000003f0: 7c99 b23b 7514 8ebc 7f64 27bd 465a 4fbd
-0.082962215 -0.08643144 0.06777002 0.0065679797 0.0805209 0.049755592 -0.082020216 0.03566617
0.06692269 0.09556485 0.057223033 0.022983113 0.056033753 0.09632385 -0.037855286 0.18812448
0.13722913 0.04432232 0.011230434 0.05473757 0.11249883 0.007473982 -0.08579083 0.031064464
0.015872758 -0.10670218 0.0151444115 -0.019249728 -0.05425872 -0.025772057 0.107974865 -0.05567934
-0.08080566 0.06305343 -0.03506046 -0.00934164 0.03492107 -0.10876841 -0.0650799 -0.029712768
-0.029332595 0.01655983 -0.011209116 0.032688804 -0.013650686 -0.06691809 -0.016089587 0.05529529
-0.061670262 0.052208107 -0.09681252 -0.06799994 0.007616034 -0.017363261 -0.04632518 -0.073218375
0.016339725 -0.028568348 -0.013760947 0.04081019 -0.009581583 -0.061899852 0.07323275 0.014458445
0.028032817 0.076368965 0.07235511 -0.042059537 -0.1139532 0.09882947 -0.031151306 -0.092165165
0.03508184 0.114599764 -0.030802498 -0.013670713 0.06901141 0.06824968 0.09747115 0.03192468
0.14159223 -0.029681781 -0.02659513 -0.05180369 -0.041231137 -0.057429247 -0.021567887 -0.021250937
-0.018342793 -0.043726332 0.008168421 -0.0076315193 -0.095944375 -0.042064633 0.06043904 0.041619714
0.13759802 0.008469442 0.07011741 0.0014774743 0.16431364 0.05853186 0.0633325 -0.063714854
0.118910365 0.05597448 -0.06549246 0.004270001 -0.038534187 -0.049314734 -0.11525247 0.051697377
-0.18382724 -0.08076142 -0.053757247 -0.09825086 -0.089559756 0.04606501 -0.04719365 0.11833245
0.037873667 -0.00088441605 0.007822798 0.13521573 -0.04470775 -0.026752377 -0.07394456 -0.020958299
-0.023568274 -0.008328566 0.062000476 0.0011254791 0.09163897 -0.14252841 0.055253062 0.034337536
0.06719662 0.030836757 0.10875859 0.009386227 0.0375547 0.15145817 -0.024745122 0.027726125
-0.1202177 -0.08084689 0.014454293 -0.03434354 -0.06964679 -0.0068633035 0.060129743 -0.07195772
-0.08470315 -0.021699348 0.011545698 -0.058225747 -0.046111368 0.0051519778 -0.06787266 -0.0017681288
-0.029620634 0.0803445 0.018571474 0.05350984 -0.012956043 0.07430583 -0.009716277 0.010573497
0.01247349 0.085955456 -0.031754117 0.07581659 -0.07625365 0.0072309026 0.00587554 -0.037208196
0.032059114 0.13648273 -0.005352879 -0.034945145 0.053461596 0.003556032 -0.039243903 -0.045107234
0.06563127 0.01024903 -0.018434107 0.14016826 -0.036165446 0.021825051 -0.02493171 0.08462728
-0.06254933 0.072520696 -0.14595969 -0.07351342 0.060809515 0.03255683 0.08334426 0.067206256
0.057066895 0.042805903 -0.08522227 0.0002725318 0.034019727 0.03578187 -0.024743715 -0.009552428
0.054035123 0.019051025 -0.09050821 -0.033608444 0.048408795 -0.055628903 -0.069727264 0.013859403
-0.022033934 -0.076201886 0.10031355 0.16278027 0.016617807 -0.020243078 0.113864765 0.034329142
-0.085424796 -0.014731585 0.09136408 0.03453919 -0.15212758 -0.044660293 0.12493617 -0.033281136
-0.07205237 -0.06785062 0.060769763 0.040644977 -0.04540123 0.020924263 0.14588223 -0.0012622438
0.03696781 0.12333566 0.006291622 0.06951539 -0.042857833 -0.048719842 0.059189808 -0.097661756
0.08140904 -0.09887586 -0.0688692 -0.05515873 0.0054504257 -0.017343739 -0.040867325 -0.0506232

action_model._discrete_distribution.branches.1.bias f4 [3]
00000000: efad 5f3c 578d 5cbc 96d0 a93b
0.013652309 -0.013461432 0.005182336
