Assets/My Behavior.onnx (onnx, 92206 bytes, 9 tensors)

discrete_act_size_vector f4 [1, 2]
4.0 3.0
00000000: 0000 8040 0000 4040

network_body._body_endoder.seq_layers.0.weight f4 [128, 29]
-0.092111096 -0.39931902 0.21594554 -0.17452566 0.03933832 0.18138146 0.24050634 0.01890316
-0.1457163 -0.11396205 0.015320575 -0.12988353 0.13749713 0.1374345 0.029287105 0.17682976
-0.06779745 0.26081017 0.087583184 0.18074386 0.22271164 0.2425263 0.29712617 0.15072599
0.24485126 0.13059543 -0.2962041 -0.0059420043 0.23849842 -0.07647266 -0.2345602 -0.22306883
-0.02956479 -0.14144105 0.2161243 -0.18793818 -0.15572186 -0.27834323 0.4163013 0.07720592
0.1219189 0.009990469 0.015002186 -0.08455236 0.15613551 -0.008351431 -0.18492109 0.23394881
0.04882227 0.14597331 0.15683652 -0.012848069 -0.14979208 0.090193525 0.001867339 -0.06677937
-0.041229367 -0.080814146 0.005447219 0.20127714 0.21499558 0.1782658 -0.3582369 0.05913908
0.05735384 -0.096600614 0.06918111 -0.073095806 0.20133866 0.09288836 0.06739811 -0.11317492
0.4214355 -0.23340443 -0.06731872 0.1517819 -0.06310848 0.1321942 0.061963998 -0.014550166
-0.29502305 -0.5360553 -0.28475103 0.17286386 -0.31607464 0.23854767 0.2097755 -0.06641939
0.26471364 -0.5169232 0.39465672 0.32154325 0.0452493 -0.08223624 0.07871712 -0.052538406
-0.3449431 0.24736111 -0.090737745 0.05528007 -0.1725518 0.069036 0.52672106 -0.2510004
0.28426322 0.1030532 -0.28683904 -0.032854997 -0.21366665 0.15339561 -0.03772291 0.23287557
-0.22227454 0.077906005 -0.19127199 0.25474826 0.37359536 -0.31140482 -0.23891562 0.03310743
0.007202509 0.04382523 -0.08508929 -0.21625681 -0.050544914 0.076461196 0.009743469 -0.23558107
0.10411365 0.09320486 -0.20121814 -0.11823834 -0.11040902 -0.41572523 -0.08764306 -0.30955616
-0.08004693 -0.39275277 -0.28507388 -0.14237975 0.040531665 -0.1800864 0.058088098 -0.13684233
0.0007178661 0.18451968 0.027647996 -0.08779237 0.09593686 0.40022102 -0.0113659045 0.23094569
0.024788622 0.034927197 -0.033664778 -0.022110108 -0.033696882 0.04068855 -0.17957634 0.099477716
0.06318221 -0.058847077 0.30678242 0.04193107 0.43924457 0.21998012 0.4289894 -0.10710526
0.09906784 0.02196589 0.33694988 -0.059722535 -0.22328497 0.20437855 -0.05405474 0.042653438
-0.16649576 0.03527442 0.29493403 -0.0035823057 0.123381235 0.28282407 -0.04137516 0.15831359
-0.16760708 0.39247105 -0.057707224 0.14367628 0.052484427 0.09042388 0.18195835 -0.41576752
-0.47654355 -0.09708177 0.09592989 0.019329969 -0.095573604 -0.17108579 -0.09332025 0.08699709
0.067059204 0.28496778 -0.22029692 0.045478422 0.070033826 -0.15481871 0.077968664 0.060016297
-0.19168247 -0.30211756 0.13695453 0.119382106 0.088291705 -0.15308885 -0.064929545 0.16588224
-0.19787033 -0.24049778 -0.20094304 -0.040865764 0.086346574 -0.119429216 0.13666214 -0.08491686
-0.20457357 -0.12520964 0.09819887 -0.21798854 0.075766735 0.0708445 -0.418699 0.03259375
-0.23434794 0.26483223 0.15113053 -0.049027752 0.08224048 -0.10021736 0.2979089 0.4843602
0.50273275 -0.19890888 0.24981649 -0.004975604 -0.02630814 0.045333408 -0.13115598 0.09161147
0.09211904 0.15841796 -0.25135005 -0.12626003 -0.14218324 0.120602645 -0.10900873 -0.4159213
00000000: bea4 bcbd 8b73 ccbe d420 5d3e dbb6 32be
00000010: 3821 213d 10bc 393e 4b47 763e cdda 9a3c
00000020: a736 15be ef64 e9bd 2603 7b3c 3000 05be
00000030: 0ccc 0c3e a1bb 0c3e 83eb ef3c dc12 353e
00000040: 64d9 8abd e988 853e d05e b33d eb14 393e
00000050: 850e 643e d058 783e ec20 983e ea57 1a3e
00000060: 4aba 7a3e cfba 053e 10a8 97be 25b5 c2bb
00000070: ee38 743e b39d 9cbd 8d30 70be 286c 64be
00000080: dc31 f2bc ecd5 10be b04f 5d3e de72 40be
00000090: 8d75 1fbe 0183 8ebe 7225 d53e 231e 9e3d
000000a0: 9eb0 f93d 10af 233c bbcb 753c ca29 adbd
000000b0: fde1 1f3e 71d4 08bc f45b 3dbe 4790 6f3e
000000c0: dcf9 473d 077a 153e c199 203e b580 52bc
000000d0: 1863 19be 62b7 b83d 80c1 f43a 9fc3 88bd
000000e0: 20e0 28bd e381 a5bd 967e b23b 981b 4e3e
000000f0: cd27 5c3e 4f8b 363e d46a b7be d23b 723d
00000100: dceb 6a3d 8bd6 c5bd d3ae 8d3d 41b3 95bd
00000110: b92b 4e3e 413c be3d 0508 8a3d 41c8 e7bd
00000120: 65c6 d73e 9201 6fbe 66de 89bd b76c 1b3e
00000130: 053f 81bd eb5d 073e f6cd 7d3d d263 6ebc
00000140: 430d 97be ec3a 09bf e3ca 91be 3903 313e
00000150: 89d4 a1be d745 743e 64cf 563e e406 88bd
00000160: 8c88 873e 1455 04bf 7210 ca3e 51a1 a43e
00000170: 5457 393d 796b a8bd 7136 a13d 8332 57bd
00000180: 629c b0be 3b4c 7d3e b6d4 b9bd 5b6d 623d
00000190: 6bb1 30be bf62 8d3d 31d7 063f 2083 80be
000001a0: f38a 913e 8e0d d33d 91dc 92be f692 06bd
000001b0: 6ecb 5abe bd13 1d3e 5783 1abd ef76 6e3e
000001c0: f09b 63be 2f8d 9f3d cedc 43be 5d6e 823e
000001d0: e447 bf3e 7470 9fbe 4ca6 74be a89b 073d
000001e0: 0603 ec3b 1682 333d 4b43 aebd 6d72 5dbe
000001f0: 2f08 4fbd b097 9c3d 12a3 1f3c 2a3c 71be
00000200: 8a39 d53d 31e2 be3d 210c 4ebe f126 f2bd
00000210: 201e e2bd f0d9 d4be 347e b3bd 257e 9ebe
00000220: a5ef a3bd e416 c9be 34f5 91be ffcb 11be
00000230: 8804 263d 9268 38be c9ed 6d3d 6520 0cbe
00000240: 2e2f 3c3a baf2 3c3e 0d7e e23c 7ccc b3bd
00000250: 8b7a c43d c5e9 cc3e 0f38 3abc 077d 6c3e
00000260: 8211 cb3c d20f 0f3d 14e4 09bd 4220 b5bc
00000270: be05 0abd 09a9 263d dce2 37be f9ba cb3d
00000280: ad65 813d a209 71bd 9612 9d3e eabf 2b3d
00000290: aae4 e03e 7842 613e 80a4 db3e 015a dbbd
000002a0: 14e4 ca3d cff1 b33c b284 ac3e 9e9f 74bd
000002b0: d1a4 64be 9c48 513e 8168 5dbd 5fb5 2e3d
000002c0: dd7d 2abe e97b 103d 9801 973e 1ec5 6abb
000002d0: 4daf fc3d 51ce 903e 0079 29bd f51c 223e
000002e0: 31a1 2bbe f7f1 c83e 695e 6cbd e01f 133e
000002f0: e9f9 563d 2830 b93d 4a53 3a3e 7bdf d4be
00000300: 84fd f3be cfd2 c6bd e476 c43d e259 9e3c
00000310: 18bc c3bd 1d31 2fbe b01e bfbd 882b b23d
00000320: 5656 893d 4ce7 913e 8495 61be 9547 3a3d
00000330: e56d 8f3d cc88 1ebe 09ae 9f3d a6d3 753d
00000340: 6948 44be 27af 9abe cf3d 0c3e 9b7e f43d
00000350: 48d2 b43d 53c3 1cbe c8f9 84bd 09dd 293e
00000360: 859e 4abe 0d45 76be 03c4 4dbe dc62 27bd
00000370: 79d6 b03d 4e97 f4bd 29f1 0b3e e4e8 adbd
00000380: bc7b 51be f536 00be 7d1c c93d 6338 5fbe
00000390: 972b 9b3d ec16 913d b75f d6be 0681 053d
000003a0: e8f8 6fbe 1798 873e f6c1 1a3e 53d1 48bd
000003b0: b26d a83d c23e cdbd 8487 983e 0ffe f73e
000003c0: 18b3 003f c5ae 4bbe e5cf 7f3e 640a a3bb
000003d0: 2b84 d7bc 86af 393d c14d 06be cb9e bb3d
000003e0: e8a8 bc3d 5138 223e f4b0 80be 4f4a 01be
000003f0: 7c98 11be 85fe f63d f83f dfbd a3f3 d4be

network_body._body_endoder.seq_layers.0.bias f4 [128]
0.018582126 -0.019089544 -0.011025785 0.0809579 0.0010901847 0.010063422 0.031571917 -0.00564245
0.047128383 0.0069303983 -0.061130036 0.060260978 0.044034153 0.023366185 -0.02916208 0.036914688
0.07755539 0.022518056 0.01913251 0.045048993 -0.038697843 -0.023267463 0.011114072 0.05545701
0.0103645455 0.04904208 -0.0040615676 -0.03522587 -0.047722157 -0.029975606 0.03314897 0.0012595948
0.029964423 0.032850605 -0.0027786791 -0.02595886 -0.05633714 0.019873025 0.03242594 -0.033521697
0.035360105 -0.03846275 -0.03293508 0.007328064 0.034078006 -0.03981352 -0.008979526 -0.019287314
-0.023336548 0.012887379 -0.076048076 0.102022424 0.011311036 0.06958066 0.062316492 0.097057186
0.028014073 -0.027704583 -0.010257928 -0.024374252 -0.0536221 -0.01567538 0.02076324 0.0911614
-0.027342888 -0.0011223423 0.01886997 0.01438536 -0.04738286 0.047794398 0.05361406 -0.02464462
-0.045231525 -0.013166718 0.026223704 -0.011963128 0.034373853 0.0056930464 0.050571665 -0.10154861
0.03534402 0.02543527 0.0018446246 0.02345114 -0.022586469 0.0021344777 0.053235415 -0.038546167
0.09020873 -0.011534441 0.0064876378 0.056224044 -0.049338706 -0.008657741 -0.02089903 -0.016810462
-0.011962975 0.072001114 -0.0020820268 0.023903865 0.003374836 -0.04404708 0.048608616 -0.015639242
-0.014184844 -0.08703032 0.020437215 0.043968 -0.026253643 -0.059003815 -0.005816076 0.06026294
0.05982941 0.002117218 -0.020546637 -0.07126265 0.03525827 -0.0007453297 0.0075651696 0.04053953
0.041626293 0.042552017 -0.06425764 0.003522359 0.042081196 0.04862494 0.018561808 0.034894563
00000000: 8b39 983c ad61 9cbc 7ea5 34bc 41cd a53d
00000010: 87e4 8e3a 0de1 243c 8e51 013d 4de4 b8bb
00000020: b109 413d 6518 e33b 7d63 7abd 37d4 763d
00000030: 285d 343d 716a bf3c 50e5 eebc db33 173d
00000040: 5cd5 9e3d c977 b83c c8bb 9c3c 4b85 383d
00000050: a181 1ebd 689b bebc cc17 363c e426 633d
00000060: 0ed0 293c 59e0 483d e616 85bb 0049 10bd
00000070: 4f78 43bd 678f f5bc 37c7 073d fd18 a53a
00000080: f377 f53c 5b8e 063d 801a 36bb ada7 d4bc
00000090: c6c1 66bd c1cc a23c 10d1 043d 0c4e 09bd
000000a0: c2d5 103d 1e8b 1dbd efe6 06bd 4220 f03b
000000b0: 6195 0b3d 8013 23bd dd1e 13bc 6e00 9ebc
000000c0: 4a2c bfbc 9625 533c 18bf 9bbd 22f1 d03d
000000d0: ec51 393c 4e80 8e3d 943f 7f3d ebc5 c63d
000000e0: c57d e53c b9f4 e2bc de10 28bc 83ac c7bc
000000f0: d9a2 5bbd a869 80bc ac17 aa3c d4b2 ba3d
00000100: 31fe dfbc 8f1b 93ba 3295 9a3c 93b0 6b3c
00000110: 8814 42bd 0fc4 433d 6b9a 5b3d 84e3 c9bc
00000120: b144 39bd 38b9 57bc 18d3 d63c ff00 44bc
00000130: 99cb 0c3d bc8c ba3b 3c24 4f3d b8f8 cfbd
00000140: e4c4 103d a15d d03c 55c7 f13a 9b1c c03c
00000150: 4207 b9bc 98e2 0b3b 610d 5a3d 96e2 1dbd
00000160: 5bbf b83d f4fa 3cbc 4096 d43b 2f4b 663d
00000170: 6217 4abd 33d9 0dbc 7134 abbc 18b6 89bc
00000180: 5b00 44bc 5275 933d 9d72 08bb 0ad2 c33c
00000190: 5a2c 5d3b b66a 34bd d419 473d de1d 80bc
000001a0: 8c67 68bc f43c b2bd f26b a73c ca17 343d
000001b0: e111 d7bc fcad 71bd c894 bebb 46d6 763d
000001c0: af0f 753d 06c1 0a3b 6c51 a8bc 27f2 91bd
000001d0: fa6a 103d 3b62 43ba 3ee5 f73b c70c 263d
000001e0: 5580 2a3d 064b 2e3d 8299 83bd 61d7 663b
000001f0: 555d 2c3d f22a 473d ef0e 983c 9aed 0e3d

network_body._body_endoder.seq_layers.2.weight f4 [128, 128]
0.069645345 0.072597176 -0.16281037 -0.083916426 -0.070919216 0.053682778 0.13253222 -0.092391
0.095308796 0.017140692 0.00988343 -0.33979154 0.045359828 0.2517154 -0.03869894 -0.26752195
-0.13304244 -0.037426554 -0.01190968 0.15005732 -0.084875286 -0.06919531 -0.03189489 -0.1779457
0.08027063 -0.12654693 -0.11306216 0.11633859 -0.045618355 -0.10983255 -0.2108749 0.026597563
-0.031933367 0.29348272 -0.07033846 0.11889584 0.32761675 0.20421009 -0.0030857765 0.1177953
-0.27178416 0.0043298258 -0.20754106 0.21127996 0.03843735 -0.0016756265 -0.15341365 0.24509552
0.008528882 -0.06427076 0.09717354 -0.26817998 -0.11256226 -0.18794678 0.07363097 -0.22741862
0.20797803 0.16531208 0.1539779 0.15746714 0.06303046 -0.18493338 0.021606427 -0.11739561
-0.05811694 -0.22873567 0.07451851 -0.16170023 -0.14768332 0.2803096 -0.085889086 0.04392002
0.037675627 -0.017085448 0.11413074 -0.073950104 0.087321326 0.09234757 -0.02914784 0.0025030489
-0.14944486 0.015935974 -0.10872099 -0.24678443 0.11202125 0.1427021 0.074445315 0.1401609
-0.2037209 -0.058033947 0.02652058 -0.11324884 -0.004399795 -0.10280905 -0.03957039 -0.16604254
-0.1133484 -0.2323482 -0.16140668 0.014592341 0.10967721 -0.12292741 0.0019256381 0.03158094
-0.010453467 -0.11897172 0.017730607 0.03616197 0.19166915 0.08000432 0.029474936 0.05679919
-0.13721135 0.120829076 0.06777918 -0.02892659 0.19008787 0.14492142 0.13783315 0.005241639
0.050168972 -0.019439518 0.008688046 0.031479873 -0.10396191 -0.17077392 0.05169089 -0.1137405
-0.026762927 0.043038245 0.01303354 -0.037681308 0.02219111 0.084147684 0.1260453 0.06688603
-0.17041442 -0.004995537 -0.042919304 -0.057639714 -0.052838076 0.10771503 0.013078552 -0.10209496
0.0704812 0.052727226 -0.11241271 0.018870603 -0.026582971 -0.1420965 0.06784283 -0.02346922
0.09980063 0.117413126 0.03865625 -0.08257953 0.07243436 -0.11264364 -0.029697094 -0.13189074
-0.089070074 0.15491064 -0.0034053342 -0.022530153 -0.08532189 0.05939036 -0.06471309 0.21286188
-0.017782241 -0.012199962 -0.0016217902 0.12695393 -0.054665256 -0.018057773 0.11963439 0.1114673
0.013836198 -0.039011095 0.010516961 0.100962885 0.07794617 0.101925075 0.010474632 0.06700578
0.014210219 -0.08811348 0.16328475 0.058386363 -0.01386386 -0.09313963 0.04272774 -0.0045409193
0.03717174 -0.020948732 -0.03807536 -0.11736855 0.06733582 -0.04325162 0.020115674 0.041023396
0.015461243 0.095001385 -0.05298858 0.03303967 -0.047095776 -0.070490256 0.048593253 -0.022555249
-0.069183804 -0.12187793 0.085778944 0.0634909 0.022432009 -0.0012559094 -0.10433033 0.17871875
-0.099811725 0.16966109 0.051223878 -0.010057169 0.082775556 0.060515888 0.08479701 -0.08929472
0.051159263 -0.06822295 -0.08532157 0.030000858 -0.17392772 0.07975372 -0.1143955 -0.006947564
-0.16032672 -0.029821651 -0.044533882 0.021463765 -0.095748216 -0.17758264 0.0032464475 0.12181848
-0.06561657 0.2922324 -0.00907118 0.24084371 0.05289323 0.19823885 0.26186243 0.08380404
-0.11627464 0.015535074 -0.12247305 -0.16726315 0.013861711 0.039444704 -0.089948595 -0.018986013
00000000: 38a2 8e3d d4ad 943d c3b7 26be 60dc abbd
00000010: 183e 91bd 79e2 5b3d 87b6 073e 7e37 bdbd
00000020: 4231 c33d a36a 8c3c 1cee 213c 28f9 adbe
00000030: 3acb 393d d7e0 803e c882 1ebd a3f8 88be
00000040: 473c 08be 964c 19bd d220 43bc a0a8 193e
00000050: 18d3 adbd 45b6 8dbd 37a4 02bd 6637 36be
00000060: ee64 a43d 8595 01be 228d e7bd ed42 ee3d
00000070: 50da 3abd e3ef e0bd 97ef 57be 22e3 d93c
00000080: 90cc 02bd 5e43 963e 9c0d 90bd aa7f f33d
00000090: 62bd a73e 731c 513e bd3a 4abb aa3e f13d
000000a0: 4b27 8bbe 36e1 8d3b a585 54be c659 583e
000000b0: 7c70 1d3d b2a0 dbba 7818 1dbe 52fa 7a3e
000000c0: b9bc 0b3c 63a0 83bd ec02 c73d e34e 89be
000000d0: 0b87 e6bd 1f75 40be d6cb 963d 6de0 68be
000000e0: 31f8 543e 9247 293e 62ac 1d3e 113f 213e
000000f0: 1d16 813d 2d5f 3dbe f6ff b03c 1c6d f0bd
00000100: 070c 6ebd af39 6abe 299d 983d bf94 25be
00000110: 4c3a 17be bd84 8f3e 9ee6 afbd 7be5 333d
00000120: c251 1a3d c8f6 8bbc 61bd e93d 2773 97bd
00000130: 86d5 b23d b920 bd3d 73c7 eebc 310a 243b
00000140: 1308 19be 298c 823c 1ca9 debd 0fb5 7cbe
00000150: 666b e53d 8020 123e c976 983d 5786 0f3e
00000160: 369c 50be 01b5 6dbd b041 d93c 02ef e7bd
00000170: 282c 90bb 8d8d d2bd 9014 22bd 0e07 2abe
00000180: 3523 e8bd b0ec 6dbe cb47 25be b714 6f3c
00000190: 729e e03d 5ec1 fbbd b165 fc3a 045b 013d
000001a0: 0545 2bbc 72a7 f3bd c73f 913c 931e 143d
000001b0: eb44 443e 4ed9 a33d 6c75 f13c 44a6 683d
000001c0: 2281 0cbe 3c75 f73d d0cf 8a3d 75f7 ecbc
000001d0: 65a6 423e 4866 143e 2224 0d3e 0ec2 ab3b
000001e0: fb7d 4d3d a03f 9fbc 4e58 0e3c 0af1 003d
000001f0: fbe9 d4bd 5cdf 2ebe d4b9 533d c7f0 e8bd
00000200: ed3d dbbc df48 303d a18a 553c b757 1abd
00000210: 21ca b53c 9f55 ac3d 0512 013e 8bfb 883d
00000220: 1e81 2ebe 9ab1 a3bb 27cc 2fbd 9f17 6cbd
00000230: bd6c 58bd b399 dc3d 6c47 563c 2a17 d1bd
00000240: 7358 903d 81f8 573d a338 e6bd 8696 9a3c
00000250: 88c4 d9bc bf81 11be 2ff1 8a3d 8642 c0bc
00000260: 4664 cc3d 4b76 f03d 0456 1e3d 751f a9bd
00000270: 7758 943d b5b1 e6bd 5247 f3bc 5e0e 07be
00000280: 5f6a b6bd e5a0 1e3e 072c 5fbb 2891 b8bc
00000290: 3ebd aebd 4e43 733d 4c88 84bd 77f8 593e
000002a0: 10ac 91bc 59e2 47bc 4092 d4ba 3600 023e
000002b0: ade8 5fbd e5ed 93bc e002 f53d f848 e43d
000002c0: 38b1 623c 19ca 1fbd 554f 2c3c a1c5 ce3d
000002d0: 3ea2 9f3d 18be d03d ca9d 2b3c 543a 893d
000002e0: fad1 683c d774 b4bd 1e34 273e 8a26 6f3d
000002f0: 3e25 63bc febf bebd 4803 2f3d fecb 94bb
00000300: 6541 183d ad9c abbc e9f4 1bbd ec5e f0bd
00000310: 5de7 893d 9c28 31bd a0c9 a43c 2608 283d
00000320: 2751 7d3c 1690 c23d 8e0a 59bd 9b54 073d
00000330: 80e7 40bd 325d 90bd b809 473d c9c5 b8bc
00000340: 3db0 8dbd 239b f9bd dfac af3d 8407 823d
00000350: 55c3 b73c 549d a4ba 24ab d5bd 0c02 373e
00000360: 176a ccbd a3bb 2d3e 21d0 513d d3c6 24bc
00000370: 3b86 a93d 82df 773d 0eaa ad3d 26e0 b6bd
00000380: 608c 513d 79b8 8bbd 13bd aebd 5cc4 f53c
00000390: 1c1a 32be eb55 a33d 3048 eabd 64a8 e3bb
000003a0: b02c 24be 894c f4bc 2969 36bd c7d4 af3c
000003b0: a417 c4bd 39d8 35be 5ac2 543b f87b f93d
000003c0: fb61 86bd 7c9f 953e 499f 14bc bc9f 763e
000003d0: 92a6 583d 20ff 4a3e d512 863e 74a1 ab3d
000003e0: 6621 eebd d386 7e3c 27d3 fabd 0847 2bbe
000003f0: 3b1c 633c c590 213d f836 b8bd 8e88 9bbc

network_body._body_endoder.seq_layers.2.bias f4 [128]
-0.0041673374 -0.008491695 0.016770875 0.00416532 0.01985968 -0.053154655 -0.024154095 -0.043706775
-0.02226992 -0.015517617 -0.034033112 -0.019411663 0.027569605 -0.049460825 0.05236351 -0.031996984
-0.047823913 0.010114786 0.035612807 5.837182e-05 0.053762898 -0.04058236 0.06167164 0.010720751
2.879832e-05 0.012141281 -0.041407324 0.018260997 0.0024223744 0.03341233 -0.045658294 -0.01102433
0.020698976 0.024172861 0.09300459 0.027807659 0.0034127638 -0.006343483 0.0033697865 0.0522653
-0.039493676 0.05064445 -0.002066858 0.0029026803 -0.014180879 -0.0025064694 0.017845761 0.024505904
-0.04108219 0.06926247 -0.02780324 0.015758999 0.0055531426 0.08965349 -0.027263993 -0.027309341
0.05216496 0.011896099 0.0004560714 0.03603367 -0.023459258 0.02114992 -0.05327418 0.048214287
0.077179864 0.006018396 0.0051104263 0.016719513 0.009046699 0.003402687 0.048979256 0.045380253
0.0130517585 0.011333071 0.06569266 0.03585408 -0.0041018394 -0.027862089 0.066228755 -0.0047419583
0.0042838254 -0.023582177 0.04956524 -0.045234807 -0.009501447 -0.04342176 -0.039386686 0.016813973
-0.030821472 -0.023109159 0.01111162 0.07109205 0.042570908 0.036953777 -0.0010320599 0.00226409
0.0074240607 -0.03659613 -0.04312721 0.03649256 0.0035891335 0.052744605 -0.02804519 -0.025741061
0.060075216 0.03828853 0.015341787 0.020106062 -0.024667915 -0.024892202 0.034268923 0.08093674
0.019382391 -0.012690441 0.0376159 0.07975288 0.008901101 0.03025378 -0.0030759017 -0.00064330455
0.021855354 -0.006520248 0.029887283 0.0021784205 -0.04240132 0.00034103563 0.0037244307 0.014726833
00000000: 298e 88bb c020 0bbc 1363 893c 3d7d 883b
00000010: c5b0 a23c b2b8 59bd cfde c5bc e005 33bd
00000020: 686f b6bc 9a3d 7ebc 4e66 0bbd 3505 9fbc
00000030: a7d9 e13c 6f97 4abd 1f7b 563d 450f 03bd
00000040: 02e3 43bd 7db8 253c bcde 113d 44d4 7438
00000050: 7c36 5c3d b039 26bd 679b 7c3d 17a6 2f3c
00000060: ec93 f137 39ec 463c ba9a 29bd 1698 953c
00000070: b3c0 1e3b 5edb 083d 3104 3bbd 649f 34bc
00000080: e690 a93c 2a06 c63c 3179 be3d e3cc e33c
00000090: ada8 5f3b fedc cfbb a3d7 5c3b 2414 563d
000000a0: 1fc4 21bd 8e70 4f3d 2074 07bb e53a 3e3b
000000b0: eb56 68bc 9443 24bb 4631 923c 9bc0 c83c
000000c0: cc45 28bd 7bd9 8d3d 9fc3 e3bc 0419 813c
000000d0: 23f7 b53b 409c b73d bd58 dfbc d7b7 dfbc
000000e0: edaa 553d dbe7 423c de1c ef39 0b98 133d
000000f0: a12d c0bc 9942 ad3c 0736 5abd 587c 453d
00000100: 7a10 9e3d f735 c53b 5d75 a73b 5cf7 883c
00000110: 9b38 143c 9dff 5e3b 799e 483d a5e0 393d
00000120: 0bd7 553c 58ae 393c e089 863d badb 123d
00000130: b968 86bb 093f e4bc f1a2 873d 6e62 9bbb
00000140: 555f 8c3b 692f c1bc ec04 4b3d 2248 39bd
00000150: f5ab 1bbc 04db 31bd ef53 21bd 75bd 893c
00000160: 507d fcbc 6b4f bdbc 830d 363c b598 913d
00000170: d55e 2e3d d85c 173d 2f46 87ba 2161 143b
00000180: 8945 f33b d3e5 15bd 28a6 30bd 3979 153d
00000190: ab37 6b3b ba0a 583d 07bf e5bc ebde d2bc
000001a0: 6e11 763d 6fd4 1c3d 1e5c 7b3c 78b5 a43c
000001b0: 5e14 cabc bbea cbbc 925d 0c3d 29c2 a53d
000001c0: d2c7 9e3c 91eb 4fbc 2113 1a3d 7a55 a33d
000001d0: ecd5 113c c6d6 f73c 1195 49bb 70a3 28ba
000001e0: 000a b33c cea7 d5bb 2dd6 f43c d5c3 0e3b
000001f0: 02ad 2dbd 07cd b239 9415 743b d148 713c

action_model._discrete_distribution.branches.0.weight f4 [4, 128]
0.05681287 0.016515411 0.0143749975 0.016321294 0.0271751 0.0046549924 0.02667471 0.017340733
0.0013350662 0.01433124 -0.014183912 -0.023724511 -0.010284186 0.0040098242 -0.0061400486 0.0042159483
-0.008565746 -0.021185802 0.041900203 0.021946995 -0.005245893 -0.026475297 -0.041669637 0.001512847
-0.01256508 -0.025808824 -0.0006281888 -0.0030888582 0.041231874 0.0021486713 -0.009452058 0.030999877
0.0062210774 -0.029493354 -0.042240042 -0.0076860436 0.050001383 0.0029358577 0.01111213 -0.038344942
0.0287928 -0.028288905 -0.0077451244 0.070370376 -0.0011825914 0.018586569 0.024097588 -0.026634656
0.005686192 -0.057747375 0.005634291 0.016952896 0.026940795 -0.012601438 -0.0033810555 0.02302064
0.047634967 0.01069729 0.010197608 0.050202243 0.008732817 -0.022757739 -0.0077483417 0.024684992
-0.012017744 -0.04861289 0.0070012035 -0.013495072 0.0055553042 0.04505654 -0.007707459 -0.020846767
0.004921795 -0.007169664 -0.0621494 0.025506638 -0.017511677 0.00018746902 0.020788878 0.039665997
0.045904312 -0.024947485 -0.03667834 0.015025057 -0.0003996823 0.009820806 0.009851167 0.012466788
0.00032110658 0.003851169 0.038872387 -0.057669397 0.021291144 0.07126003 -0.002799277 0.0059535713
0.005026104 0.008940675 -0.008086344 -0.018046472 0.013684905 -0.021867402 -3.1335192e-05 0.0013118392
0.024941806 0.07796233 -0.030272787 -0.023224395 0.020439759 0.0005704225 -0.017377082 -0.014471843
-0.031877704 0.007200685 0.016991273 -0.03456473 -0.025848983 0.028222175 0.0060621942 -0.016644951
0.012860481 -0.0067231907 0.066011414 -0.033643667 0.007891993 0.049343616 0.0141827315 -0.018729178
-0.085214645 -0.004260448 -0.025437392 -0.043735936 0.03349138 0.0019562584 -0.005931906 -0.00508195
-0.00022030144 -0.024121331 -0.015606683 0.016371276 0.021764942 -0.0012897232 -0.053410437 -0.018905565
0.0013300818 -0.0075249514 0.0018986796 -0.05241194 0.045629974 0.0012183374 0.010926093 -0.08110353
-0.006100715 0.0017662817 -0.0039095036 -0.0025173367 -0.05954044 -0.0070490516 -0.0038167362 -0.04791441
-0.06389092 -0.0011370424 0.04954002 -0.004864406 -0.06999462 0.0040277382 -0.01713833 0.036195558
-0.013341912 0.093493916 0.010979259 -0.04642258 0.00047939233 -0.06207688 -0.04373708 0.016393887
-0.012462684 0.022677427 0.00086479436 0.009235773 -0.033945683 -0.0034122556 -0.010211432 -0.005253676
-0.018154794 -0.011317346 -0.028227739 -0.055134915 -0.005591891 0.0077323043 -0.01046369 -0.053942174
0.06794453 0.042490114 0.005424037 0.016360821 0.026471637 -0.03497432 0.032217707 -0.0005472688
0.013631678 0.0025546686 0.049825326 -0.053359084 0.0025129505 0.012460558 0.056658957 -0.091391
-0.06935082 -0.009579721 0.05773645 0.011160751 -0.009527518 -0.005642397 -0.002917485 -0.024199313
-0.00425395 -0.008640099 -0.04863257 0.059978 -0.027542155 0.0019586007 -0.0141164735 -0.075659975
-0.0047102403 -0.004310464 -0.011388165 0.023948392 -0.03873633 0.018327033 -0.00044127303 -0.009232943
0.007155728 -0.019040564 0.0144840665 0.0046253037 0.0066437633 0.006007657 -0.055789985 0.018044792
0.015366591 -0.010780428 -0.04654068 0.057286907 0.0053604464 -0.020218147 0.0136197405 0.009018622
-0.036161322 -0.008661661 -0.11716097 0.012766372 -0.0023296012 -0.10618008 -0.006126801 0.014626931
00000000: 9db4 683d 544b 873c 1c85 6b3c 3cb4 853c
00000010: 519e de3c e888 983b ec84 da3c 270e 8e3c
00000020: 63fd ae3a 94cd 6a3c a463 68bc e859 c2bc
00000030: 017f 28bc d864 833b 7632 c9bb f025 8a3b
00000040: 5857 0cbc d98d adbc 8c9f 2b3d 2fca b33c
00000050: bde5 abbb b9e2 d8bc c8ad 2abd b94a c63a
00000060: c4dd 4dbc 076d d3bc 09ad 24ba 716e 4abb
00000070: c1e2 283d b9d0 0c3b cedc 1abc 74f3 fd3c
00000080: 2eda cb3b 0c9c f1bc e503 2dbd 35db fbbb
00000090: 40ce 4c3d 8567 403b a70f 363c 960f 1dbd
000000a0: e1de eb3c 22be e7bc d0ca fdbb 581e 903d
000000b0: 2f01 9bba dc42 983c 4e68 c53c ec30 dabc
000000c0: 3c53 ba3b 8388 6cbd dc9f b83b cde0 8a3c
000000d0: f1b2 dc3c 4376 4ebc b394 5dbb c895 bc3c
000000e0: e21c 433d b043 2f3c de13 273c dea0 4d3d
000000f0: 1714 0f3c 706e babc cde5 fdbb 2e38 ca3c
00000100: 12e6 44bc 4f1e 47bd 5a6a e53b 6f1a 5dbc
00000110: 4509 b63b 358d 383d da8e fcbb d7c6 aabc
00000120: 0247 a13b 80ef eabb 5f90 7ebd 4cf3 d03c
00000130: a674 8fbc 5593 4439 704d aa3c d078 223d
00000140: 2906 3c3d ab5e ccbc 073c 16bd a82b 763c
00000150: 738c d1b9 72e7 203c ca66 213c 8041 4c3c
00000160: 325a a839 e563 7c3b a738 1f3d bf36 6cbd
00000170: c46a ae3c c7f0 913d 1374 37bb 2d16 c33b
00000180: 04b2 a43b e97b 123c 967c 04bc 32d6 93bc
00000190: a736 603c 4423 b3bc e86d 03b8 05f2 ab3a
000001a0: c252 cc3c b7aa 9f3d a3fe f7bc 1641 bebc
000001b0: 4871 a73c 6888 153a 625a 8ebc 4f1b 6dbc
000001c0: 3292 02bd b9f3 eb3b 4831 8b3c bf93 0dbd
000001d0: 3fc1 d3bc 3132 e73c 5fa5 c63b fe5a 88bc
000001e0: c4b4 523c 364e dcbb fe30 873d f1cd 09bd
000001f0: 6b4d 013c 881c 4a3d b05e 683c ef6d 99bc
00000200: 0485 aebd 3a9b 8bbb 1462 d0bc 7424 33bd
00000210: 422e 093d 9234 003b 6f60 c2bb 7d86 a6bb
00000220: b800 67b9 199a c5bc 2cb3 7fbc 0e1d 863c
00000230: 644c b23c ee0b a9ba e7c4 5abd d8df 9abc
00000240: 2456 ae3a de93 f6bb 1edd f83a e7ad 56bd
00000250: 7fe6 3a3d 9fb0 9f3a 5b03 333c 9c19 a6bd
00000260: 82e8 c7bb 9482 e73a 4b1b 80bb e7f9 24bb
00000270: ade0 73bd bbfb e6bb 3522 7abb e641 44bd
00000280: 3ed9 82bd d008 95ba 7aea 4a3d 9865 9fbb
00000290: 5759 8fbd 1efb 833b af65 8cbc cb41 143d
000002a0: 0998 5abc bd79 bf3d 5ae2 333c 9a25 3ebd
000002b0: f356 fb39 5444 7ebd a725 33bd 794c 863c
000002c0: 4930 4cbc 03c6 b93c 5eb3 623a a451 173c
000002d0: a10a 0bbd 26a0 5fbb da4d 27bc 0727 acbb
000002e0: 5db9 94bc 646c 39bc dc3d e7bc 26d5 61bd
000002f0: 2e3c b7bb 455f fd3b e66f 2bbc 78f2 5cbd
00000300: 8026 8b3d 1d0a 2e3d 1fbc b13b 2107 863c
00000310: 0cdb d83c 3c41 0fbd b7f6 033d 9676 0fba
00000320: 6757 5f3c 3a6c 273b a415 4c3d 0e8f 5abd
00000330: 50b0 243b 5e27 4c3c 3913 683d 342b bbbd
00000340: cd07 8ebd 43f4 1cbc 0e7d 6c3d 95db 363c
00000350: 4f19 1cbc dbe3 b8bb 4733 3fbb a33d c6bc
00000360: b864 8bbb 348f 0dbc f232 47bd 7eab 753d
00000370: 16a0 e1bc de5b 003b c848 67bc 9ef3 9abd
00000380: 5c58 9abb cb3e 8dbb 6d95 3abc 6b2f c43c
00000390: fca9 1ebd 9322 963c aa5a e7b9 c545 17bc
000003a0: 997a ea3b f5fa 9bbc 944e 6d3c dc8f 973b
000003b0: edb3 d93b e1db c43b 0a84 64bd acd2 933c
000003c0: 27c4 7b3c 64a0 30bc 71a1 3ebd ada5 6a3d
000003d0: afa6 af3b 87a0 a5bc 5525 5f3c d8c2 133c
000003e0: e51d 14bd a4e9 0dbc 17f2 efbd 0c2a 513c
000003f0: 39ac 18bb f174 d9bd 55c3 c8bb cca5 6f3c

action_model._discrete_distribution.branches.0.bias f4 [4]
-0.013894539 0.020136053 -0.009418872 -0.0058170543
00000000: eca5 63bc 5df4 a43c 9d51 1abc fd9c bebb

action_model._discrete_distribution.branches.1.weight f4 [3, 128]
0.021506147 0.023475979 0.046165053 0.019708287 -0.024935652 0.0074267834 0.034452144 0.0031533516
0.0035185034 0.005556216 0.002579601 0.050283436 0.0038804717 0.010873396 -0.0062229927 -0.00264172
0.004076209 0.03718105 -0.044738367 0.03232587 0.024774367 0.016003385 -0.02065119 0.020401325
0.021822989 0.0064214217 0.002474646 0.011016957 0.03306457 0.0039295475 0.022412421 0.022493592
0.0209128 0.046570837 -0.042497918 0.011095867 0.031677928 0.009724237 -0.0143320095 -0.018957637
0.03310141 -0.03042481 0.009217195 -0.024331937 0.025850542 0.014236147 0.011485528 0.009827734
0.030957969 -0.021103512 0.021671353 -0.0072752554 0.025132632 -0.0031411531 0.009333263 0.015637496
-0.035194226 -0.020017684 -0.015768252 -0.0077862088 0.020288402 -0.0064092977 0.0052791582 -0.036558643
-0.050908856 0.06083349 -0.015625324 0.02498298 0.011203223 0.013146846 -0.007337601 -0.014303344
-0.009786428 0.027115779 -0.023247419 -0.0005436529 0.02721783 0.031679176 -0.008953404 0.05551071
0.012861895 0.010776803 -0.04905633 0.028730944 0.017688101 0.011386605 0.013163805 -0.023146477
0.014698007 0.016449442 -0.0021413858 -0.018037481 -0.058082856 -0.06482533 0.020674352 0.033182673
-0.024980055 0.009520806 0.04767728 0.040356725 0.014957515 -0.020231532 0.0014003896 0.0011841636
-0.091651686 -0.06003545 0.0034377198 0.0034332178 0.0059319288 0.037961554 -0.01371368 -0.034540284
0.017885437 0.015869735 0.019715197 -0.04183711 0.056878824 -0.026892211 0.032419834 -0.0034616082
0.033773623 0.024900975 0.006262592 0.0385049 0.008425187 0.03571595 -0.025849383 0.0016416629
-0.0032531503 -0.01850932 -0.030979663 -0.019932808 -0.003075547 -0.010943674 -0.039616514 -0.0068300175
-0.013235003 -0.013526692 -0.022195458 -0.002175867 0.006905084 -0.008784525 -0.022125104 -0.018898182
-0.006888743 -0.0077820197 -0.0022339995 -0.0321373 0.012420424 -0.00698973 -0.04048046 -0.036691524
-0.022160565 0.00074755284 -0.008925904 -0.024388338 -0.027676541 -0.0018081834 -0.005904377 -0.031414956
-0.06258998 -0.04956195 -0.061885923 -0.0085539725 -0.011957071 -0.037496373 -0.020336434 -0.06273843
-0.0035334704 -0.04160791 -0.059455257 0.017611934 -0.005757172 -0.020630449 -0.032027207 0.02184309
-0.008913036 -0.07859535 0.0025404165 -0.0006562996 -0.030553922 -0.060442794 -0.007464212 -0.0196358
-0.011079897 -0.0055944705 -0.018618759 0.008868665 -0.007972311 0.009014716 -0.0058941212 -0.014479087
-0.056693114 -0.0723143 0.011563635 -0.07477994 0.034943026 -0.016525015 0.0060742414 -0.0036482401
0.005289879 0.012640993 -0.082538776 -0.006266366 -0.008669669 -0.016538916 -0.06379981 -0.03654609
-0.011569859 -0.024664983 -0.083651446 0.013999323 0.00042401836 0.00020427947 -0.027868873 0.006135615
-0.010663384 -0.011600394 -0.015078453 -0.04082047 0.0344819 0.030195966 -0.033960488 -0.03743549
-0.010064159 -0.007934079 -0.020914964 -0.02902822 -0.02841493 -0.01554566 -0.0058223554 -0.0017563674
-0.021353902 0.048636477 -0.0069488715 0.007597054 -0.0077345306 -0.010812151 -0.04133828 -0.0511397
0.020773713 -0.017354568 -0.016691253 -0.05311334 -0.023679463 -0.055834312 0.005282436 -0.0040153214
-0.044413146 -0.025935106 0.005829679 -0.029073322 -0.010045035 -0.014704752 0.0027336113 0.011904085
00000000: a92d b03c b250 c03c 9117 3d3d 4673 a13c
00000010: da45 ccbc 605c f33b b11d 0d3d 76a8 4e3b
00000020: b196 663b eb10 b63b 860e 293b 01f6 4d3d
00000030: 834f 7e3b 5426 323c 3fea cbbb b520 2dbb
00000040: b891 853b 284b 183d 943f 37bd 2268 043d
00000050: 9df3 ca3c 8819 833c af2c a9bc ae20 a73c
00000060: 20c6 b23c ca6a d23b ac2d 223b 7880 343c
00000070: b76e 073d 6fc3 803b 419a b73c 7b44 b83c
00000080: 5251 ab3c 10c1 3e3d 4c12 2ebd 70cb 353c
00000090: b7c0 013d 6852 1f3c ced0 6abc 0c4d 9bbc
000000a0: 5895 073d 733d f9bc b803 173c c553 c7bc
000000b0: 84c4 d33c ba3e 693c cc2d 3c3c 8104 213c
000000c0: 919b fd3c 46e1 acbc 1f88 b13c 4465 eebb
000000d0: f3e2 cd3c cedb 4dbb 8bea 183c 351a 803c
000000e0: d227 10bd 20fc a3bc 6c2c 81bc 7423 ffbb
000000f0: dd33 a63c 1605 d2bb cafc ac3b 84be 15bd
00000100: ce85 50bd 8a2c 793d ae00 80bc 1ba9 cc3c
00000110: b98d 373c de65 573c 4270 f0bb 9358 6abc
00000120: 4157 20bc e921 de3c 5f71 bebc ee83 0eba
00000130: edf7 de3c 06c2 013d 4cb1 12bc 335f 633d
00000140: b3ba 523c 3091 303c 4aef 48bd 285d eb3c
00000150: a3e6 903c e28e 3a3c 00ad 573c ae9d bdbc
00000160: e9cf 703c fbc0 863c 7e56 0cbb 57c3 93bc
00000170: 4ae8 6dbd 25c3 84bd 425d a93c 8eea 073d
00000180: f9a2 ccbc 28fd 1b3c 4049 433d 184d 253d
00000190: 5d10 753c 99bc a5bc 478d b73a f035 9b3a
000001a0: e1b3 bbbd bbe7 75bd 5e4b 613b d6ff 603b
000001b0: a060 c23b 937d 1b3d 58af 60bc 1d7a 0dbd
000001c0: 7b84 923c 3f01 823c c481 a13c 645d 2bbd
000001d0: c5f9 683d 0e4d dcbc a9ca 043d 26dc 62bb
000001e0: 3656 0a3d 21fd cb3c 6e36 cd3b 50b7 1d3d
000001f0: cc09 0a3c e34a 123d 16c2 d3bc 112d d73a
00000200: ce32 55bb dca0 97bc 10c9 fdbc 214a a3bc
00000210: 1e8f 49bb 184d 33bc ed44 22bd 57ce dfbb
00000220: a0d7 58bc 0f9f 5dbc 40d3 b5bc fe98 0ebb
00000230: 0b44 e23b f8ec 0fbc b53f b5bc 5cd0 9abc
00000240: f7ba e1bb 5000 ffbb 4b68 12bb 67a2 03bd
00000250: 097f 4b3c 1b0a e5bb d7ce 25bd da49 16bd
00000260: 138a b5bc 6cf7 433a f43d 12bc 0dca c7bc
00000270: eab9 e2bc 9100 edba 8179 c1bb f8ac 00bd
00000280: 2d2f 80bd 7901 4bbd 187c 7dbd f625 0cbc
00000290: 97e7 43bc cc95 19bd 9898 a6bc 027d 80bd
000002a0: cc91 67bb 0e6d 2abd 5b87 73bd e746 903c
000002b0: a9a6 bcbb 3001 a9bc f62e 03bd 48f0 b23c
000002c0: fc07 12bc 99f6 a0bd 1e7d 263b 850b 2cba
000002d0: 384c fabc dd92 77bd 5996 f4bb 42db a0bc
000002e0: 7588 35bc d251 b7bb 5e86 98bc e14d 113c
000002f0: 4c9e 02bc 76b2 133c 7923 c1bb b139 6dbc
00000300: 0a37 68bd 8519 94bd 6775 3d3c 3a26 99bd
00000310: 6b20 0f3d 785f 87bc 6e0a c73b 5017 6fbb
00000320: b956 ad3b 2b1c 4f3c 170a a9bd 1756 cdbb
00000330: 3a0b 0ebc 9f7c 87bc 7aa9 82bd 5ab1 15bd
00000340: 828f 3dbc 380e cabc 7351 abbd 6b5d 653c
00000350: c84e de39 da33 5639 434d e4bc 450d c93b
00000360: 79b5 2ebc 940f 3ebc 9e0b 77bc 5d33 27bd
00000370: e53c 0d3d 885d f73c 271a 0bbd f555 19bd
00000380: 24e4 24bc f0fd 01bc dc55 abbc 97cc edbc
00000390: 6dc6 e8bc 39b3 7ebc 75c9 bebb e935 e6ba
000003a0: 61ee aebc 0b37 473d 5cb3 e3bb b5f0 f83b
000003b0: f271 fdbb 7325 31bc 5452 29bd dd77 51bd
000003c0: a22d aa3c 2b2b 8ebc 18bc 88bc 608d 59bd
000003d0: 6ffb c1bc 85b2 64bd 4918 ad3b f592 83bb
000003e0: 8fea 35bd dc75 d4bc e406 bf3b 2d2b eebc
000003f0: ee93 24bc 33ec 70bc 6326 333b 5a09 433c

action_model._discrete_distribution.branches.1.bias f4 [3]
-0.035740547 -0.00020615954 0.037618227
00000000: ae64 12bd 882c 58b9 9215 1a3d
