Assets/My Behavior.onnx (onnx, 92206 bytes, 9 tensors)

discrete_act_size_vector f4 [1, 2]
000000 00 00 80 40 00 00 40 40
       4.0 3.0

network_body._body_endoder.seq_layers.0.weight f4 [128, 29]
000000 64 a3 85 bc 15 a7 04 3e 36 78 eb 3c e1 bb 7b 3d
       -0.016313262 0.12954362 0.028743844 0.061458472
000010 39 ea b6 bc 38 a0 9f 3e c5 39 93 be b0 cb 61 3e
       -0.022328483 0.31176925 -0.28755012 0.22050357
000020 4e aa fe 3d ee b3 dd 3d 63 e3 8e bd 3e 4e e0 3d
       0.12434827 0.108253345 -0.06976964 0.109524235
000030 be d7 8f 3e b2 96 a2 3d 22 64 be 3c af 90 8c be
       0.28094286 0.07938899 0.023241106 -0.27454135
000040 87 62 5e 3e ae 7e 9d bd 79 ff 2c bd 93 86 4c be
       0.21717273 -0.07690178 -0.042235825 -0.19973211
000050 e5 91 0a be 79 a6 df 3d 8d 27 3e be ba cc 82 bd
       -0.13532217 0.10920424 -0.18569775 -0.06386705
000060 de 3d f5 bd d7 75 39 bd f0 d2 03 3e 99 30 7a bb
       -0.11974691 -0.045278396 0.12873435 -0.003817594
000070 10 a7 db 3d 0e 27 da bd a6 09 8d bd 6a 99 4a be
       0.10725224 -0.1065198 -0.06886606 -0.19785085
000080 61 ce 28 be 78 52 cc be 82 8e 88 3d 82 64 16 be
       -0.16484977 -0.3990667 0.06667806 -0.14686778
000090 d6 26 6f bd 97 71 37 bd ab 84 27 3d 64 f5 ab 3d
       -0.058386646 -0.044786062 0.040898006 0.08396414
0000a0 7d 66 f9 bd b4 31 3b 3e 7d 66 1c be e3 ca 9b 3d
       -0.12177751 0.18280679 -0.15273471 0.07607057
0000b0 1e 48 36 bd 80 5e e6 3c 2f 2f 23 be 71 db d1 3d
       -0.04450237 0.028121233 -0.15935968 0.10246933
0000c0 c3 0b 11 be 9f 5d 40 be 46 10 c0 3c b4 2e 17 be
       -0.14164643 -0.18785714 0.02344526 -0.1476391
0000d0 77 fa c3 3c 2b fb a8 be 76 b1 98 be 5f 4b 6f 3d
       0.023923142 -0.33004126 -0.29822892 0.05842149
0000e0 82 b3 30 3e 22 ad a5 bd b9 d1 0c bd 4d 79 c2 bc
       0.17255977 -0.08089663 -0.034379695 -0.023739481
0000f0 89 32 e8 3d 35 88 06 3d 58 49 98 3d 8f cc 0e 3c
       0.11337764 0.03284474 0.07435864 0.008715763
000100 c2 3a ae bd 34 79 80 be 37 12 29 be ff 55 ae bd
       -0.08507301 -0.2509247 -0.16510855 -0.08512496
000110 d1 81 9d 3d 81 42 ee bd b9 98 51 be 31 3b 31 3d
       0.07690776 -0.11633778 -0.20468415 0.04326934
000120 2e 50 b9 3d 69 cc fe 3c c8 53 11 be c1 fb 95 be
       0.09048496 0.03110333 -0.14192116 -0.29293635
000130 1d 82 fb bd bf d3 89 bd bf da ed 3b 88 1a 8e 3d
       -0.122806765 -0.067298405 0.0072587426 0.06938654
000140 92 9c 55 bd 3b b2 01 be 67 55 a9 be 7f 95 e0 3d
       -0.05215127 -0.12665646 -0.3307297 0.10966014
000150 54 34 7e bd 99 5f bb 3d e2 33 cd bc ea dd 72 bd
       -0.062061623 0.09149093 -0.025049154 -0.059293665
000160 43 47 9f bd 9c e7 67 bd ce 2d ed 3d f8 5d 65 3e
       -0.07777264 -0.056617364 0.11581002 0.22399127
000170 0f a6 08 3e 1c 25 2e be 72 e6 b7 bc 24 86 1f be
       0.13344596 -0.17006344 -0.022448752 -0.15578514
000180 5b 69 bb be 51 76 76 3e 2a 3f 23 bc 46 36 49 bd
       -0.36603817 0.24068572 -0.00996379 -0.049124025
000190 18 29 82 be 2a ab 7b 3d e8 ca fb 3d 4a 09 6e 3c
       -0.25421977 0.06144253 0.12294561 0.014528582
0001a0 7b 49 ed 3e de 5b 9c be 86 2f e0 3c 16 b1 0d 3c
       0.46345124 -0.3053884 0.027366411 0.008648178
0001b0 d2 4a 12 be 38 5a 18 3e 53 b3 97 be 99 06 f3 bd
       -0.14286354 0.14878166 -0.29629 -0.11866493
0001c0 42 5f c9 bc 32 db 2b 3e a1 fb a8 3b 76 a3 c1 bd
       -0.024581555 0.16782835 0.0051569496 -0.09455006
0001d0 6d 03 ab 3d 7f 7c 27 be e6 81 f7 3e b9 e2 2b be
       0.08350263 -0.16356085 0.48341292 -0.16785707
0001e0 dd 50 2e 3e 04 20 84 be f7 ae 43 bd 9f 19 e3 bd
       0.17023034 -0.25805676 -0.04777428 -0.11088871
0001f0 97 00 fd ba 5e 04 c5 3d 05 f9 77 be 5c 4b 17 3e
       -0.0019302544 0.096199736 -0.24216087 0.14774841
000200 f5 70 4d bc bd b8 80 bd 11 b7 05 be 25 92 86 bc
       -0.012539138 -0.06285236 -0.13058116 -0.016427109
000210 79 5b be 3d 0a e2 8f 3b df 04 43 be 85 48 69 be
       0.09294791 0.0043909596 -0.19044827 -0.2278157
000220 8d 81 5b 3e 54 ea fc 3d 72 f1 c4 3e 69 76 53 3e
       0.21436138 0.12349382 0.38465458 0.20650639
000230 a4 d8 55 3e 93 29 33 bf 6b 9b 42 3e 59 97 05 be
       0.20883423 -0.6998531 0.190046 -0.13046016
000240 f7 0f 97 3c 0d b3 d6 3e b2 87 aa 3c 8f ac 87 be
       0.01844023 0.4193348 0.020816658 -0.2649884
000250 77 f8 75 3e f7 39 f3 3d de d7 55 3e 1f 1f 47 bc
       0.24020563 0.1187629 0.20883128 -0.012153416
000260 75 b5 24 3e e5 76 72 3d 32 cb 0c 3e cf 4f a4 bd
       0.16084845 0.059195418 0.13749388 -0.08023035
000270 92 0a 4d 3e 17 d7 1b 3e 93 e0 3d bd aa 57 f9 3c
       0.20023564 0.15218769 -0.04635675 0.03043731
000280 e9 33 20 be 3b 49 d5 3d 3f cb 0c 3e e9 b3 68 3e
       -0.15644802 0.10414358 0.13749407 0.2272488
000290 a7 d4 3f be 69 66 d2 3d 4b e6 c1 3e ea d2 52 be
       -0.18733464 0.102734394 0.37871012 -0.2058827
0002a0 6a 73 38 bc 4c ef 86 3d d9 fd 70 3e 8f 0b 08 3e
       -0.011257986 0.06588611 0.23534335 0.13285659
0002b0 4a d1 b9 3e 0b 17 70 be d8 30 cd 3b b8 4a d6 3d
       0.36292487 -0.2344629 0.006261926 0.1046347
0002c0 7a 2b ac 3d f5 6d b0 3d b4 f7 74 be 97 1b bf 3c
       0.0840673 0.08614723 -0.23922616 0.023328586
0002d0 ca 5e 14 3d 23 0f 92 be 1f 33 b9 3d f1 28 97 3d
       0.03622321 -0.28527173 0.09042954 0.07380856
0002e0 c6 b8 3c 3e 77 fc 60 be b3 c2 1e 3e 15 be 9e 3c
       0.1842986 -0.21971308 0.1550396 0.019377748
0002f0 11 34 7e be f4 6b ce be b2 c8 96 3d 6e c9 86 be
       -0.2482455 -0.40316737 0.07362498 -0.26325554
000300 70 66 0f 3d 17 60 3b 3e ca f9 e2 3d 03 d7 c2 be
       0.0350098 0.18298374 0.110828 -0.38054666
000310 47 7f 15 be 84 79 94 3d 1d 49 33 bd c7 00 c6 ba
       -0.14599334 0.0724974 -0.043770898 -0.0015106433
000320 56 9d 2c be b2 9b ac bd b7 b0 56 3e 12 ac 84 3d
       -0.16856894 -0.08428134 0.20965849 0.06478132
000330 09 49 9e bb 77 8c a9 bd d2 2b 54 3e 73 39 00 3e
       -0.004830484 -0.08278745 0.20719841 0.12521915
000340 7a a5 b8 bd 5f ff b5 3c 6d a4 12 bd ea be a5 3d
       -0.09015937 0.022216497 -0.03580134 0.080930546
000350 17 64 87 be 16 05 b2 3e f1 27 c4 bd 93 df 6b be
       -0.2644355 0.34769505 -0.09577931 -0.23034506
000360 b0 17 8c be 75 d3 4d be 62 86 0e 3c 15 ed 1a bd
       -0.27361822 -0.20100196 0.008699032 -0.037823755
000370 11 95 8a 3d 6f 7d ca bd d6 b4 00 3e 29 3c c4 be
       0.067667134 -0.09887206 0.12568983 -0.3832715
000380 cd be e1 bc 08 2b 2b be 03 97 85 3e d0 9c 9e be
       -0.027556801 -0.16715634 0.26091775 -0.30979013
000390 a9 7c 1f 3e 95 d0 ee 3c 7a 44 5c 3d 03 56 d0 bd
       0.15574898 0.029152194 0.05377624 -0.101726554
0003a0 fd f4 4d 3e 91 92 32 3e 37 60 e0 be 5d f6 db bd
       0.20112987 0.17438723 -0.43823406 -0.107403494
0003b0 ef 0c 7c 3e 23 c2 5f be e4 32 58 3e 9e 1e a3 bd
       0.24614309 -0.21851401 0.21113163 -0.07964824
0003c0 d5 ab 45 3e cc 94 87 3e de 55 b5 3c bc 1d 08 3d
       0.1930383 0.2648071 0.022135671 0.033231482
0003d0 f1 1c b8 bd 43 86 73 3e e4 b7 1c be c8 0a b8 be
       -0.08989895 0.23781686 -0.15304524 -0.35945725
0003e0 03 d8 d8 3d 88 99 29 be f7 00 c0 3d 9f bb e9 bb
       0.10588076 -0.16562474 0.09375184 -0.007132962
0003f0 58 6f f4 bd 7e 67 a3 3e d9 c8 83 3e 6b 69 59 3e
       -0.119353 0.31914896 0.25739172 0.2123162

network_body._body_endoder.seq_layers.0.bias f4 [128]
000000 72 96 8f ba 56 f7 7f 3a b8 1e 47 bb 25 d0 d3 3a
       -0.001095487 0.0009764334 -0.00303833 0.0016160054
000010 ec d0 fe 39 1b 89 ca 39 cc f7 8a 39 48 5e 14 3a
       0.00048602314 0.00038630594 0.00026506034 0.0005659801
000020 a1 c8 84 ba 15 0c 52 3b 47 4f b6 3b f9 fd 84 3a
       -0.0010130593 0.0032050658 0.00556365 0.001014649
000030 75 d3 a3 3a d6 06 dd 39 30 82 a0 3b 9c 5c c1 39
       0.0012498932 0.00042157498 0.004898332 0.00036880828
000040 1a 63 47 3b 05 56 d4 3b 4b 51 9c 3b e9 01 ad 3b
       0.003042406 0.006479981 0.004770433 0.0052797687
000050 31 96 fb 39 ac ab 3c 3b 1b e8 66 bb dd e3 2e 3b
       0.00047986352 0.0028788848 -0.003523356 0.002668611
000060 fa 54 26 3b 7e 63 e8 3a fd 80 a6 3a 36 28 f4 3a
       0.002538024 0.0017729846 0.0012703236 0.0018627706
000070 9e bc 4d 3b ed a3 16 3a b4 a8 10 bb e0 95 b5 3a
       0.0031392942 0.0005746473 -0.002207321 0.001385387
000080 10 6d b7 b9 54 fe 52 bb 28 98 ae bb ca da 05 3b
       -0.00034985738 -0.0032195048 -0.005328197 0.0020424598
000090 45 2e 8b 3b 46 1d 69 bb d6 2b 37 3b 61 0a 9d 3b
       0.004247459 -0.0035570427 0.0027949712 0.004792497
0000a0 bd 5e f5 ba 9d 0a 72 bb ce 13 95 3a 5f a3 a3 3a
       -0.0018720251 -0.0036932596 0.00113737 0.0012484601
0000b0 1e b1 b0 bb b4 8d 0a 3b 2a 9c 53 ba 4e 6f 79 bb
       -0.0053922078 0.002114159 -0.00080722815 -0.0038060728
0000c0 29 8c ad ba f0 99 22 bb 88 87 2b b9 6f 20 6e 3a
       -0.0013240624 -0.0024810992 -0.0001635832 0.00090838125
0000d0 31 09 24 ba a9 cf 03 3b cb b2 ae 39 ce 7d 9f 3a
       -0.0006257473 0.0020112789 0.00033321077 0.001216823
0000e0 90 51 85 3b 6b 2a 2c b9 cd 9e 0d bb 2c 2b 38 3b
       0.004068561 -0.00016419 -0.0021609545 0.0028101904
0000f0 94 62 61 bb 21 db c9 39 9e cf 11 3b 23 cd ef 3a
       -0.0034391033 0.0003850097 0.0022248994 0.0018295388
000100 b1 51 51 bb 1f 31 1a 3b 86 e6 dc ba 12 98 1a bb
       -0.003193956 0.0023527814 -0.0016853369 -0.0023589176
000110 e4 65 4c 3b 6f 86 82 3b 73 05 67 3b d2 3d 84 ba
       0.0031188661 0.003983311 0.003525105 -0.0010089225
000120 18 c7 03 bb 6e 5c 9d 3a 79 c9 61 ba 52 14 97 3b
       -0.0020107683 0.0012005696 -0.00086130906 0.0046105767
000130 45 c3 64 3b 59 ca 11 bb a8 67 84 bb 18 1c 85 ba
       0.0034906429 -0.0022245853 -0.004040677 -0.0010155467
000140 ac ac 7d ba 91 b1 10 3b c2 40 a0 b9 bd 78 10 bb
       -0.0009676914 0.0022078494 -0.00030565826 -0.0022044622
000150 2e bd f1 ba 79 3f 36 b9 6c 2e eb 3a 32 84 0f bb
       -0.0018443221 -0.00017380518 0.0017942912 -0.0021898863
000160 7f 61 27 3b 1a 05 dd 3a 98 42 97 bb 86 11 22 3a
       0.002554029 0.0016862482 -0.004616093 0.0006182421
000170 de fd 10 3b 4d 7b c3 3a e2 7f 23 3b 47 9f 57 3a
       0.0022123973 0.0014914066 0.002494805 0.00082253333
000180 2b b2 85 3b 60 6a d4 3b 08 95 83 bb 1d 20 80 3a
       0.004080077 0.0064824075 -0.0040155686 0.0009775196
000190 cc 86 ba 3a 10 b6 30 3b 1c 4d 66 3a e7 dd 63 bb
       0.0014230846 0.0026963986 0.0008785294 -0.0034769715
0001a0 f3 0b 5f bb 6d 3f b8 bb 7d 6a 23 3a 96 fe a4 39
       -0.0034034222 -0.0056227953 0.00062338245 0.000314702
0001b0 2b be 90 ba da 93 44 bb 3d c1 16 bb b8 c1 97 3b
       -0.0011043003 -0.0029995353 -0.0023003363 0.0046312474
0001c0 fb 09 97 bb 3c 6d a9 bb 10 4a 3e 3b f2 b6 a6 bb
       -0.004609344 -0.0051704925 0.0029035844 -0.0050877267
0001d0 a8 3b b1 ba 6f d6 90 ba 4b 48 8c ba 68 3e 23 bb
       -0.0013521807 -0.0011050234 -0.0010702697 -0.0024909023
0001e0 23 28 7b ba c8 23 cd ba 8e 2f 5d 3a 20 bf db 3a
       -0.0009580871 -0.0015650922 0.0008437567 0.0016765334
0001f0 70 d4 fb ba 68 47 0d 3b 10 f5 64 bb d5 22 8c bb
       -0.0019213092 0.0021557454 -0.0034936108 -0.0042766132

network_body._body_endoder.seq_layers.2.weight f4 [128, 128]
000000 5f e7 64 3c cf 20 0d 3e 65 a6 8b 3d 1a 0c 30 3c
       0.013971179 0.13782047 0.068188466 0.010745073
000010 d8 bd 13 3e 9d e8 af 3c df 0d 4b be 34 8c eb 3d
       0.14427888 0.021473223 -0.1982951 0.11501351
000020 9e 91 31 3d 6f e6 16 be ab 3d 8f 3d 71 b1 b3 3d
       0.043351762 -0.14736341 0.06994184 0.08774079
000030 60 4d 78 3b 33 f9 18 be 4a ec cc 3d e5 a4 8f 3d
       0.0037887916 -0.14938812 0.10006006 0.07013873
000040 3a b1 5e bd 33 70 9a bc 7a 80 9f 3d a4 f0 06 3d
       -0.054368235 -0.018852329 0.07788177 0.032944337
000050 e1 85 0d bb 53 b1 a5 3d b2 3f 1e bd 90 47 b3 bd
       -0.002159469 0.080904625 -0.038634963 -0.08753884
000060 d9 0e 42 bd 35 fa 91 3b 97 2c 18 be c8 9b 7a bd
       -0.04737744 0.004454876 -0.1486076 -0.06118372
000070 ed d6 63 bd 6c 84 63 bd 6a b2 7e bd 45 54 f8 bd
       -0.05562489 -0.05554621 -0.062181868 -0.12125448
000080 18 4c fe bd bb 67 40 bc 2c 37 0a 3e 97 d9 0e be
       -0.124168575 -0.011743481 0.13497609 -0.13950191
000090 f3 0b a6 bd 98 f8 ba bd 98 76 8c bc 58 95 3e 3d
       -0.08107748 -0.09129447 -0.017146394 0.046529144
0000a0 95 ca 7c bd 70 2f 99 3d d3 fc b8 bc b6 aa 04 bd
       -0.061716635 0.07479751 -0.022581493 -0.032389365
0000b0 03 b3 c2 3c 8f 70 9e bd 75 60 27 3d de 05 07 3e
       0.023767 -0.077363126 0.040863473 0.13185832
0000c0 e7 b4 7a 3d 0e 92 07 be 24 1b 76 bd 64 01 c3 3d
       0.06120768 -0.13239309 -0.060084477 0.095217496
0000d0 41 03 c9 bd 56 37 97 3d 0b 4e 5d 3b e4 d0 a1 bd
       -0.09815074 0.07383601 0.003376844 -0.07901171
0000e0 89 9f 25 3d b2 37 90 bd 2b 4f b7 bd 2f f9 5c 3d
       0.040435348 -0.07041873 -0.08950647 0.053948577
0000f0 da b3 1f 3d 6d 59 82 bb af a4 13 be a1 4d 81 bd
       0.03898988 -0.0039779455 -0.1441829 -0.06313635
000100 16 13 28 3e fc e1 56 bd fd c6 c0 bd a1 b6 1e be
       0.1641353 -0.05246161 -0.09412954 -0.15499355
000110 6e 87 b6 3c 4b 40 42 bd b7 25 20 3d 01 64 32 bd
       0.022281375 -0.047424596 0.039098468 -0.043552402
000120 1c 26 a1 ba e1 a1 7e bd 13 ab 22 be 2f f6 b9 bc
       -0.0012294683 -0.0621661 -0.15885572 -0.022700397
000130 24 84 31 3e 01 0d f2 3d ec 48 bb bd 2b 40 f4 3b
       0.17335564 0.118188865 -0.09144768 0.0074539385
000140 a4 43 57 bd 21 87 88 bd 61 ad f5 bc 44 61 f8 bc
       -0.05255474 -0.06666399 -0.0299899 -0.030319817
000150 d0 cd 70 bd b7 59 fb 3d 23 df 31 3d f9 72 bf bd
       -0.058790028 0.12272971 0.04342569 -0.09348101
000160 0d 3d 92 3d 5a ee ff 3d 65 eb ae 3c ba fb 3b 3e
       0.07140551 0.12496634 0.02135248 0.18357745
000170 e4 4d 0d be bf d0 7d bd e2 ce 89 3b c6 12 eb 3b
       -0.13799244 -0.061966654 0.0042055706 0.007173869
000180 8e 16 bc 3d 17 3b a6 bd ae 20 76 3c 20 df f1 bd
       0.091839895 -0.08116739 0.01502244 -0.11810136
000190 03 18 2c 3c e9 8f a6 3b 57 73 cc 3d d2 0c 1b bd
       0.010503772 0.0050830734 0.09982937 -0.037854023
0001a0 80 b9 3b bd 78 8d de bd dd 0a ab 3c 9e 4b cf bc
       -0.045831203 -0.10866827 0.020879203 -0.025304612
0001b0 2c 32 18 be b3 33 c8 bd 99 f4 a5 3d 2b e4 18 be
       -0.14862889 -0.09775486 0.08103294 -0.14930789
0001c0 52 b3 9f 3d 7f ad 02 bc 92 10 ce bc 4f 0d 17 3e
       0.077978745 -0.007975935 -0.025154386 0.1475117
0001d0 aa bb 24 be 9e 7e ea 3d 87 71 61 3c 34 01 85 bd
       -0.16087213 0.114499316 0.013759977 -0.0649437
0001e0 35 b2 bf bd de 6d d2 3d 5d 17 fd 3b cf d2 5f 3d
       -0.09360162 0.10274862 0.0077237324 0.054644402
0001f0 e7 a3 ad bb e6 e4 4e be 72 ce 06 3e 63 be 11 3c
       -0.0052990797 -0.20204505 0.1316469 0.008895489
000200 54 86 1c be ec dd 6c be 9a 01 58 3e fa 44 e8 bd
       -0.15285617 -0.23131531 0.21094361 -0.11341281
000210 21 a4 f4 bd 2e bf db 3d db 46 af bd fd 91 80 bb
       -0.119453676 0.10729824 -0.085584365 -0.003923653
000220 e5 ac c3 3d 13 81 09 3e 86 07 1b bd 23 93 2d be
       0.095544614 0.13428144 -0.03784897 -0.1695066
000230 ba 1a 4d 3c 28 35 db 3d 61 44 90 bd 8f 08 7d bd
       0.012518579 0.10703498 -0.07044292 -0.06177574
000240 2c e8 26 bd b8 cf 75 bd 0d 8e 5e bd 4a 43 37 be
       -0.04074876 -0.06001255 -0.05433469 -0.17896762
000250 63 3b ae 3d cf bc 49 bd f7 50 ed 3d 9a 5b 06 3c
       0.08507421 -0.049252328 0.115877084 0.00820055
000260 24 86 08 3e 68 52 e3 3c 94 41 74 3c d5 4d 0b 3d
       0.1333242 0.027749255 0.014908213 0.034009773
000270 79 62 45 be 5f c6 23 3e 70 70 1f 3e 8b b4 23 bd
       -0.19275846 0.15993641 0.15570235 -0.0399671
000280 e6 b4 ac 3d 5f 76 67 bb 23 08 89 bc 53 dc 58 3d
       0.08432941 -0.0035318357 -0.016727513 0.052944493
000290 f6 72 37 3d 1b d6 37 bd 70 eb 06 bd 74 4f 40 3d
       0.04478737 -0.04488192 -0.032939374 0.046950772
0002a0 8a 16 85 3c 06 54 9a 3c 25 46 25 3e d4 0b 24 be
       0.016246099 0.018838894 0.1614004 -0.16020137
0002b0 97 6f ae bb a9 db 9e bd a3 62 2f 3d ed 13 25 3d
       -0.005323361 -0.077567406 0.042818677 0.040302206
0002c0 0c 7d c3 3d 3c ad 00 3d 35 a4 4a be dd 4a ed 3d
       0.09545335 0.03141521 -0.19789203 0.11586545
0002d0 9c 71 3d 3d 82 82 9d 3d 84 1b 97 bd c9 1f 11 3e
       0.046250924 0.07690908 -0.07378295 0.14172281
0002e0 15 78 d3 bd 81 79 e0 bd da 5b 3b 3e f2 0f a0 3c
       -0.10325638 -0.10960675 0.18296757 0.019538853
0002f0 07 ad 51 be a0 16 d0 bc a3 79 4d bd 7e d2 32 bd
       -0.20476161 -0.025401413 -0.05016483 -0.043657772
000300 a6 ee 20 bc 23 f7 70 3d ea 57 1e be 78 97 98 bd
       -0.009822523 0.058829438 -0.15463224 -0.07450765
000310 6f 65 4b 3c 2a 7b 41 39 59 a2 f4 3d 94 ca cd bd
       0.01241432 0.00018451796 0.11945028 -0.10048404
000320 ad d0 0a 3d 1a 9b 57 bd 8d e0 10 3d 1a 3d 56 3d
       0.033890415 -0.05263815 0.0353704 0.052304365
000330 3b 5d c8 3d 38 5d 8c 3d bd 14 9b 3d 3e d2 04 be
       0.09783407 0.068537176 0.07572315 -0.12970826
000340 04 7a d4 bd 8d 6e 00 bd 9b 68 13 bd 48 0b 0f 3e
       -0.10374835 -0.03135543 -0.03598843 0.13969147
000350 6e 01 a7 bd e2 00 05 be f3 7f 89 bd f2 a1 d3 bc
       -0.081545696 -0.12988618 -0.067138575 -0.025834057
000360 e6 0f ca 3a be 18 96 3d 8b 68 fd 3d 2a 49 ca 3c
       0.0015416115 0.07328938 0.123734556 0.02469309
000370 f7 34 3e 3d 56 e4 94 bd 36 5f c4 bd cd 9e bc bc
       0.04643723 -0.07270114 -0.095884725 -0.02302494
000380 5b 91 1f 3d b4 46 14 3d 31 d3 53 3e a9 77 96 bd
       0.03895698 0.03620024 0.20686032 -0.07347042
000390 24 9a 58 be 1a fe 0a be c3 c9 3e bd 0c 15 59 3d
       -0.2115255 -0.13573495 -0.046579134 0.052998587
0003a0 40 37 e8 bd 3b 74 52 bd 61 6e f8 3c 1d a6 1e bd
       -0.11338663 -0.051380377 0.03032607 -0.038732637
0003b0 e0 61 aa bd 15 f9 40 bd e7 99 02 bc 1e 85 5c bd
       -0.083194494 -0.047112543 -0.0079712635 -0.053837888
0003c0 e3 e7 30 bd e7 d0 2b 3d e5 1c ca 3c b9 6f 22 3e
       -0.043189894 0.04194727 0.024671981 0.15862931
0003d0 05 b4 3b 3e 1a a6 db bc 70 37 04 3c bb fb a5 bd
       0.18330391 -0.026812602 0.008069858 -0.081046544
0003e0 8d 15 0f be e3 ca 64 bd f8 80 31 3d d0 e8 07 bd
       -0.13973065 -0.05585755 0.043335885 -0.03318101
0003f0 b9 6f 78 bc 2a 76 57 3d 3f 22 3e 3e 53 89 e5 3d
       -0.0151633555 0.052602924 0.18567751 0.11207833

network_body._body_endoder.seq_layers.2.bias f4 [128]
000000 50 63 4d bb 23 f2 a2 bb e4 18 46 bb cb c7 9f 3a
       -0.0031339712 -0.0049727126 -0.0030227238 0.001219028
000010 66 0b a8 bb 4f d9 16 bb 68 19 8e ba 32 c4 96 3a
       -0.005128312 -0.002301771 -0.0010841312 0.0011502563
000020 0b 8c 04 ba 68 fe 98 b9 14 e5 2b 3b 9d 68 a8 bb
       -0.00050562684 -0.00029181247 0.002622907 -0.005139424
000030 8b d7 15 bb 4d 8d 75 bb f1 32 53 3a a3 ce ea ba
       -0.002286407 -0.0037468255 0.0008056602 -0.0017914366
000040 a0 9c 44 3b 2f 4c 40 bb 83 c0 63 bb 17 6d 04 bb
       0.0030000582 -0.0029342284 -0.0034752197 -0.0020206624
000050 a3 bf 12 bb 51 5a a5 3b a0 08 cc b9 b4 2e 4a 3b
       -0.0022392056 0.005046167 -0.00038916338 0.003085059
000060 50 c7 a9 ba 6d 4d 0a 3b 29 06 83 3b 59 88 37 3b
       -0.0012953077 0.0021103278 0.003998537 0.0028004854
000070 16 b3 53 ba 77 63 a2 3b c1 aa 1c 3b 8a 48 17 3b
       -0.0008075697 0.004955705 0.0023905488 0.0023084008
000080 d4 f3 76 bb f6 05 84 39 60 40 27 bb e1 c4 16 bb
       -0.0037681954 0.00025181443 -0.0025520548 -0.0023005533
000090 fc 32 1d bb 7b c7 5c 3b cd 3e fc ba 8c 5e 15 bb
       -0.0023986688 0.0033688236 -0.001924479 -0.002279195
0000a0 8f 12 23 3a 2b 68 a1 ba 6c 30 7f b9 10 09 59 3a
       0.0006220722 -0.001231437 -0.00024336734 0.00082792435
0000b0 46 0e c3 b9 ea 6d ff 3a c4 49 1a b9 6a 95 af ba
       -0.00037203933 0.0019487713 -0.00014714064 -0.0013395969
0000c0 c3 20 a1 3a 0a a7 38 bb a6 89 a4 39 53 14 02 bb
       0.0012293089 -0.0028175735 0.00031383074 -0.001984854
0000d0 53 95 29 3b de 4b da b9 c4 75 6a bb 46 5b 2d ba
       0.0025876358 -0.00041636726 -0.003577576 -0.0006613027
0000e0 ce a0 62 bb 81 50 63 3b 06 33 96 bb 6d 66 1a 3b
       -0.003458071 0.0034685435 -0.004583719 0.0023559586
0000f0 72 9b 84 3b c8 9a 04 bb 41 dd 56 bb 86 60 07 bb
       0.004046851 -0.0020233858 -0.0032785686 -0.0020656898
000100 2a 67 90 3b b0 3b cf 38 ce 06 73 39 a3 55 50 3b
       0.0044068294 9.881647e-05 0.00023176821 0.0031789325
000110 45 28 21 bb 30 4e b0 3a cb 67 3a 3b d1 42 a0 39
       -0.0024590653 0.0013451036 0.0028443213 0.0003056736
000120 60 60 32 3b 61 08 cb 3a 8d 31 92 bb de 60 46 3b
       0.0027218089 0.0015490168 -0.0044614733 0.003027014
000130 a4 b6 75 bb 99 5f 29 bb 64 0e 5f bb b2 f2 7b 3b
       -0.0037492895 -0.0025844334 -0.0034035677 0.0038444218
000140 c5 f4 1d 3b ca 6b 38 ba 66 f4 54 3b 71 be 38 b8
       0.0024102193 -0.0007035105 0.0032494306 -4.404638e-05
000150 8a ad d2 39 70 e1 8a b9 36 ef ef ba 4d c8 04 bb
       0.00040183618 -0.00026489375 -0.0018305543 -0.002026099
000160 9f 3f 17 ba 2d 86 41 3a 63 58 40 ba fd a3 05 3a
       -0.0005769673 0.00073823595 -0.00073373894 0.00050979835
000170 26 97 5e 3b 34 3e 48 3b b2 83 b8 b8 a7 89 66 3b
       0.0033964603 0.0030554654 -8.798334e-05 0.0035177262
000180 ea be e6 3a b7 34 15 39 1a 94 11 bb 8d 77 8c 3b
       0.0017604504 0.00014229385 -0.002221352 0.0042867125
000190 13 1b a5 ba 53 68 0f bb 88 01 a7 3a 75 98 0c 3b
       -0.001259657 -0.002188225 0.0012741545 0.0021453176
0001a0 66 af 79 bb ea 98 12 3b fd ea 89 3b f6 33 1f 3b
       -0.003809893 0.0022368976 0.004208921 0.0024292446
0001b0 a8 f9 2e 3b 0b d2 6b 3b 15 df e2 3a 00 02 25 3b
       0.00266991 0.003598335 0.0017308915 0.0025178194
0001c0 c7 5a 47 3b 5e 60 42 bb 8b ab e6 ba ec c9 a1 bb
       0.0030419098 -0.002965949 -0.0017598731 -0.004937401
0001d0 9a f3 3f bb 8c 97 de 3a 7d bc ac bb 8c 0f f3 3a
       -0.0029289485 0.001698242 -0.005271493 0.0018544062
0001e0 13 a9 6c 3a 98 d3 37 3b 32 66 ba 3a c5 03 5d ba
       0.00090278796 0.0028049704 0.001422113 -0.00084310427
0001f0 c7 58 33 3b 01 50 d1 3a e1 a8 bd b9 c8 d7 b6 3a
       0.0027366148 0.0015969278 -0.00036174714 0.0013949806

action_model._discrete_distribution.branches.0.weight f4 [4, 128]
000000 0d 23 85 bc 95 49 37 3b 6d a0 a3 ba f1 a7 ac bb
       -0.016252065 0.0027967442 -0.0012483724 -0.0052690436
000010 c0 d1 a8 bc 86 fd a8 bb 25 02 43 bb 36 9b 2e 3c
       -0.02060783 -0.0051571755 -0.0029755917 0.010657122
000020 18 04 34 bc ca 14 06 3b 83 87 5a 3b d5 9e 46 b9
       -0.010987304 0.0020459169 0.0033344931 -0.00018941921
000030 6b 74 dc 3b 3c 53 d5 bb 9d 98 f2 ba c4 d7 a3 bb
       0.0067277453 -0.0065101665 -0.0018508617 -0.0050000865
000040 0d 27 6b 3c 43 16 29 bc e9 06 4f bb 6f 94 48 bc
       0.014352572 -0.010320249 -0.0031589812 -0.012242421
000050 99 6c e4 3b 50 b0 82 3c 08 60 b5 ba 48 8e d9 3a
       0.0069709537 0.015953213 -0.0013837824 0.0016598189
000060 b0 16 51 39 fe 38 c3 3b e2 d0 14 3a 16 34 0e 3d
       0.00019940245 0.0059577217 0.0005676878 0.03471764
000070 99 ae f7 bb 1d fa 20 b9 66 52 3e 3c 08 20 09 bc
       -0.0075586555 -0.00015351964 0.011616325 -0.008369453
000080 af c2 f7 bb 07 40 2b ba 0d 7d 50 ba 47 77 00 bc
       -0.00756105 -0.0006532673 -0.00079532043 -0.007840938
000090 11 f7 94 bc d4 e4 16 3a d4 d1 de bb a3 e6 5a ba
       -0.018184217 0.0005756144 -0.006799916 -0.00083504076
0000a0 ea 9b ef bb 23 61 5e bc 81 44 24 b9 d4 c5 4c bc
       -0.0073122876 -0.013572964 -0.00015665778 -0.012498338
0000b0 e7 8d 1c bc 34 94 b3 b9 f4 30 25 3a d9 fa 76 bb
       -0.0095553165 -0.0003425196 0.0006301545 -0.0037686138
0000c0 39 59 29 3b a4 e3 ac bc 38 29 cb 3a 64 f3 9c bc
       0.0025840534 -0.021104641 0.0015499955 -0.019159026
0000d0 83 87 72 bb 59 6f 98 bb c8 1a 29 bc ee fd 84 bb
       -0.003700704 -0.0046519455 -0.010321327 -0.004058591
0000e0 b0 e1 56 bc 9e 37 f9 3b 81 ab 41 bc 77 46 1d 3c
       -0.0131153315 0.007605507 -0.011820675 0.00959932
0000f0 2d 75 14 3b 43 27 0f bb 71 78 2b 3b 27 3c e9 bb
       0.002265285 -0.002184347 0.0026164318 -0.0071177664
000100 1d 36 49 3b 96 23 e0 3b 55 f2 d8 bb 1c 72 8f 3c
       0.003070242 0.0068401797 -0.006620685 0.017510466
000110 6b ae 05 bc d0 4d aa ba d5 35 b9 ba eb f1 3f 3c
       -0.00815926 -0.0012993161 -0.0014130423 0.011715393
000120 b5 49 87 3b 8b b6 e1 3b a5 84 21 bc e6 46 a0 3b
       0.0041286596 0.006888216 -0.009858285 0.0048912643
000130 38 4d c2 bb 4b 5e c6 b7 0f 26 86 bc b3 b2 cc 3b
       -0.0059296153 -2.3647348e-05 -0.01637557 0.0062468885
000140 03 84 1d 3c 64 da 29 ba fb 26 1c 39 cc b4 26 3c
       0.009613994 -0.0006479381 0.0001489184 0.010174941
000150 9f 55 76 3c 93 c6 c8 3a 7d 10 8d 3b bc 02 6b bb
       0.015035062 0.0015317969 0.004304944 -0.0035859784
000160 72 2a b3 39 30 41 4d 3c bd 2b b7 bb 1e 0f 99 3b
       0.00034173165 0.012527749 -0.005589931 0.0046709916
000170 b8 48 29 3c 6e 1f 3b 3b 93 eb 1f 3a 8f 66 3d 3b
       0.010332279 0.002855267 0.0006100472 0.002890024
000180 10 49 54 bb 60 09 61 3c 77 c9 65 bc 2a 48 06 3c
       -0.0032392181 0.013735145 -0.014025084 0.008195916
000190 ef a6 9e 3b 09 3c 5a bc 6e 09 36 bb e9 84 3e bc
       0.0048416774 -0.013319978 -0.0027776617 -0.011628368
0001a0 a8 82 53 bc 60 79 3f 3c d5 84 1c 3b 2e 34 60 3c
       -0.012909569 0.011686653 0.0023882885 0.013684316
0001b0 11 7c 28 3c d4 04 f5 3b f1 34 16 3c 54 ab 9a 3a
       0.010283486 0.007477382 0.009167896 0.0011800327
0001c0 50 63 c1 3b 64 94 79 ba 73 6b 94 bb f6 d1 cf ba
       0.0059017316 -0.0009520708 -0.0045294105 -0.001585542
0001d0 25 9e 82 39 13 d4 0b bc 0e 53 ce ba 3a d1 6b bb
       0.0002491336 -0.008534449 -0.0015741305 -0.0035982863
0001e0 5b b5 e8 bb 48 23 5a 3c 0f e5 1e 3c 6b 7f dd ba
       -0.0071016974 0.013314076 0.0096981665 -0.0016898935
0001f0 1f 2b f9 bb 6d e2 e4 3b 6a e9 03 bc 90 2d ad bb
       -0.0076040174 0.006985 -0.008051256 -0.0052849725
000200 16 1e 1d 3c 3c 6e 0e ba 74 de 02 3b c8 ec 57 bc
       0.009589693 -0.00054332963 0.0019969018 -0.013179012
000210 5e 1e 1d bc 63 d0 9c bb ed 33 36 bc d5 ce 29 3a
       -0.00958976 -0.004785584 -0.0111207785 0.0006477659
000220 c3 29 37 bc 6e 3d 3b bc 08 db b4 bc 6b 5e 06 3b
       -0.01117939 -0.01142822 -0.022077098 0.0020503055
000230 0a 53 19 3b ab 1f 94 3b 80 52 7b 3c 78 5d 63 ba
       0.0023395442 0.0045203767 0.015339494 -0.0008673291
000240 2a 13 e4 3a ee f9 0f 3c 2a e8 6a bc 32 9a 3c 3c
       0.0017400731 0.008787615 -0.014337579 0.011511372
000250 3a 7d 9d bb 02 cc 19 bc 4a 66 35 3b 83 a4 f3 3b
       -0.004806188 -0.009387018 0.0027679377 0.007435383
000260 5e 01 aa bc c2 5d 1f 3b 5b 3a 78 bb d1 a1 26 3c
       -0.020752605 0.0024317359 -0.003787658 0.010170416
000270 19 79 d9 bc 2c b1 a0 bb e5 88 96 3c b8 e2 be ba
       -0.026547002 -0.004903933 0.018375823 -0.0014563417
000280 2e 43 03 bc 51 21 c0 38 7a 69 31 3b dd ea 77 3b
       -0.008011622 9.161479e-05 0.0027070926 0.0037829198
000290 a1 39 82 3c ff 68 e5 bb c4 f2 dd 3a 86 b1 dd 3a
       0.01589662 -0.007001042 0.0016933312 0.0016913868
0002a0 56 b1 fd bb c1 33 19 3c f8 30 70 bb bc 12 0f bb
       -0.0077420874 0.009350718 -0.0036650281 -0.0021831235
0002b0 a4 c2 60 ba bf 3f 7c 3c ce 7d 19 39 88 46 8b 3b
       -0.00085739256 0.015396058 0.00014638083 0.0042503513
0002c0 9a 62 cc bb 83 c8 98 3c 9d 8f f5 3b 36 04 bd ba
       -0.00623734 0.018650299 0.0074939267 -0.0014420811
0002d0 5a 76 de bb 71 df 8b bc ec eb d9 3b 53 06 59 3c
       -0.006789011 -0.017074319 0.0066504385 0.013246137
0002e0 ff eb 1d 3c 08 7c 97 bb 4a 71 8a 3c 4b 29 ca 3b
       0.009638785 -0.00462294 0.016899724 0.0061694733
0002f0 03 69 6b 3b e8 b8 44 3c 82 76 be 3a 89 35 d2 bb
       0.0035920746 0.012006976 0.0014531168 -0.0064150733
000300 4f 13 00 3c 7d ae 08 bc 3b 9e 00 bc 43 f5 7c 3b
       0.0078171035 -0.0083423825 -0.007850225 0.0038598336
000310 69 1b b9 3b a6 15 ab b8 21 7f 9d 3c a9 3c bf 39
       0.0056490195 -8.157948e-05 0.019225659 0.00036475554
000320 eb 48 79 3b 49 f6 87 3b cd 7d ae 3a 6d cd e4 bb
       0.0038037847 0.0041492325 0.0013312638 -0.0069824965
000330 7b bd 0b 3b ca f2 4a 3c 86 02 e1 3a 16 8b 8d bb
       0.0021322656 0.012386987 0.001716689 -0.004319559
000340 cb 07 d9 3b 7e b4 27 bc f0 29 5b bc 42 37 5d 3b
       0.0066232434 -0.010235904 -0.013376698 0.003375486
000350 ed 56 91 ba 0f 63 e0 ba 55 f3 30 ba 70 75 32 ba
       -0.0011088528 -0.0017119366 -0.00067501265 -0.00068076607
000360 1c 64 a4 bb 9c 0b 36 3c 1c b5 9d bb e8 68 52 bc
       -0.005016817 0.011111166 -0.0048128497 -0.012842394
000370 24 ae 7c bc ce d3 e9 3b 25 c9 58 3c a8 85 b9 b9
       -0.015422378 0.007135845 0.01323155 -0.0003538553
000380 ff 33 04 ba 7b 88 a0 3c 15 c7 c6 bb 32 47 fa 3a
       -0.00050431484 0.019596329 -0.006066213 0.0019094704
000390 b6 fa 76 bb 53 0e ae 3a 65 52 9e 3c 19 66 34 bc
       -0.0037686056 0.0013279415 0.019326398 -0.01101067
0003a0 7f 18 0c bc 0e ea 8e bc d3 f7 80 3c b3 c4 84 bc
       -0.008550762 -0.01744559 0.015743172 -0.016207075
0003b0 40 df 21 bc 74 1d 70 bc 77 97 a1 bb 24 da af bc
       -0.009879887 -0.01465546 -0.004931386 -0.021466322
0003c0 16 ed f1 bb 7c 5d e5 ba 20 5e 04 ba ed b3 a3 39
       -0.007382999 -0.0017499174 -0.0005049426 0.00031223838
0003d0 bd a2 03 3c af 83 06 bc 36 3c e5 bb d3 aa 67 bb
       0.008034405 -0.008210107 -0.006995703 -0.0035349622
0003e0 f5 aa 40 bc 90 4e 31 bb 2c d3 21 3c 75 cf e0 3b
       -0.011759509 -0.0027054884 0.009877007 0.0068606683
0003f0 6d 1a 27 3c 10 9b 94 bc 5a aa e7 bb 95 91 8e bb
       0.0101991715 -0.018140346 -0.007069868 -0.004350851

action_model._discrete_distribution.branches.0.bias f4 [4]
000000 8f 75 4d 3b d8 2a cb ba 82 f2 f3 ba 42 d5 1a 38
       0.0031350588 -0.0015500439 -0.0018611702 3.6915073e-05

action_model._discrete_distribution.branches.1.weight f4 [3, 128]
000000 14 be 9b 3c 5a 40 b0 3c 0f 0c 17 3c 0a be 34 3b
       0.019011535 0.02151506 0.009219184 0.0027579092
000010 86 a7 51 bb fb af a1 bb d2 10 b2 3b d1 82 58 3c
       -0.003199072 -0.0049343086 0.005434134 0.013214783
000020 0d c1 8e bb d3 68 db bb 57 34 38 bc af 10 72 3c
       -0.0043565095 -0.0066958456 -0.011242948 0.0147744855
000030 69 78 10 3c 85 eb 74 3c ff 78 bf ba 0a 6e 5c 3c
       0.0088177705 0.01494873 -0.0014608203 0.01345397
000040 68 bb ca bc fa 72 0c ba 28 90 27 b9 4a 92 1e bc
       -0.024747565 -0.0005357709 -0.00015980063 -0.009678433
000050 09 4c 27 3b 93 85 32 3b 5f 34 a5 bb 3f 5d 64 bc
       0.0025527498 0.002724026 -0.0050416435 -0.013938247
000060 33 3c f9 3a c7 66 54 3c dc 26 d0 ba 03 fe af bb
       0.0019015133 0.012963957 -0.0015880722 -0.0053708567
000070 6b ed 8d 3b 2a 0e 43 bc 37 74 81 bc e5 e6 8e ba
       0.004331281 -0.011905232 -0.015802486 -0.0010902552
000080 32 2d a3 3a 4d 64 7b 3a ab 8d 84 bb f0 f0 60 bb
       0.0012449382 0.0009589836 -0.0040452085 -0.0034323297
000090 ce d4 12 bc ac 6e 29 bc 03 02 05 bc d4 04 c5 3b
       -0.008961869 -0.010341328 -0.008118155 0.0060125384
0000a0 89 f5 3b ba 85 b2 97 3b 6d 94 5e 3a d2 c5 66 bc
       -0.00071700715 0.0046294355 0.0008490745 -0.01408525
0000b0 41 50 0d 3c 38 ed 6f 3c 20 bf 4b 3c 6f 64 c8 3b
       0.008625091 0.01464396 0.0124357045 0.0061154882
0000c0 58 58 02 bc 11 8d 61 bc ef d6 ea bb ff 7e 14 bb
       -0.007955633 -0.013766543 -0.0071667354 -0.0022658703
0000d0 cf f5 61 bc 6c c1 25 bc 37 09 8b 3c 69 90 9c 3b
       -0.0137915155 -0.010116916 0.016972167 0.004777957
0000e0 1b 7c 3e 3c 84 e5 d4 bb a9 4f 06 3c 36 16 97 3a
       0.011626269 -0.006497087 0.008197703 0.0011527005
0000f0 04 ca 2c bb f2 87 e6 3b 53 04 00 3c 60 1e 52 bc
       -0.0026365528 0.007035249 0.007813531 -0.012824625
000100 b1 6f de 3a 62 7f bd bb 46 bd 4d bc 80 6e 5d bc
       0.0016970542 -0.0057830075 -0.012557333 -0.013515115
000110 58 a3 c1 3c 38 42 61 bc 45 89 0b bb c8 da 48 3b
       0.023637459 -0.013748698 -0.0021291536 0.0030647982
000120 43 8e 07 3b 77 d6 69 3c 96 c9 0e 3a 60 c0 94 bb
       0.002068416 0.014272324 0.0005446909 -0.0045395344
000130 5f 09 f9 ba 3e f0 1d 3b ae ca 5b 3c 43 3d 07 bb
       -0.0018999985 0.0024099494 0.013415022 -0.002063588
000140 d0 48 6c bc 5f a3 26 bb f4 aa 3e bc f1 a3 33 bb
       -0.014421657 -0.0025426967 -0.011637438 -0.002741095
000150 10 e1 0e 3a 17 4e 4f 3b ee fa 7e 3c 2e e3 a3 b9
       0.0005450407 0.0031632239 0.015562756 -0.00031259045
000160 d8 5a 2c bb 04 d8 97 b7 6a 6b 8a bb b6 a3 92 bb
       -0.0026299264 -1.8101193e-05 -0.0042242305 -0.0044750823
000170 3a 16 02 3a 06 0a 60 bc 4f f0 a4 3a a6 31 f9 bb
       0.00049624185 -0.013674265 0.0012583825 -0.0076047955
000180 9d 41 cf 3a cd 17 e1 3b b8 8c bd 3b 93 52 71 3a
       0.0015812401 0.0068692924 0.0057845972 0.0009205725
000190 49 05 9d 3b be 24 09 bc af 41 db bb 0d 53 14 bc
       0.00479189 -0.008370576 -0.0066911797 -0.009053004
0001a0 15 ac 2e bb b0 1d 9b 3b 2c d2 f1 bb 48 f8 5a bb
       -0.0026652862 0.0047337636 -0.007379791 -0.0033412147
0001b0 8d 25 41 bc 9b e9 8d bb a0 dd 9c b9 eb fc b0 bc
       -0.011788738 -0.0043308265 -0.00029919762 -0.021604976
0001c0 81 2c 61 bc 34 2f 3a 3c aa cd 21 3c 3a 10 78 3b
       -0.013743521 0.011363793 0.009875694 0.0037851469
0001d0 38 7e 91 ba 91 a8 19 bc 0f 49 49 3b 99 08 a5 bb
       -0.0011100238 -0.009378568 0.0030713712 -0.0050364253
0001e0 aa 4d 49 3b 0c e7 0c 3b e6 85 3e bb 73 10 11 3c
       0.0030716457 0.002150002 -0.002907151 0.008854019
0001f0 61 7f ee bb 16 0a 12 3a 67 89 82 ba a6 60 30 3c
       -0.0072783683 0.0005570961 -0.0009959162 0.01076523
000200 e8 5e 87 bb 87 9d 01 3c 9f 12 59 ba 54 9b 99 bb
       -0.0041311868 0.007911093 -0.0008280668 -0.004687706
000210 4e 46 08 bc 94 ea 17 3c f2 7a 0f bc 23 52 ad 3c
       -0.008317543 0.009272236 -0.00875734 0.02115733
000220 98 f3 d7 39 22 c5 40 bc bc 00 43 3c e1 35 2a 3c
       0.00041189487 -0.01176575 0.011902031 0.010388822
000230 7d 74 5f ba ab 84 56 3b 98 6b a6 3c 16 ff 24 bc
       -0.0008524133 0.0032732885 0.020314977 -0.010070583
000240 9f 10 5f 3c c5 d9 1f 3c a7 a2 80 bb e1 2e a3 3a
       0.013614803 0.00975651 -0.0039256397 0.0012449884
000250 10 ff c8 ba 4b 80 81 3c dc a7 93 3c 6e d3 0d 3c
       -0.0015334804 0.015808245 0.018024378 0.008656366
000260 2e a2 1d bc 24 75 eb 3a 00 66 77 3c ee d4 e1 bb
       -0.009621186 0.0017963988 0.015100002 -0.0068918383
000270 87 d4 a9 3b c4 f6 f5 ba 33 c1 33 bc 47 b3 96 3b
       0.005182806 -0.0018765558 -0.010971355 0.0045990082
000280 bc 82 e3 bb 70 6c 26 3c d2 19 ad 3a 15 c9 39 ba
       -0.006943075 0.010157689 0.0013206548 -0.00070871535
000290 e2 3a 0e bc f4 b7 ba 3b 99 65 e2 bb 6b 70 0f bc
       -0.008681031 0.0056981985 -0.006909084 -0.00875483
0002a0 9a 15 9e 3c 92 0a 71 3b 0b 13 ad 3b 11 12 ac 3b
       0.01929741 0.0036779982 0.005281811 0.005251177
0002b0 43 f7 91 ba 21 71 8d 3c c2 45 4d 3c 7b 5e 83 ba
       -0.0011136312 0.017265858 0.012528839 -0.0010022664
0002c0 ac ef 6a 3c 0e 0f 53 bc 2c d0 08 bc 64 93 99 3b
       0.014339369 -0.012882007 -0.008350413 0.00468676
0002d0 b5 80 8e bc c9 16 dc 3a 3d 43 61 bb b3 a6 95 bb
       -0.017395357 0.0016791458 -0.0034372353 -0.0045669912
0002e0 27 86 2d bc 6d e2 dc bb 33 1e a5 bb ad b4 fc bb
       -0.010591066 -0.0067408592 -0.0050390004 -0.007711968
0002f0 67 5a ba bb 30 49 2b bc 89 c8 fa bb fd c1 30 bc
       -0.0056870463 -0.010454461 -0.0076533 -0.010788438
000300 2f ef 45 3b 77 ea 39 3a ab f5 86 bc be b3 ac 3a
       0.003020238 0.0007092128 -0.016474565 0.0013176126
000310 24 31 0f 3c ac 9d b1 b9 c9 26 05 3a 4e f2 dc 3b
       0.008739743 -0.00033877546 0.0005079327 0.006742752
000320 3f 28 3f 3b dc 52 05 bb bc e7 96 3b c0 3c c1 3b
       0.0029168276 -0.0020343577 0.0046052616 0.0058971345
000330 58 13 98 bb 95 af 47 bc 6d 7f da bb b8 3a 9e 3c
       -0.004640978 -0.012187858 -0.0066680224 0.019315109
000340 cd ba 89 3b 92 68 90 3b bf 3e e1 3a 23 1c 9a b9
       0.0042031766 0.004406997 0.0017184837 -0.00029394132
000350 43 2a c0 3b b2 65 6f bb 3c 36 1f bb 98 0e 5b 3b
       0.005864413 -0.003652912 -0.00242938 0.0033425447
000360 38 8e 08 bb 40 fc 12 3c b2 fe d1 3a 12 43 7b 3c
       -0.0020836722 0.008971274 0.001602134 0.015335815
000370 c1 6b b6 3b cb 05 34 3b d2 d9 f6 ba 96 2b 4e 3b
       0.0055670445 0.0027469273 -0.0018833226 0.0031459085
000380 6f e7 1a bc 8d b8 f8 3b 60 cf 49 bc 0b 14 00 bb
       -0.009454592 0.0075903595 -0.012317508 -0.0019543197
000390 d4 79 04 bb 5f 09 15 3b 53 0c 50 3b 5e 95 25 3c
       -0.0020214217 0.0022741181 0.0031745627 0.010106413
0003a0 5a 6c 25 3b f8 fd 81 3b c1 a2 a6 ba f5 95 51 3b
       0.0025241585 0.003967043 -0.0012713299 0.003198025
0003b0 e4 78 25 bc 44 c9 78 3b b0 e3 9a 3a bb 9f 2a 3c
       -0.010099623 0.003796176 0.0011817124 0.010414059
0003c0 17 2a d7 bb 78 3f 7e b9 bb 06 35 3b 4b 72 01 bc
       -0.006566297 -0.00024246972 0.002762242 -0.007900785
0003d0 bd f5 22 bc 1e 10 be b8 f1 53 ed b9 76 8b d0 3b
       -0.009946284 -9.062908e-05 -0.00045266704 0.0063642813
0003e0 8f 12 d5 3b 5f f6 58 bb 1e 3d 9f 3b 84 77 a6 bb
       0.0065024565 -0.0033105833 0.0048595807 -0.0050801653
0003f0 f1 cf 67 3c 24 a8 0a 39 77 22 bb 3b 7e e9 c5 3b
       0.014148698 0.00013223343 0.0057108956 0.0060397973

action_model._discrete_distribution.branches.1.bias f4 [3]
000000 0c 6e 34 bb 6d 61 03 3b 38 0b 13 3b
       -0.0027531413 0.0020047084 0.0022437107
