results/test/My Behavior.onnx (onnx, 92718 bytes, 9 tensors)

discrete_act_size_vector f4 [1, 2]
0	0x40800000	4.0
1	0x40400000	3.0

network_body._body_endoder.seq_layers.0.weight f4 [128, 30]
0	0xbe282d97	-0.16423641
1	0x3dca1072	0.09866418
2	0x3d201a05	0.039087314
3	0xbdd5bac9	-0.10436017
4	0xbdd6dd20	-0.10491395
5	0x3d00d335	0.031451423
6	0x3e0eeb36	0.13956913
7	0xbde6ce79	-0.1126985
8	0xbe522017	-0.20520054
9	0xbe234782	-0.15945247
10	0x3d9ab0f6	0.07553284
11	0x3e107cba	0.1411008
12	0x3c86002d	0.016357506
13	0xbdbd3f2a	-0.09240563
14	0xbe00d8b9	-0.12582673
15	0xbba1441f	-0.0049214507
16	0xbe9d517c	-0.3072623
17	0xbed50c14	-0.41610777
18	0x3e2ded9a	0.16985169
19	0xbda9b905	-0.08287243
20	0x3db6f9ae	0.08934341
21	0xbe9e69c1	-0.3094006
22	0x3e443c4e	0.1916363
23	0xbe277927	-0.1635481
24	0xbd88db8d	-0.06682501
25	0x3d0a0dbd	0.033704508
26	0x3d32a3b6	0.04361316
27	0x3dd75441	0.10514117
28	0xbd9dd1f3	-0.0770606
29	0x3e8b24bd	0.27176467
30	0x3e5b2b44	0.21403223
31	0x3d2843b5	0.041080195
32	0x3d6687b5	0.056281764
33	0x3e4fa823	0.20278983
34	0x3ec5494c	0.38532484
35	0xbdc4551d	-0.095865466
36	0xbe03e2f9	-0.12879552
37	0x3ea4dd40	0.3220005
38	0x3dbc7ed8	0.09203881
39	0xbdaee5ac	-0.085399
40	0xbd03713a	-0.032090403
41	0xbd17518f	-0.036943015
42	0xbcdbd544	-0.026835091
43	0x3e666fec	0.22503632
44	0xbde2931c	-0.11063215
45	0xbe9246d9	-0.28569677
46	0xbda847b7	-0.082168035
47	0xbe0d7722	-0.13814977
48	0xbcd3c275	-0.02584956
49	0x3e69aef7	0.2282065
50	0x3df6897a	0.1203794
51	0xbe1286a6	-0.14309177
52	0xbdc0d2a8	-0.094151795
53	0x3b53119b	0.0032206539
54	0xbda8abb9	-0.082358785
55	0xbc862723	-0.016376084
56	0xbeab7ec2	-0.33495146
57	0xbd74271a	-0.059607603
58	0xbe931a38	-0.2873094
59	0xbdc760a9	-0.09735233
60	0x3dbb7849	0.09153802
61	0xbc9e6ac8	-0.019338027
62	0x3da26fa6	0.079314515
63	0x3e42778d	0.18990918
64	0xbe4f1892	-0.20224217
65	0x3e94df58	0.29076648
66	0xbe2be9f0	-0.16788459
67	0x3d89db9d	0.06731341
68	0xbe1a6ab0	-0.1507976
69	0x3e7e96e1	0.24862243
70	0x3e4de641	0.20107366
71	0xbe3fd856	-0.1873487
72	0x3d03fcdc	0.032223567
73	0xbea49aea	-0.3214944
74	0x3defe824	0.11714199
75	0x3e12a4cd	0.14320679
76	0xbd265a20	-0.040613294
77	0x3ddcf8dc	0.10789654
78	0xbe89b214	-0.26893675
79	0x3a5df565	0.00084670476
80	0x3ddf3962	0.10899617
81	0x3f00a139	0.50246006
82	0xbd99d032	-0.07510413
83	0x3d8d35b6	0.0689501
84	0xbcd70496	-0.026247304
85	0xbe627908	-0.22116482
86	0xbe082540	-0.1329546
87	0xbe6f9c8d	-0.23399563
88	0x3d22774d	0.039664555
89	0xbcde717d	-0.027153725
90	0x3db38f89	0.087676115
91	0xbdbbfe22	-0.09179331
92	0x3dc7cf87	0.097563796
93	0x3d3a070e	0.045416884
94	0x3cad8abd	0.02118432
95	0x3f053903	0.5204012
96	0x3e5ae8bb	0.21377842
97	0x3e5113cf	0.20417713
98	0x3eaeaa31	0.3411422
99	0x3c9f1c56	0.019422691
100	0xbb4d06dc	-0.0031284606
101	0x3e8a6a78	0.27034354
102	0xbd1b157e	-0.037862293
103	0xbd8a4999	-0.06752319
104	0xbdae970b	-0.08524903
105	0xbeeae34b	-0.45876536
106	0xbe960843	-0.29303178
107	0xbd81beb3	-0.06335201
108	0xbe4e37d8	-0.2013849
109	0x3db66871	0.08906639
110	0xbd1bc709	-0.03803161
111	0xbe406773	-0.18789463
112	0x3e757338	0.23969734
113	0xbe6b546a	-0.2298142
114	0xbee8845b	-0.4541348
115	0xbd5e116f	-0.054215845
116	0xbe1941e5	-0.14966543
117	0x3e24bcbf	0.16087626
118	0xbe2b3601	-0.1671982
119	0x3ee1a5a3	0.44071683
120	0x3cb5ecb3	0.022207594
121	0x3d917d10	0.07103932
122	0x3d8d9d4a	0.06914766
123	0xbe2f3318	-0.17109334
124	0x3eb1060a	0.3457492
125	0x3d8a7adf	0.06761717
126	0xbe7bfeed	-0.24608965
127	0x3dd2ff78	0.10302633
128	0x3dd55d12	0.104181424
129	0xbdd3bb4f	-0.10338461
130	0xbda20506	-0.079111144
131	0xbee6e752	-0.45098358
132	0xbefa78ed	-0.48920384
133	0x3dd47a51	0.103748925
134	0x3cdf5779	0.02726339
135	0x3ddb4e3c	0.107082814
136	0x3debb018	0.115081966
137	0x3dbb79f4	0.0915412
138	0x3c5465e1	0.012963743
139	0x3e0eda9e	0.13950583
140	0xbd37448f	-0.044743117
141	0x3e0b1c26	0.13584957
142	0xbd01f59c	-0.031728372
143	0x3e33c6e0	0.17556334
144	0x3bcca648	0.006245408
145	0xbe31ff57	-0.1738256
146	0x3e6dd891	0.23227145
147	0xbe603a19	-0.21897162
148	0xbef1fde2	-0.4726401
149	0xbd372079	-0.044708703
150	0xbd2d0d59	-0.042249057
151	0x3eaa3e33	0.3325058
152	0x3e48845e	0.19581744
153	0xbdd6d8e6	-0.10490589
154	0xbe9960ee	-0.29956764
155	0xbd64dfb8	-0.055877417
156	0xbed7faab	-0.42183432
157	0x3e36dc29	0.17857422
158	0x3d9567ac	0.072951645
159	0x3d020a1c	0.031747922
160	0xbcf1e04d	-0.0295259
161	0x3d98c541	0.07459498
162	0xbe33a08d	-0.17541714
163	0xbe04ea50	-0.12980008
164	0xbe9f54c4	-0.3111936
165	0xbc1e0bd5	-0.009646376
166	0x3db945ea	0.09046538
167	0xbde8d54c	-0.11368808
168	0x3da5084e	0.080582246
169	0x3e52eb11	0.20597483
170	0xbe2e2949	-0.17007937
171	0x3e40898c	0.1880247
172	0x3f01b51b	0.5066697
173	0xbe95a38d	-0.29226342
174	0x3e519c4a	0.20469776
175	0x3e47b18c	0.19501323
176	0x3d0b9096	0.034073435
177	0xbd9a25dc	-0.07526752
178	0x3dcce53e	0.10004662
179	0x3c4c55e9	0.012471654
180	0xbdb53c82	-0.088494316
181	0xbe0ab8e3	-0.13547091
182	0xbdb9136e	-0.09036909
183	0x39657e07	0.0002188609
184	0x3cda7048	0.026664868
185	0xbe7fdaf0	-0.24985862
186	0xbd5e3a5c	-0.054254875
187	0x3c44832a	0.011994163
188	0xbe4a7138	-0.19769752
189	0xbd5521ef	-0.052034315
190	0x3e59f236	0.21283802
191	0xbe415fcf	-0.18884204
192	0x3c0975fa	0.008389944
193	0xbe44c3c4	-0.19215304
194	0xbd7a952f	-0.06117743
195	0x3e64e222	0.22351888
196	0x3e8add77	0.2712209
197	0xbdf3fece	-0.119138345
198	0xbe08c9b8	-0.133582
199	0xbe9afa4b	-0.30269083
200	0xbe72f768	-0.2372719
201	0x3ead706a	0.33874828
202	0x3e383f78	0.17992961
203	0xbdac61b4	-0.08417073
204	0xbda2409e	-0.07922481
205	0x3e48833f	0.19581316
206	0x3d95b0fb	0.07309147
207	0x3e9a5269	0.30141
208	0xbe640200	-0.22266388
209	0x3bb4accc	0.005513763
210	0xbd5085e7	-0.05090895
211	0x3d998904	0.07496837
212	0x3ec00d21	0.37510017
213	0xbe18d485	-0.1492482
214	0xbecb949b	-0.39761814
215	0x3dafde48	0.08587319
216	0xbc3e08f3	-0.011598813
217	0x3c5de343	0.013542953
218	0x3e888453	0.26663455
219	0x3cb3d4ea	0.021952111
220	0xbcdd0355	-0.026979128
221	0xbdc6d16e	-0.09707914
222	0xbe532491	-0.20619418
223	0xbd15c190	-0.03656155
224	0x3c24e349	0.010063955
225	0x3e2acadf	0.16678952
226	0xbd765b88	-0.060145885
227	0x3d72483f	0.05915093
228	0xbe1d5499	-0.15364303
229	0x3dd4e3bd	0.10395
230	0xbe65a695	-0.22426827
231	0xbd60034c	-0.054690644
232	0x3e066edd	0.13128228
233	0x3e24e77d	0.16103931
234	0xbe276cd6	-0.16350111
235	0xbe85bcc2	-0.26120573
236	0x3d9d857b	0.07691475
237	0xbb6f3118	-0.0036497768
238	0xbec7f768	-0.39055943
239	0x3bd3a4be	0.006458848
240	0xbe1cbb9b	-0.15305941
241	0x3e1f3eb4	0.15551263
242	0xbe2fca14	-0.1716693
243	0x3dee967b	0.116497956
244	0x3e055732	0.13021544
245	0xbd8ca3b5	-0.06867162
246	0xbc8aff88	-0.01696755
247	0xbd5ef2ca	-0.05443076
248	0xbd7f82a2	-0.06238044
249	0x3f10baaa	0.56534827
250	0xbe430421	-0.19044544
251	0x3d1d225a	0.03836284
252	0xbe1b0eaa	-0.15142313
253	0xbd8ba969	-0.06819422
254	0x3e8762a9	0.2644246
255	0x3ea20eb4	0.31651843

network_body._body_endoder.seq_layers.0.bias f4 [128]
0	0x3bb2d18a	0.005457108
1	0x3a84366e	0.0010087022
2	0x3b6587cc	0.0035023568
3	0x3b05bf5d	0.002040825
4	0xb9bbf35b	-0.00035848733
5	0x3bb36750	0.0054749623
6	0x3ad3e225	0.0016165419
7	0xbbb97591	-0.005659767
8	0x3a3baff3	0.00071597024
9	0xba564840	-0.0008174218
10	0x3a0610d8	0.0005114204
11	0xbb99ad0f	-0.0046898196
12	0xbb12a3c1	-0.0022375437
13	0xbaf60123	-0.0018768649
14	0xbacdcd21	-0.0015701392
15	0x3a7fbdca	0.0009755759
16	0x3b8bc231	0.004265093
17	0x3ba25c98	0.0049548857
18	0x3ba8cd57	0.0051514315
19	0x3ad4f622	0.001624767
20	0x3b7c0737	0.0038456449
21	0x3bb3a3b8	0.0054821633
22	0xbb8a8cd8	-0.0042282157
23	0x3b8eb1d8	0.0043546967
24	0xb972073c	-0.00023081613
25	0x3b209e03	0.0024508245
26	0xbbe56e30	-0.0070016608
27	0x3bbf681d	0.0058412687
28	0x3a745cc4	0.00093216845
29	0xbba5769c	-0.0050495397
30	0xbbae2e8b	-0.005315607
31	0xbadd5fbc	-0.0016889493
32	0x3b6eb687	0.0036424713
33	0x3b828d97	0.003984164
34	0xbb1b7764	-0.0023722285
35	0x3bced9f9	0.0063126055
36	0x3b9a07cf	0.004700638
37	0x3a3d937b	0.0007231754
38	0xbba5f1c9	-0.0050642234
39	0x3bb6680c	0.0055666026
40	0x3b186baf	0.0023257544
41	0xbc03228f	-0.008003845
42	0xb9ee971c	-0.00045507483
43	0x3ba11869	0.00491624
44	0xba8958d2	-0.0010478741
45	0xbad769ae	-0.0016434693
46	0xbb14d732	-0.0022711274
47	0xbaabe6c9	-0.0013115044
48	0x39c86840	0.00038224645
49	0xbb850063	-0.004058884
50	0x3b3df7d6	0.0028986833
51	0x38a13cea	7.6884244e-05
52	0x3ab48aa7	0.0013774232
53	0xbb3dfebc	-0.0028990945
54	0x3ba58e49	0.005052362
55	0xbbbd19a8	-0.0057708807
56	0x3ae54b81	0.0017493815
57	0x3b0bfc2d	0.0021360025
58	0xba1d311f	-0.00059963943
59	0x3b9ec422	0.004845158
60	0xbb929d67	-0.00447433
61	0x3b918415	0.0044407942
62	0x3ba59ecc	0.0050543305
63	0xbb5a07b8	-0.003326876
64	0xbbaa68b7	-0.0052004713
65	0xbba09ff2	-0.0049018795
66	0xba16aa0c	-0.0005747385
67	0xbb7aa2fb	-0.0038244117
68	0xbbad46c8	-0.005287979
69	0xbbeee92a	-0.007290979
70	0xbb414a32	-0.0029493687
71	0x3b63a86a	0.0034737834
72	0x3b08b8c9	0.0020862094
73	0xbadc3096	-0.0016799148
74	0x3b9cf5c4	0.0047900397
75	0xbb988481	-0.0046544676
76	0xbb73ac0a	-0.00371814
77	0x3b57b834	0.003291619
78	0xbb4d1afe	-0.0031296606
79	0x3b653a90	0.0034977533
80	0xbb671539	-0.0035260452
81	0x3a5c8ea8	0.00084135914
82	0x3bd811ab	0.006593903
83	0x3b1d24cc	0.0023978231
84	0xbb8e46b2	-0.0043419236
85	0xbbb9eea8	-0.005674202
86	0xbbd70d27	-0.006562847
87	0x3b34e505	0.0027602327
88	0xbc14e7f5	-0.009088506
89	0x3c220790	0.009889498
90	0x3bdb915c	0.006700678
91	0xbb67abf4	-0.0035350295
92	0xbad66a4b	-0.0016358582
93	0xbaa63d7b	-0.0012683118
94	0x3acfa61b	0.001584235
95	0xbacb897c	-0.0015528644
96	0x3b9661fe	0.0045893183
97	0x3b8a5191	0.0042211493
98	0x3bb83d22	0.005622522
99	0xbb41e6a3	-0.0029586933
100	0xbb9cc3e0	-0.0047840923
101	0x3b3a820e	0.0028458866
102	0xbbbbd966	-0.005732703
103	0xbbc144ad	-0.0058980794
104	0x3b84602b	0.0040397844
105	0x3bcc661f	0.0062377597
106	0xbb901f99	-0.004398298
107	0xbb6277be	-0.0034556235
108	0xbab630d1	-0.0013900046
109	0x3b773a1c	0.0037723845
110	0xbb2e718b	-0.002661797
111	0xbbb5e671	-0.0055511524
112	0x3bddc23b	0.006767539
113	0x3aef873a	0.0018274554
114	0x3bde9d83	0.006793679
115	0x3b05aa3c	0.0020395657
116	0xbbbe34e9	-0.005804647
117	0x3b05f49b	0.0020439986
118	0x3c1d2870	0.009592161
119	0x39e8fd88	0.00044439384
120	0xbb05a8e4	-0.0020394856
121	0x3a02b9a8	0.00049867714
122	0xba413ab0	-0.0007371111
123	0x3b815c07	0.003947738
124	0x397ea0d1	0.00024283236
125	0xbb139f9e	-0.002252556
126	0x3b30d412	0.0026981873
127	0xbb460fbb	-0.0030221778

network_body._body_endoder.seq_layers.2.weight f4 [128, 128]
0	0xbcc5dc40	-0.024152875
1	0x3ca5655f	0.020189939
2	0xbdf491a4	-0.11941841
3	0xbdde0846	-0.10841422
4	0x3cec4a70	0.028844088
5	0x3d39777a	0.045279957
6	0x3cc77dc4	0.024351962
7	0xbc83bed8	-0.016082212
8	0x3e39d912	0.18149212
9	0xbd1ef264	-0.03880538
10	0xbdcb2026	-0.09918241
11	0xbc3ac3bf	-0.011399209
12	0xbd7be631	-0.061498825
13	0xbce07c1e	-0.027402934
14	0x3dc5b84f	0.09654295
15	0x3d21b2da	0.039477207
16	0x3d185e33	0.03719921
17	0x3d5f41dc	0.054506168
18	0x3d5287a0	0.051398873
19	0x3d484f45	0.048903722
20	0x39b53206	0.0003456028
21	0x3bf5d1fb	0.0075018383
22	0xbd459e3c	-0.048246607
23	0xbd750e49	-0.059828077
24	0x3dc4a307	0.096014075
25	0xbd0bdce3	-0.0341462
26	0xbcf8716a	-0.030327518
27	0xbd804c16	-0.06264512
28	0xbc14baef	-0.009077772
29	0x3c5b2251	0.013374881
30	0xbd61df6c	-0.055144712
31	0xbd02e0c9	-0.031952653
32	0x3d611c35	0.05495854
33	0x3dcd78f6	0.10032837
34	0xbd7b2bf6	-0.06132122
35	0x3d5b0a10	0.053476393
36	0x3d77fdb9	0.060544703
37	0x3e35eecd	0.17766877
38	0x3e3efa2c	0.1865012
39	0xbdc86ddb	-0.09786578
40	0x3c0d83a1	0.00863734
41	0xbde249e0	-0.11049247
42	0xbdb39d60	-0.08770251
43	0x3df6e049	0.12054498
44	0x3d34eb58	0.044169754
45	0xbd090b49	-0.033458028
46	0x3da52d5f	0.080652945
47	0xbc563a41	-0.013075412
48	0xbe07c21f	-0.13257645
49	0x3dcac058	0.09899968
50	0x3cae65db	0.021288803
51	0x3dfd4883	0.12367346
52	0x3ddf90e6	0.10916309
53	0x3d935154	0.071932465
54	0x3d9550d8	0.0729081
55	0xbc8a5a6f	-0.016888825
56	0xbd6f3a9e	-0.05840551
57	0xbe8ed512	-0.27896935
58	0x3e46ca42	0.19413093
59	0xbdc3bb4d	-0.09557209
60	0x3ddf8591	0.10914148
61	0x3ccb1083	0.024788147
62	0xbb838b7f	-0.004014432
63	0xbe0fef02	-0.14056018
64	0x3e0dfbdd	0.1386561
65	0xbc572349	-0.013130971
66	0xbddd4275	-0.10803691
67	0xbd7b27ed	-0.061317373
68	0x3c279d22	0.0102303345
69	0xbdd46f46	-0.10372786
70	0xbdf54a0d	-0.11977015
71	0xbdcd0d33	-0.10012283
72	0x3d882bd7	0.06648987
73	0xbd1fc6f5	-0.0390081
74	0xbb0ac99d	-0.00211773
75	0xbdd00bbc	-0.10158488
76	0xbde9e9b6	-0.1142153
77	0x3e191e34	0.14952928
78	0xbe6ba98c	-0.23013896
79	0xbc446563	-0.011987063
80	0x3dc440f9	0.09582705
81	0x3da1470e	0.07874881
82	0xbd1ad506	-0.03780081
83	0xbe0fe792	-0.14053181
84	0xbe3cf393	-0.18452291
85	0x3cefbf24	0.029265948
86	0x3baf7d6d	0.005355528
87	0x3d058433	0.032596778
88	0x3bf43234	0.0074522737
89	0x3dca6dfe	0.098842606
90	0xbd9ded8d	-0.07711325
91	0xbcf30156	-0.029663723
92	0x3d8bf38b	0.068335615
93	0x3ded3a07	0.115833335
94	0x3cf578ac	0.029964767
95	0x3dd97994	0.10618892
96	0xbe18604a	-0.14880481
97	0xbd1b094f	-0.037850674
98	0x3d943583	0.07236769
99	0xbe71403e	-0.23559663
100	0xbd8c85cf	-0.068614595
101	0x3c1b02be	0.009461103
102	0x3cb41049	0.021980422
103	0xbb877fa4	-0.004135089
104	0x3e8829ea	0.26594478
105	0x3d8cc132	0.068727866
106	0xbd6fc678	-0.058538884
107	0xbb2354d3	-0.0024922385
108	0x3d35014d	0.044190694
109	0x3e02d25e	0.12775561
110	0xbdc15dc0	-0.094417095
111	0xbd3b9b91	-0.045802657
112	0x3ca7a882	0.020466093
113	0x3ce2ce25	0.027686188
114	0x3da76f04	0.081754714
115	0xbe024cad	-0.12724562
116	0xbce3488f	-0.02774456
117	0xbd7222e8	-0.05911532
118	0xbdebd47e	-0.11515139
119	0xbd6e1775	-0.05812784
120	0xbd5f7e7b	-0.05456398
121	0x3cef599d	0.029217536
122	0xbddab387	-0.106787734
123	0x3d1a14d1	0.03761751
124	0xbd02a368	-0.031894118
125	0xbd1fc166	-0.0390028
126	0xbd71dae6	-0.05904665
127	0xbd654bd5	-0.055980522
128	0xbd72ea9b	-0.05930577
129	0xbdfffadf	-0.12499022
130	0xbd84b797	-0.064803295
131	0xbdf96fe3	-0.12179544
132	0xbd1464c8	-0.036228925
133	0xbacaf233	-0.0015483558
134	0xbcedcb33	-0.029027557
135	0xbc81d0f0	-0.0158467
136	0xbc80052a	-0.015627462
137	0x3cbe65cc	0.0232419
138	0xbc143f69	-0.009048321
139	0x3e046478	0.12928951
140	0x3dfd4e95	0.12368504
141	0x3dc13eea	0.09435828
142	0xbe019d87	-0.12657748
143	0xbe0461ca	-0.12927929
144	0xbda903a2	-0.08252646
145	0xbd2c9d9e	-0.042142503
146	0x3d16d000	0.036819458
147	0x3e243700	0.16036606
148	0xbd0aca48	-0.033884317
149	0x3d8376f0	0.0641917
150	0xbd8970c2	-0.0671096
151	0xbe860146	-0.26172847
152	0xbda68001	-0.081298836
153	0x3da76177	0.08172887
154	0xbe0dffde	-0.13867137
155	0xbb0a95be	-0.0021146382
156	0xbb4cf1c6	-0.0031272038
157	0x3dab5e17	0.083675556
158	0xbcba6b1b	-0.02275615
159	0x3e1f2b3c	0.15543836
160	0xbd5f4f6f	-0.054519113
161	0x3dcd10ad	0.10012946
162	0x3b7ce063	0.0038585893
163	0x3e38f4ed	0.18062182
164	0xbe114a61	-0.1418853
165	0x3cdc21de	0.026871618
166	0x3d8b2a16	0.06795137
167	0x3d3a7f9f	0.045531865
168	0x3e1c6dc1	0.15276243
169	0xbd87a949	-0.066240855
170	0xbddc2d0c	-0.107507795
171	0xbc83c819	-0.016086625
172	0xbd86b37e	-0.06577204
173	0x3da62ad8	0.081136405
174	0xbe425e57	-0.189813
175	0xbde249db	-0.11049243
176	0x3c93afa7	0.018028094
177	0xbdeb6393	-0.11493602
178	0x3da57909	0.08079726
179	0x3e1a8c82	0.15092662
180	0x3c14f406	0.009091383
181	0x3b8e3d7e	0.0043408265
182	0x3c3aa90f	0.011392846
183	0x3b993c99	0.0046764133
184	0xbe1341dc	-0.14380592
185	0x3e3692de	0.17829463
186	0x3b86ee13	0.004117736
187	0xbb6cb208	-0.0036116857
188	0x3d289ab5	0.041163165
189	0x3e7a01cd	0.2441475
190	0xbd82d367	-0.06387978
191	0x3d4243a9	0.047427807
192	0x3d4a77cd	0.049430657
193	0xbdc9ee7e	-0.09859942
194	0x3c893754	0.016750015
195	0x3cef8bac	0.029241405
196	0xbd14bce0	-0.036312938
197	0xbda4cefe	-0.08047293
198	0xbd74f90e	-0.05980783
199	0x3c6577cc	0.014005613
200	0xbccf6635	-0.02531729
201	0xbdfabbec	-0.122428745
202	0x3cb9e140	0.022690415
203	0x3e5517e6	0.20809898
204	0xbe9fddb3	-0.3122383
205	0xbd4aaaad	-0.049479175
206	0xbe1b5cf1	-0.15172173
207	0x3e1c89fb	0.1528701
208	0xbcd35720	-0.02579838
209	0xbdad9314	-0.084753186
210	0x3e28e22e	0.1649253
211	0xbdb73337	-0.08945315
212	0xbe0074f5	-0.12544616
213	0x3d4a6eba	0.049422003
214	0xbda0d524	-0.07853153
215	0x3d3b7022	0.045761235
216	0xba1ca8b2	-0.00059760653
217	0xbd1177c4	-0.035514608
218	0x3c95074a	0.018191952
219	0x3a4f4521	0.00079067243
220	0x3ddc6738	0.10761875
221	0xbd2810e3	-0.04103173
222	0xbdaa7fb6	-0.0832514
223	0xbdad63f6	-0.08466332
224	0xbd322a93	-0.043497633
225	0xbc27e754	-0.010248024
226	0x3c004f79	0.007831448
227	0x3d2ddce9	0.042447004
228	0xbb6a6ff3	-0.0035772293
229	0xbe108e5e	-0.14116809
230	0xbe38fe8a	-0.18065849
231	0x3a0e8896	0.0005437223
232	0x3c62d38a	0.01384438
233	0x3c5d6d6d	0.013514859
234	0xbd9ff920	-0.07811189
235	0xbdfb4ea5	-0.1227086
236	0xbde68621	-0.11256052
237	0xbdb4d2d7	-0.08829277
238	0x3ca77ddb	0.020445755
239	0x3e5bba07	0.21457683
240	0xbc5e1732	-0.013555335
241	0xbd9021ca	-0.07037695
242	0x3d59165b	0.052999835
243	0x3d0acf6e	0.033889227
244	0x3e120dcb	0.14263074
245	0xbd9ae33e	-0.07562874
246	0xbd582869	-0.052772913
247	0x3d344032	0.044006534
248	0x3d5fcb5e	0.054637305
249	0x3e11cba6	0.14237842
250	0xbc2e0506	-0.010621315
251	0x3e2ec586	0.17067537
252	0xbc6f9b72	-0.014624463
253	0xbd70a461	-0.058750514
254	0x3d6ad8b8	0.057335585
255	0x3d1290d8	0.035782665

network_body._body_endoder.seq_layers.2.bias f4 [128]
0	0x3be50ed8	0.006990295
1	0x3b514086	0.0031929328
2	0x3adf6b35	0.00170455
3	0x3baa44ef	0.005196206
4	0xbbb66e9e	-0.005567386
5	0x3ae1ab9c	0.0017217281
6	0xbaa11571	-0.0012289715
7	0xb92876ec	-0.0001606603
8	0x3c0b8d3f	0.008517562
9	0xba78d928	-0.0009492808
10	0x3b1881b0	0.002327066
11	0xbb0d31d7	-0.00215446
12	0x3b672300	0.0035268664
13	0x3aea75cc	0.0017887889
14	0xba64c669	-0.0008727075
15	0x3980bd1b	0.00024554957
16	0xbb1b9f0b	-0.002374592
17	0x3b87b626	0.004141587
18	0xbb1b3d9a	-0.002368784
19	0xbbb79ffe	-0.0056037894
20	0x3ae8c20c	0.0017758026
21	0x3c0bdcf1	0.008536563
22	0x3b027341	0.0019905122
23	0xbbafbdc7	-0.0053631994
24	0xb9d6790b	-0.00040907445
25	0xba5ee98e	-0.000850343
26	0x3ba741e8	0.005104292
27	0xba5ab220	-0.0008342583
28	0xbb979dab	-0.00462695
29	0xbb7dfaaf	-0.0038754155
30	0x3a2bc352	0.00065522373
31	0xb9bb928c	-0.00035776605
32	0xbaf3f698	-0.0018612919
33	0xbb9a18fb	-0.004702685
34	0xbb4dabdf	-0.003138296
35	0x3ba924e6	0.0051618693
36	0xbb25e0f9	-0.0025311096
37	0x3b896dfe	0.0041940203
38	0xbba3a625	-0.004994171
39	0x3b42b4b1	0.0029709751
40	0x3b007660	0.0019601807
41	0x3b8b0b4a	0.004243289
42	0x3ac30add	0.0014880557
43	0x3bbbff67	0.0057372334
44	0x3a35e93a	0.00069393555
45	0xbb9065a2	-0.004406647
46	0x3bc47873	0.005995804
47	0xba1492c2	-0.00056676206
48	0xbbe38432	-0.006943249
49	0x38781ec9	5.915648e-05
50	0x3b93d235	0.0045111426
51	0x3bbf91b0	0.0058462247
52	0xbbbe5700	-0.005808711
53	0x3b2b3add	0.0026127615
54	0xb93949b6	-0.00017670434
55	0x3a73ce3a	0.00093004445
56	0xbb46ddb1	-0.003034454
57	0xbada89af	-0.0016673113
58	0x3bc2d44a	0.005945717
59	0x3b4c5126	0.0031176298
60	0x3b5e4713	0.0033916875
61	0x3af55689	0.0018717806
62	0xbab7e434	-0.0014029802
63	0x3ad52a25	0.001626317
64	0xb9079979	-0.00012931776
65	0x3be774ed	0.007063499
66	0xbbbfd82f	-0.0058546285
67	0x3b02866b	0.0019916545
68	0x3a96968e	0.0011488961
69	0x3b27cce4	0.0025604302
70	0xbb14be90	-0.0022696592
71	0x3a488f37	0.0007650735
72	0x38892e59	6.541302e-05
73	0x3b8afc0d	0.0042414726
74	0xbbdc744b	-0.0067277304
75	0x3af1a0ea	0.0018434797
76	0xba1e550c	-0.00060398947
77	0xbb2abcaa	-0.0026052394
78	0x3b77ca3d	0.0037809752
79	0xbbf0a91d	-0.0073443786
80	0xba10fa10	-0.0005530426
81	0xb8e2e00c	-0.00010818252
82	0x3af54cb4	0.0018714876
83	0xba4e7d4e	-0.0007876948
84	0x3c1c8f13	0.009555596
85	0x39a450a5	0.00031340602
86	0xb85d7908	-5.2803225e-05
87	0x3b348a4c	0.0027548252
88	0xbaae7601	-0.0013310314
89	0xba0a9890	-0.0005287016
90	0x3b0b363f	0.002124205
91	0x3b70347c	0.0036652377
92	0xb942dc8e	-0.00018583445
93	0xbb9d84b6	-0.00480708
94	0xbbe19d87	-0.006885234
95	0x3bec7e9d	0.007217242
96	0xbb81a3ae	-0.0039562797
97	0xbb045045	-0.0020189446
98	0x3ab37458	0.0013691289
99	0x3b283c42	0.0025670682
100	0xbb8c06b9	-0.0042732623
101	0x39ac3b80	0.00032850727
102	0x3b9360be	0.0044976166
103	0x3c06d7bb	0.008230145
104	0xb9990d12	-0.00029192172
105	0xbb4f6a4a	-0.0031649047
106	0xbbf5d547	-0.0075022313
107	0x3abac338	0.0014248854
108	0x3b9c8318	0.00477637
109	0xbb847d3f	-0.004043251
110	0x3aa4fc08	0.0012587318
111	0x3bb22782	0.0054368386
112	0xbbd05f2e	-0.0063590026
113	0x3aaa0e04	0.0012974148
114	0xbbe2e7bc	-0.0069245975
115	0x3bf0d611	0.0073497375
116	0xbb4709fe	-0.0030370946
117	0xbabe02db	-0.0014496701
118	0x3ad027b9	0.0015880979
119	0xbbb7c87b	-0.005608616
120	0x3b401b32	0.0029313085
121	0x3b83f66b	0.004027178
122	0xb9cc585a	-0.0003897574
123	0xbbfd30e5	-0.007726776
124	0xbb0e36b7	-0.0021700093
125	0xbbc53d53	-0.0060192733
126	0x3b233707	0.0024904625
127	0xbaaa6286	-0.0012999333

action_model._discrete_distribution.branches.0.weight f4 [4, 128]
0	0xbbd9fdc8	-0.0066525675
1	0xbc19f20e	-0.009396089
2	0xbc0ea00a	-0.0087051485
3	0xbc80892f	-0.015690414
4	0xbb2c4120	-0.0026283935
5	0xbc00ab84	-0.0078533925
6	0x3b87834c	0.004135525
7	0x3c677ba3	0.014128598
8	0xbb4e521f	-0.0031482053
9	0x3bacb176	0.0052701784
10	0x39df1922	0.000425526
11	0x3ac39b86	0.0014923669
12	0x3ae99045	0.0017819485
13	0xbb2edb5b	-0.002668104
14	0x388a3c42	6.591577e-05
15	0xbc46c776	-0.012132516
16	0x3c00a71a	0.00785234
17	0xbb8a14c7	-0.0042139026
18	0xbc8017b7	-0.015636308
19	0x3b385893	0.0028128966
20	0x3b13118b	0.0022440876
21	0x3ac85a46	0.0015285693
22	0x3b8e6c24	0.0043463875
23	0x3c259529	0.010106363
24	0x3be1a39f	0.00688596
25	0x3c192657	0.00934752
26	0xbb96a51c	-0.0045973193
27	0x3be4a85b	0.0069780773
28	0x3c734c2c	0.014849704
29	0x3c598029	0.013275185
30	0xbbf8a395	-0.00758786
31	0x3b8c41e0	0.004280314
32	0xbbe42bd8	-0.0069632344
33	0x3ade9ff6	0.0016984928
34	0x3c263332	0.010144042
35	0x3bc2a800	0.0059404373
36	0x39eb9c23	0.00044939024
37	0x3c3295e5	0.010899995
38	0x3a46d970	0.00075855013
39	0xbba146fb	-0.0049217916
40	0x3c12bf31	0.008956716
41	0xbc6f3f14	-0.014602441
42	0x3b8739e2	0.004126773
43	0xbaa3628e	-0.0012465285
44	0xbb399e23	-0.0028323017
45	0x3c2af242	0.010433735
46	0xbc0f9d1b	-0.008765484
47	0xbbd60ab1	-0.0065320362
48	0x3bf1504f	0.00736431
49	0x3b31ee41	0.0027150067
50	0x3bb3e8dd	0.005490406
51	0x3b6de141	0.0036297592
52	0x3969b74c	0.00022288895
53	0x3c891072	0.016731475
54	0x3c7a9f85	0.0152968215
55	0x3ccfd6fb	0.025371065
56	0x3bf954f5	0.0076090046
57	0xbc3c1732	-0.01148014
58	0xbb6a826b	-0.0035783302
59	0xbc62c28c	-0.013840329
60	0xb8ccbd5c	-9.762749e-05
61	0xbc245da2	-0.010032089
62	0xbba69bb2	-0.0050844783
63	0x3c6e1291	0.014530794
64	0x3c07d1e5	0.008289789
65	0xbc48222f	-0.012215181
66	0x3c257488	0.010098584
67	0x3bbd957c	0.005785642
68	0xba1ad908	-0.0005906974
69	0x3ad459f4	0.0016201125
70	0x3b82a18e	0.003986544
71	0xbb39c5ed	-0.0028346733
72	0xbc3c0fac	-0.011478346
73	0x394afe70	0.00019359007
74	0x3998ce90	0.000291456
75	0x3c186514	0.009301443
76	0x3b981c9b	0.004642082
77	0xbc3bdcae	-0.011466188
78	0x3c8d3cb5	0.017240861
79	0x3b639385	0.003472538
80	0x3af874ac	0.0018955669
81	0xbae33dd3	-0.0017337151
82	0xba009010	-0.00049042795
83	0xbc070c56	-0.008242687
84	0xbbf36a4a	-0.007428442
85	0x3c992691	0.018695148
86	0xbab11fe0	-0.0013513528
87	0xbca9d791	-0.020732673
88	0xbc100b40	-0.008791745
89	0x3c024a2c	0.007952254
90	0xbcb202ae	-0.021729793
91	0xbc3b54f2	-0.011433827
92	0x3c2cb622	0.010541471
93	0xbb1446ae	-0.0022625136
94	0xba72c238	-0.0009260508
95	0xbb558a72	-0.003258374
96	0x3a32f140	0.000682611
97	0xbb617744	-0.0034403363
98	0x3c9c1bf0	0.01905629
99	0xbc7389c9	-0.0148643935
100	0xbc61b8ae	-0.013776941
101	0xbc303f4b	-0.010757278
102	0xbc997808	-0.018733993
103	0x39020e93	0.00012403195
104	0xbc0b2224	-0.0084920265
105	0xba8aa949	-0.0010579015
106	0x3c1ea88f	0.009683742
107	0xbc3cb380	-0.0115174055
108	0x393bf158	0.00017923617
109	0x3c3409a1	0.010988624
110	0xbc45930b	-0.012058984
111	0xbca8c273	-0.020600533
112	0x3b37d21f	0.0028048826
113	0xbc0b9d95	-0.008521457
114	0xb8f0a605	-0.00011475015
115	0xbc226e53	-0.009913999
116	0x3b0b4906	0.0021253242
117	0xbc8288dc	-0.0159344
118	0xbbc4ffd9	-0.0060119447
119	0x3c665362	0.014057966
120	0xbb0e569f	-0.002171911
121	0xbb793f0f	-0.003803197
122	0xbbe3aedd	-0.0069483356
123	0xbbf59ed5	-0.007495741
124	0x3ba81ee5	0.005130636
125	0x3b080bb8	0.0020758938
126	0x3a79c9ff	0.0009528696
127	0xbb952820	-0.0045519024
128	0xbbc1ec75	-0.0059180805
129	0x3c303435	0.010754635
130	0xba8c7a03	-0.0010717515
131	0xbc1591da	-0.009129012
132	0x3b7c6e11	0.0038517753
133	0xbb7f4938	-0.0038953554
134	0xbbf9537b	-0.0076088286
135	0xbc2a1f3f	-0.010383426
136	0xbc6df68f	-0.014524116
137	0xbc112110	-0.00885798
138	0x370cc918	8.391471e-06
139	0xbc3f89a7	-0.011690534
140	0xbac33dcf	-0.001489574
141	0xbc299601	-0.010350705
142	0xbb9e0663	-0.0048225387
143	0x3c2f5752	0.010701971
144	0xbb57715c	-0.0032873964
145	0xbc2333d6	-0.009961089
146	0x3c0b335e	0.008496134
147	0xbb1e3e06	-0.0024145856
148	0xbb84e1f5	-0.0040552565
149	0xbc644053	-0.013931352
150	0x3ca3c265	0.019990155
151	0xbb3e9f77	-0.0029086748
152	0xbc30cc73	-0.010790932
153	0x3c3dea3d	0.011591491
154	0x3a8e53ff	0.0010858773
155	0x3c568403	0.0130929975
156	0x3ba078ae	0.0048971986
157	0x3bdaee88	0.006681267
158	0xbbebcb5d	-0.0071958737
159	0x3bbaa950	0.005696453
160	0x3b049f77	0.002023665
161	0x3a9bc6d9	0.0011884823
162	0xbafc41e3	-0.001924571
163	0xbbe96f51	-0.0071238657
164	0x3b01dd6e	0.001981582
165	0x3b15d68d	0.0022863478
166	0x39b04926	0.00033623836
167	0xba628c74	-0.0008642145
168	0xbc2687e7	-0.010164238
169	0xbc2da729	-0.010598936
170	0xbbbc240a	-0.005741601
171	0x3ab095e0	0.0013472401
172	0x3c5a4c97	0.0133239245
173	0x3ba78685	0.0051124715
174	0xbc42ca01	-0.011888982
175	0x3c0310a1	0.00799957
176	0x3bb501fa	0.0055239173
177	0x3c8a35b4	0.01687131
178	0xbbe67004	-0.0070323963
179	0x3bf1bebe	0.0073774746
180	0xbb8896c8	-0.004168365
181	0xbb3e1850	-0.002900619
182	0xbbb3bb8e	-0.0054850047
183	0x3b5e3b14	0.0033909725
184	0x3be33f4b	0.0069350353
185	0x3be9ef1f	0.007139101
186	0xbbddb768	-0.0067662485
187	0xbc0bb980	-0.008528113
188	0xbbebbb6f	-0.0071939747
189	0xb9bcea9b	-0.0003603295
190	0x3c462c3f	0.01209551
191	0xbc05a7d5	-0.00815769
192	0x39437594	0.0001864045
193	0xbc6f5ce8	-0.014609553
194	0x3ba27d05	0.004958751
195	0x3b4099d3	0.0029388561
196	0xbb7feaaa	-0.0039049783
197	0xbba7d7f6	-0.00512218
198	0x38b148de	8.45359e-05
199	0xbaaf20d7	-0.0013361227
200	0x3b7fe6f1	0.0039047564
201	0xbb9c5a39	-0.0047714976
202	0x3cb63250	0.022240788
203	0xb92a2473	-0.00016226042
204	0x3b124c4b	0.0022323306
205	0x3c81f8be	0.01586568
206	0xbbe2914a	-0.0069142925
207	0x3ba370a8	0.004987795
208	0xbbc6d394	-0.0060677025
209	0x3c26927f	0.010166763
210	0x3c0f0316	0.008728763
211	0x3b0d1cc1	0.0021532031
212	0xbcaa7b09	-0.02081062
213	0xbbf1fed1	-0.007385113
214	0x39d3dfee	0.00040411897
215	0x3adad099	0.0016694247
216	0x3c143253	0.009045201
217	0x3bedefe8	0.007261265
218	0x3b34cd72	0.0027588275
219	0x3bcb9e6c	0.0062139537
220	0x39c52c2b	0.00037607676
221	0x3acb1f48	0.0015496993
222	0x3b5acda5	0.0033386734
223	0xbbe7bf1e	-0.0070723435
224	0xbc2c0d43	-0.010501209
225	0x3c5e7c09	0.013579377
226	0xbcbdb043	-0.023155337
227	0x3bd8424d	0.0065997005
228	0xbb74acce	-0.0037334445
229	0x3c71f428	0.014767684
230	0x3c1619d1	0.009161429
231	0xbbf59d1c	-0.0074955355
232	0xbb4f1098	-0.0031595584
233	0x3bf8bbcd	0.007590747
234	0x3c2e9e31	0.010657833
235	0x3c14a642	0.009072842
236	0xbb2ce535	-0.0026381735
237	0x3c487887	0.012235767
238	0xbadb98c8	-0.0016753906
239	0xbc91b94a	-0.017788548
240	0x3a156865	0.0005699455
241	0xbb30fa49	-0.002700465
242	0x3c23023b	0.009949262
243	0xbb8fc353	-0.004387298
244	0xbb972d4c	-0.004613554
245	0x3b6e3ced	0.0036352233
246	0xbbb2f377	-0.005461152
247	0x3c5105c6	0.012757724
248	0xbc246280	-0.01003325
249	0x3b9512dc	0.0045493674
250	0xbb43481e	-0.0029797624
251	0xbb86e846	-0.0041170446
252	0x3b65a916	0.003504341
253	0x3a9a88d2	0.0011790043
254	0xbbdac1bc	-0.006675927
255	0xbc178091	-0.009246961

action_model._discrete_distribution.branches.0.bias f4 [4]
0	0xbb2ee541	-0.002668694
1	0xbb3c4b6a	-0.0028731474
2	0x3ad8b809	0.0016534339
3	0x3b8cfd7f	0.00430268

action_model._discrete_distribution.branches.1.weight f4 [3, 128]
0	0x3bccba74	0.006247813
1	0xbb4998e8	-0.0030761305
2	0x3bb7f4e7	0.0056139114
3	0x3c4f2413	0.012642878
4	0xbc8f73e1	-0.01751131
5	0xbb0635ff	-0.0020478962
6	0x3c0009b3	0.0078148125
7	0xbbcc5649	-0.006235872
8	0x3c357e48	0.011077471
9	0xbc0a97fb	-0.0084590865
10	0xbba77e07	-0.005111459
11	0xbb4cb6d4	-0.0031236904
12	0xb93f1470	-0.00018222793
13	0xbbfe6d89	-0.0077645225
14	0x3aaa6683	0.0013000522
15	0xbbf2fce4	-0.007415401
16	0xbb9a1255	-0.0047018924
17	0xba502969	-0.0007940741
18	0x3bb92cd2	0.005651095
19	0xbc714d20	-0.014727861
20	0x3c1f3c76	0.009719005
21	0x3bae4d1b	0.0053192503
22	0x3b563df2	0.003269073
23	0xbc3fb673	-0.011701214
24	0xbc4a3fd0	-0.012344316
25	0xb9b3a651	-0.00034265456
26	0x3bec0f38	0.0072039627
27	0xbc878f6e	-0.016547885
28	0x3a6d81cf	0.00090601755
29	0xbb1e0aca	-0.0024115318
30	0x3af5501e	0.0018715893
31	0x3ab60501	0.0013886989
32	0xbc3a9fa7	-0.011390603
33	0xbb5f0637	-0.0034030804
34	0x3b49bb33	0.0030781745
35	0x3be2626f	0.006908707
36	0xbc15ba39	-0.009138637
37	0x3c3f05c8	0.011659093
38	0xbbe02082	-0.0068398127
39	0x3bf9c738	0.0076226257
40	0x387506ce	5.841889e-05
41	0x3c09aeeb	0.00840352
42	0xbbef5309	-0.0073035997
43	0x3bdbe1c2	0.006710262
44	0xb9db4832	-0.00041824725
45	0xbb531d37	-0.0032213458
46	0x3b317d6e	0.0027082819
47	0xbc6e1381	-0.014531017
48	0xbbe9ff3f	-0.0071410234
49	0x3ba9dea0	0.0051840097
50	0x3a942566	0.001130265
51	0x3bf5cef5	0.007501478
52	0x3b7714d8	0.0037701633
53	0x3b49ce0c	0.003079298
54	0xbc9d03df	-0.019166885
55	0xbc6102d3	-0.0137335835
56	0x3aeceadb	0.0018075363
57	0x39b4b051	0.0003446364
58	0x3c8c0b97	0.01709537
59	0xbac6f7d3	-0.0015180059
60	0x3c0b363c	0.008496817
61	0x3bbe9e7d	0.005817233
62	0xbb1ec158	-0.0024224129
63	0x3c58a702	0.0132234115
64	0xbc96f9b4	-0.018429615
65	0x3bccf70d	0.0062550367
66	0xbb52ebfc	-0.0032184115
67	0x3c461be5	0.0120916115
68	0x3c2ce27f	0.010552048
69	0x3c783f1b	0.015151764
70	0xbca31438	-0.019907102
71	0xbc2d2e59	-0.010570132
72	0xbc48154e	-0.012212111
73	0x3c197252	0.009365635
74	0xbc85cbc7	-0.01633252
75	0x3cc5f164	0.024162956
76	0x3c7d0d69	0.015445092
77	0xbbdf9ac3	-0.006823869
78	0xbb6583d5	-0.0035021205
79	0xba9aa267	-0.0011797667
80	0xbc1151a6	-0.008869564
81	0x3bb84e2d	0.0056245537
82	0x39f17e15	0.0004606104
83	0xbbf0dcc7	-0.0073505375
84	0x3c9629ae	0.018330421
85	0xbc1c1f17	-0.009528897
86	0x3b81ef86	0.003965321
87	0xbae04386	-0.0017109967
88	0x3ba86730	0.005139254
89	0x3ae9861b	0.0017816456
90	0x3c4a8de1	0.012362928
91	0xbb28b064	-0.0025739903
92	0x3b7ac7f4	0.0038266154
93	0xbbb63dfa	-0.0055615874
94	0x3b0a6b6f	0.0021121164
95	0xbb98818d	-0.0046541155
96	0xbca09e89	-0.019606845
97	0xbc8b0d1e	-0.016974028
98	0xba9a941f	-0.0011793411
99	0xbbcd3a2b	-0.0062630377
100	0xbc841751	-0.0161244
101	0x3ca9ff4f	0.020751623
102	0x3b089b75	0.0020844613
103	0x3c54e02e	0.012992902
104	0xbc85a56f	-0.016314236
105	0xb6f16ca0	-7.1950053e-06
106	0xbc7bfad9	-0.015379631
107	0x3c21753a	0.009854609
108	0xbb4ff5f2	-0.0031732288
109	0xbcb67bfe	-0.022275921
110	0x3a28b831	0.0006436138
111	0x38b8ede4	8.818114e-05
112	0xbba9a0e8	-0.005176652
113	0xbc30cd3e	-0.010791121
114	0xbb944ad2	-0.004525521
115	0x3ab4e972	0.0013802482
116	0xbc8be7db	-0.01707833
117	0xbc0167c6	-0.007898277
118	0x3b5d5ae4	0.00337761
119	0xbb52ea63	-0.0032183162
120	0x3bcd06d4	0.0062569175
121	0x3b9665ba	0.0045897635
122	0xbc86451c	-0.016390376
123	0xbc8a8b6a	-0.01691218
124	0xbc7760ce	-0.015098764
125	0x3c2df43d	0.010617313
126	0xbc0dbb2e	-0.008650584
127	0x3c039f45	0.008033578
128	0x3a9b3a96	0.0011843021
129	0xbbedfc0c	-0.0072627123
130	0x3c1dab20	0.009623319
131	0xbbbb0bd4	-0.005708197
132	0xbb1b9f42	-0.0023746048
133	0x3ba2fc9d	0.0049739615
134	0xbbf827dc	-0.007573111
135	0xbc308feb	-0.0107765
136	0x3c898c2f	0.016790478
137	0xbb88b159	-0.004171532
138	0xbb33325c	-0.002734325
139	0xbb2dd3c3	-0.0026523925
140	0x3c4a2ccd	0.012339783
141	0xbbfdfefc	-0.007751344
142	0xbc6db1b1	-0.014507697
143	0xbc0793de	-0.008275
144	0xbbcf8880	-0.0063334107
145	0xbc34e803	-0.011041644
146	0xbb46a883	-0.0030312843
147	0xbbc0fd3c	-0.005889563
148	0xbc2c9cd6	-0.0105354395
149	0xbb5495aa	-0.003243784
150	0x3aa51a6f	0.0012596379
151	0x3c081b40	0.008307278
152	0x3c832290	0.016007692
153	0xbae38917	-0.0017359582
154	0x3af54943	0.001871385
155	0x3b4f4493	0.0031626567
156	0xbc9dd13a	-0.019264806
157	0xbbeebd03	-0.0072857155
158	0x3c294d6f	0.010333403
159	0x3bacc249	0.005272184
160	0x3bfa84b1	0.0076452126
161	0x3ae6a76f	0.0017597507
162	0xbc7de8ec	-0.015497427
163	0x3ae5b5e3	0.001752552
164	0x3c0216ff	0.007940053
165	0xbbebc927	-0.00719561
166	0x3c0ffa33	0.0087876795
167	0xb9961c97	-0.0002863153
168	0x3b3ca91b	0.0028787318
169	0x3a436a5e	0.00074545096
170	0x3c074643	0.008256498
171	0x3c902757	0.017596884
172	0x3bbcccbc	0.005761711
173	0x3b91d359	0.0044502434
174	0xbc472d63	-0.012156817
175	0xbad6addd	-0.001637872
176	0xbb1ac174	-0.0023613842
177	0x3c06fb71	0.008238659
178	0xbc57ddd5	-0.0131754475
179	0xbbc4cde0	-0.0060059875
180	0xbbc0863c	-0.005875377
181	0xbad582b2	-0.0016289561
182	0x3b806532	0.0039183134
183	0x3c52aa70	0.012858018
184	0xbc8f03e5	-0.017457912
185	0x3bff3177	0.007787879
186	0x3b6f35b7	0.0036500522
187	0xbb968348	-0.0045932867
188	0x3c45f53c	0.012082394
189	0xbc06248b	-0.008187423
190	0x3bed5083	0.0072422638
191	0x39333e86	0.00017094062
192	0x3c0ead56	0.008708319
193	0xbbb1764a	-0.0054157125
194	0x3b11c3f0	0.0022242032
195	0xbb94666c	-0.004528811
196	0x3b64f962	0.0034938683
197	0x3c03852a	0.008027354
198	0xb825d670	-3.9538776e-05
199	0x3c9c19bd	0.019055242
200	0x3c283980	0.010267615
201	0x3c8f4334	0.0174881
202	0xbc8998a4	-0.016796418
203	0x3ab60cc7	0.0013889306
204	0x3bed6503	0.0072447076
205	0x3b272bcc	0.0025508283
206	0x3b87e64d	0.004147327
207	0x3a2923a4	0.0006452149
208	0xbb22f77c	-0.002486675
209	0xbb66769c	-0.0035165912
210	0x3a8d262a	0.001076882
211	0xbb7b4ce4	-0.003834539
212	0x3a0bfac6	0.00053397974
213	0x3c39707e	0.011318324
214	0xbbaae5bd	-0.005215375
215	0x3b5c6478	0.003362922
216	0xbb88407c	-0.0041580778
217	0x3a93a50a	0.0011264395
218	0x3c5aaec4	0.013347331
219	0xbb1e7195	-0.0024176587
220	0xbcb99542	-0.02265418
221	0xbc17e7c3	-0.009271565
222	0xbb6c951f	-0.0036099625
223	0x3a9b81be	0.0011864228
224	0xbbcf500a	-0.00632668
225	0x3bd21ae4	0.006411897
226	0x3b8b1641	0.004244596
227	0x399293de	0.0002795746
228	0xbb8a5895	-0.0042219856
229	0xbc3f6fa0	-0.011684328
230	0x3b962033	0.004581475
231	0xbc8b072f	-0.016971199
232	0x3be6f994	0.007048795
233	0xbb87cd28	-0.0041443296
234	0xbbd0c7d5	-0.006371478
235	0x3b45b3a4	0.0030166889
236	0x3a90aacf	0.0011037233
237	0xbc218c43	-0.009860101
238	0xbbe9c90e	-0.0071345633
239	0xbc1a2e43	-0.009410444
240	0xbc16b01e	-0.009197263
241	0x3c9649de	0.01834577
242	0xbc1206fa	-0.008912796
243	0x3b9df5c4	0.0048205573
244	0x3b06d93d	0.0020576261
245	0xbc374092	-0.011184828
246	0x3c8e558d	0.017374778
247	0xbb93c4cc	-0.004509544
248	0xbb98ec8e	-0.0046668714
249	0xbbeb15d6	-0.007174234
250	0x3b5a79d5	0.0033336778
251	0xbc0e2fcd	-0.008678389
252	0x3b94b1e0	0.004537806
253	0x3babe37f	0.0052456255
254	0x3acba13f	0.0015535726
255	0xbc3aa02a	-0.011390725

action_model._discrete_distribution.branches.1.bias f4 [3]
0	0x3b5739fe	0.0032840963
1	0x3aaf6abe	0.0013383252
2	0xbbcc4913	-0.006234297
