results/playeragent/My Behavior.onnx (onnx, 92206 bytes, 9 tensors)

discrete_act_size_vector f4 [1, 2]
0	0x40800000	4.0
1	0x40400000	3.0

network_body._body_endoder.seq_layers.0.weight f4 [128, 29]
0	0xbdc2bf0e	-0.09509097
1	0xbecbae6b	-0.39781508
2	0x3e5d20d4	0.21594554
3	0xbe3811c1	-0.17975523
4	0x3d19a365	0.03750934
5	0x3e35d49a	0.17756882
6	0x3e79fb13	0.24412183
7	0x3c7511ec	0.014957886
8	0xbe17f9a7	-0.14841329
9	0xbdefd986	-0.11711411
10	0x3ca6996e	0.020336833
11	0xbe050030	-0.12988353
12	0x3e08eb0e	0.13370916
13	0x3e0c81b5	0.13721354
14	0x3cf6195c	0.03004139
15	0x3e3512dc	0.17682976
16	0xbd80b796	-0.06285016
17	0x3e847c79	0.25876215
18	0x3dc072c4	0.0939689
19	0x3e3914eb	0.18074386
20	0x3e6697ac	0.22518796
21	0x3e76589a	0.24057236
22	0x3e981ba0	0.29708576
23	0x3e1a57ea	0.15072599
24	0x3e7edab9	0.24888124
25	0x3e063654	0.13106662
26	0xbe9686e3	-0.29399785
27	0xbbc2b525	-0.0059420043
28	0x3e7604e0	0.24025297
29	0xbd9f032e	-0.07764278
30	0xbe729dc2	-0.23692992
31	0xbe646c28	-0.22306883
32	0xbcc5a235	-0.024125198
33	0xbe2734fb	-0.16328804
34	0x3e5e535e	0.2171149
35	0xbe42d003	-0.19024663
36	0xbe18e6b4	-0.14931756
37	0xbe8afe3e	-0.27147096
38	0x3ed4c754	0.41558325
39	0x3d8f644f	0.07001554
40	0x3df9b09e	0.1219189
41	0x3cc1ba26	0.023648333
42	0x3c43c427	0.011948622
43	0xbda54451	-0.08069671
44	0x3e1fe1fd	0.15613551
45	0xbc0becd5	-0.008540352
46	0xbe40a1b7	-0.1881169
47	0x3e73e623	0.23818259
48	0x3d47f9dc	0.04882227
49	0x3e177866	0.14792022
50	0x3e1f14a4	0.15535218
51	0xbc45eac8	-0.012079902
52	0xbe196318	-0.14979208
53	0x3dc44154	0.09582773
54	0xbb3394de	-0.0027401964
55	0xbd858ed3	-0.06521382
56	0xbd28e020	-0.041229367
57	0xbdac8595	-0.08423916
58	0x3b76c468	0.0037653688
59	0x3e4b6cd0	0.19865727
60	0x3e5c27cd	0.21499558
61	0x3e3c3317	0.18378864
62	0xbec7067d	-0.38872138
63	0x3d78b409	0.06071857
64	0x3d60d625	0.054891724
65	0xbdb81991	-0.089892514
66	0x3d9c8280	0.076420784
67	0xbd9a7963	-0.07542684
68	0x3e49174c	0.19637793
69	0x3dbe3c41	0.09288836
70	0x3da9b830	0.08287084
71	0xbdefdb5b	-0.117117606
72	0x3ed87154	0.42273962
73	0xbe6f0192	-0.23340443
74	0xbd8c212e	-0.06842266
75	0x3e16c74c	0.14724463
76	0xbd7a39b4	-0.061090186
77	0x3e075deb	0.1321942
78	0x3d830946	0.06398253
79	0xbc9502ff	-0.018189905
80	0xbe994a3c	-0.2993945
81	0xbf093aec	-0.5360553
82	0xbe8b4bac	-0.2720617
83	0x3e2dcaec	0.1697194
84	0xbea327ec	-0.31866395
85	0x3e7445d7	0.23854767
86	0x3e5e4c09	0.21708693
87	0xbd7c8b0b	-0.06165604
88	0x3e872dd4	0.26402152
89	0xbf045514	-0.5169232
90	0x3ecc947a	0.3995703
91	0x3ea8ca0f	0.32966658
92	0x3d45c873	0.048286866
93	0xbdac3dbd	-0.08410213
94	0x3da728df	0.081620924
95	0xbd4f7651	-0.050649945
96	0xbeae6a84	-0.3406564
97	0x3e7c5baf	0.2464435
98	0xbdb9d4b6	-0.090737745
99	0x3d613cbd	0.054989565
100	0xbe2ec697	-0.17067944
101	0x3d866016	0.06561296
102	0x3f06d731	0.52672106
103	0xbe823c9b	-0.25436863
104	0x3e92c15f	0.28663155
105	0x3dc7a01c	0.09747335
106	0xbe92dc91	-0.28683904
107	0xbd19d0d4	-0.03755267
108	0xbe592ee8	-0.212093
109	0x3e1cee69	0.15325321
110	0xbd1a8357	-0.03772291
111	0x3e68bdab	0.22728603
112	0xbe600d92	-0.21880177
113	0x3d9be176	0.07611363
114	0xbe43dcce	-0.19127199
115	0x3e82d64f	0.2555413
116	0x3ebcfb29	0.3691037
117	0xbe9fb349	-0.3119147
118	0xbe74a64c	-0.23891562
119	0x3cec35c7	0.028834237
120	0x3b87bb9c	0.004142238
121	0x3d2999e8	0.041406542
122	0xbdb2bc76	-0.08727352
123	0xbe61a1f7	-0.22034441
124	0xbd5c4405	-0.053775806
125	0x3d94d21b	0.07266637
126	0x3b87da45	0.004145893
127	0xbe713c2a	-0.23558107
128	0x3dd0d4e3	0.10196855
129	0x3dba1b5d	0.090872504
130	0xbe4b33a3	-0.19843917
131	0xbdf226f1	-0.11823834
132	0xbde6d559	-0.112711616
133	0xbed5c9a7	-0.4175541
134	0xbdb2ddf7	-0.08733743
135	0xbe9e7e25	-0.30955616
136	0xbd9f0afc	-0.07765767
137	0xbec90a8a	-0.39265853
138	0xbe914f31	-0.2838073
139	0xbe11cbff	-0.14237975
140	0x3d255d97	0.040372457
141	0xbe3f7c39	-0.18699731
142	0x3d720c71	0.059093896
143	0xbe0c2065	-0.13684233
144	0xbba78fc9	-0.005113576
145	0x3e41c05c	0.18921036
146	0x3cfe3a45	0.031033644
147	0xbdb3cc7c	-0.08779237
148	0x3dc3dbbc	0.095633954
149	0x3ecf43a4	0.40481293
150	0xbbfba786	-0.0076798825
151	0x3e6c4cd8	0.23076189
152	0x3cd57399	0.026056098
153	0x3d105d01	0.035244945
154	0xbce55d77	-0.02799867
155	0xbc438b42	-0.011935057
156	0xbd0a05be	-0.033696882
157	0x3d1aab66	0.037761115
158	0xbe34b613	-0.17647581
159	0x3dc8649a	0.09784813
160	0x3d8165ad	0.06318221
161	0xbd7002b5	-0.05859633
162	0x3e9e2fc6	0.30895823
163	0x3d34fb1a	0.04418478
164	0x3ee0e4aa	0.43924457
165	0x3e5e4d20	0.21709108
166	0x3edb796e	0.4286608
167	0xbdd86e12	-0.10567869
168	0x3dcae414	0.09906784
169	0x3c8c35c7	0.017115487
170	0x3eaf4745	0.34234062
171	0xbd732f10	-0.059371054
172	0xbe64a4d1	-0.22328497
173	0x3e551dfe	0.20812222
174	0xbd4a246e	-0.04935115
175	0x3d338131	0.04382438
176	0xbe2a7ddd	-0.16649576
177	0x3d2385dd	0.039922584
178	0x3e9c0fc8	0.3048079
179	0x3b27545b	0.0025532458
180	0x3dfa554e	0.12223302
181	0x3e929e4d	0.286364
182	0xbd20e548	-0.03928116
183	0x3e2698f2	0.16269282
184	0xbe2655b4	-0.1624363
185	0x3ec8f1f7	0.39247105
186	0xbd6cdfc0	-0.057830572
187	0x3e163a79	0.14670743
188	0x3d4ac440	0.049503565
189	0x3db93028	0.09042388
190	0x3e387c48	0.1801616
191	0xbed35564	-0.41276085
192	0xbef577d5	-0.47942987
193	0xbdc6d2cf	-0.09708177
194	0x3dba8e53	0.091091774
195	0x3ca677c6	0.020320784
196	0xbdc26c61	-0.09493328
197	0xbe2f311d	-0.17108579
198	0xbdd1484c	-0.10218868
199	0x3dbe1745	0.09281782
200	0x3d86a2ec	0.06574044
201	0x3e91e74c	0.28496778
202	0xbe5db7f5	-0.21652205
203	0x3d35e444	0.044407144
204	0x3d8e8374	0.069586664
205	0xbe1e88cc	-0.15481871
206	0x3da41fa5	0.08013848
207	0x3d8150ed	0.063142635
208	0xbe3bcd93	-0.18340139
209	0xbe9c4c80	-0.30527115
210	0x3e0b24a0	0.1358819
211	0x3df28b39	0.11842961
212	0x3db12ab2	0.086507216
213	0xbe216eee	-0.15764973
214	0xbd84f9c8	-0.064929545
215	0x3e29af9e	0.16570899
216	0xbe4b8db1	-0.1987827
217	0xbe773bff	-0.2414398
218	0xbe4dc403	-0.20094304
219	0xbd3f7d4c	-0.04675035
220	0x3db1f065	0.0868843
221	0xbe03d1d2	-0.12873009
222	0x3e0bf129	0.13666214
223	0xbdb4a7c1	-0.08821059
224	0xbe4e5efe	-0.20153424
225	0xbdfedc4f	-0.12444364
226	0x3dc91c7d	0.09819887
227	0xbe643e8d	-0.22289486
228	0x3d9a1fd6	0.075256035
229	0x3d8b82c7	0.06812053
230	0xbed65fb7	-0.418699
231	0x3cec0c07	0.028814329
232	0xbe6c98a5	-0.23105104
233	0x3e881bb8	0.26583648
234	0x3e1ac1f6	0.15113053
235	0xbd52b4df	-0.051442023
236	0x3db50298	0.08838385
237	0xbddfe106	-0.10931592
238	0x3e9943d2	0.29934555
239	0x3ef752d4	0.4830538
240	0x3f00170b	0.5003516
241	0xbe488ed7	-0.19585739
242	0x3e84a1bb	0.2590464
243	0xbba30a64	-0.004975604
244	0xbd0bc703	-0.03412534
245	0x3d459fdd	0.04824816
246	0xbe09c9c8	-0.1345588
247	0x3dbb9ecb	0.09161147
248	0x3dbf461d	0.09339545
249	0x3e245c5f	0.16050862
250	0xbe80fd38	-0.2519319
251	0xbe014a4f	-0.12626003
252	0xbe142f39	-0.14471139
253	0x3df6c97d	0.120501496
254	0xbddf74ed	-0.10910974
255	0xbed4f3a3	-0.4159213

network_body._body_endoder.seq_layers.0.bias f4 [128]
0	0x3c6fcf62	0.014636846
1	0xbc4fd5fe	-0.012685297
2	0xbb8d7b87	-0.004317704
3	0x3dabbfaf	0.0838617
4	0xbb44708a	-0.0029974305
5	0x3c39a544	0.011330906
6	0x3d0fd17a	0.03511188
7	0xbbdc09df	-0.006715044
8	0x3d3bafd6	0.045821987
9	0x3c395018	0.0113106
10	0xbd815e1c	-0.06316778
11	0x3d792349	0.060824666
12	0x3d330268	0.043703467
13	0x3cc314ae	0.023813572
14	0xbcde2c13	-0.027120626
15	0x3d339643	0.043844473
16	0x3d9d8783	0.076918624
17	0x3cab356e	0.0208995
18	0x3c12d091	0.008960859
19	0x3d386d18	0.045025915
20	0xbd2948cc	-0.04132919
21	0xbcd5b40b	-0.026086828
22	0x3c52209c	0.0128251575
23	0x3d70fe4d	0.05883627
24	0x3c6c06c8	0.014405914
25	0x3d4d92e6	0.05018892
26	0x3be9f6b6	0.007140006
27	0xbd103221	-0.035204057
28	0xbd3d5e74	-0.046232656
29	0xbcf31d5a	-0.029677082
30	0x3d0368f8	0.032082528
31	0x3b38a918	0.002817696
32	0x3cf3778c	0.02972009
33	0x3d151b77	0.036403146
34	0x3b0ca3a5	0.0021459844
35	0xbcdac0f9	-0.026703345
36	0xbd69d82f	-0.057090934
37	0x3ca52031	0.020156952
38	0x3d22cf8b	0.03974871
39	0xbd1c315f	-0.03813302
40	0x3d1059cf	0.0352419
41	0xbd253a36	-0.040338717
42	0xbcd88717	-0.026431603
43	0x3b880247	0.004150662
44	0x3d057c1e	0.03258907
45	0xbd131bde	-0.035915248
46	0xbb687ffc	-0.0035476675
47	0xbc8fef3c	-0.01757013
48	0xbceacedc	-0.028663091
49	0x3c1f7d44	0.0097344555
50	0xbd932401	-0.071846016
51	0x3dd4700d	0.103729345
52	0x3c9a666d	0.018847669
53	0x3d92a70f	0.0716077
54	0x3d7d8520	0.061894536
55	0x3dcd5741	0.10026408
56	0x3cfb20cb	0.030655285
57	0xbccdc52d	-0.025118435
58	0xb9a34c8a	-0.0003114681
59	0xbcb928db	-0.02260249
60	0xbd5ec49d	-0.054386724
61	0xbcb2afc7	-0.021812333
62	0x3c825ac1	0.015912415
63	0x3db7c211	0.08972562
64	0xbcd1152f	-0.025522796
65	0x3a7346f3	0.00092802866
66	0x3c90cfab	0.017677149
67	0x3b8e3405	0.0043396973
68	0xbd29ca8a	-0.041452922
69	0x3d491858	0.04909548
70	0x3d603633	0.05473919
71	0xbca6ffc5	-0.020385632
72	0xbd426a6b	-0.04746477
73	0xbc00b1a3	-0.007854852
74	0x3ce69467	0.028146936
75	0xbc404d90	-0.011737242
76	0x3d094ce6	0.0335206
77	0x3bde1dc9	0.006778453
78	0x3d4e339f	0.0503422
79	0xbdcf4971	-0.1012143
80	0x3d220afd	0.03956126
81	0x3cd3c0fc	0.025848858
82	0xba047d82	-0.00050541025
83	0x3ccb25eb	0.024798354
84	0xbcaa2a9b	-0.020772269
85	0xbaec04ea	-0.0018006836
86	0x3d5de9b8	0.05417797
87	0xbd29eabe	-0.041483633
88	0x3dbd0ea3	0.09231307
89	0xbc148f08	-0.009067304
90	0xbabdf078	-0.0014491221
91	0x3d6de01f	0.058075067
92	0xbd6d72a5	-0.05797066
93	0xbc18674c	-0.009301972
94	0xbc84d568	-0.016215041
95	0xbc8d97c8	-0.017284289
96	0xbc85205e	-0.016250785
97	0x3d9140db	0.07092448
98	0xbb68676f	-0.0035462042
99	0x3cca150f	0.024668245
100	0x3bc3b41c	0.0059723984
101	0xbd4d9c72	-0.050198026
102	0x3d57b7dc	0.052665576
103	0xbc2092d5	-0.0098006325
104	0xbc647669	-0.013944247
105	0xbda3638f	-0.07977974
106	0x3c91b293	0.017785346
107	0x3d2635e4	0.040578738
108	0xbcd08513	-0.02545408
109	0xbd3872e1	-0.045031432
110	0xbc170052	-0.009216385
111	0x3d7a5c27	0.06112304
112	0x3d74597b	0.059655648
113	0x3b40f777	0.0029444376
114	0xbc9bee55	-0.019034544
115	0xbd8e658b	-0.069529615
116	0x3d166389	0.036716018
117	0x38ca3809	9.642548e-05
118	0x3c27a2de	0.010231702
119	0x3d2f782b	0.04283921
120	0x3d2b4206	0.04181101
121	0x3d2f236a	0.042758383
122	0xbd937954	-0.07200876
123	0xbb803652	-0.0039127255
124	0x3d5092b0	0.050921142
125	0x3d3f4015	0.046691973
126	0x3c83e38b	0.016099712
127	0x3d18f197	0.037339773

network_body._body_endoder.seq_layers.2.weight f4 [128, 128]
0	0x3d984c68	0.07436448
1	0x3da1d24d	0.0790144
2	0xbe252814	-0.1612857
3	0xbda96368	-0.08270913
4	0xbd9055ab	-0.0704759
5	0x3d5e5b27	0.05428615
6	0x3e09045d	0.1338057
7	0xbdcdcff1	-0.10049427
8	0x3dc537b7	0.096297674
9	0x3caaac5f	0.020834146
10	0x3c8a2ce3	0.016867107
11	0xbeb0f991	-0.34565404
12	0x3d3f05a7	0.04663625
13	0x3e81e8a9	0.25372818
14	0xbd062cbe	-0.032757513
15	0xbe87c3b8	-0.2651651
16	0xbe06451b	-0.13112299
17	0xbd049a05	-0.032373447
18	0xbbc44de0	-0.0059907287
19	0x3e1fa991	0.15592028
20	0xbda325be	-0.07966183
21	0xbd83ec8a	-0.064416006
22	0xbcf1f37c	-0.029535048
23	0xbe3649b7	-0.17801557
24	0x3da88606	0.08228688
25	0xbdff8187	-0.12475877
26	0xbde8d0b4	-0.11367932
27	0x3dedff52	0.11620964
28	0xbd445bad	-0.04793899
29	0xbde8dc5d	-0.11370156
30	0xbe533999	-0.2062744
31	0x3ce3bfae	0.027801361
32	0xbd06ab9f	-0.032878514
33	0x3e96da0a	0.29463226
34	0xbd8625de	-0.06550191
35	0x3df86781	0.12129117
36	0x3eabcf44	0.3355657
37	0x3e559058	0.20855844
38	0x3aa74c70	0.0012763869
39	0x3df1511e	0.1178305
40	0xbe8d3a50	-0.2758355
41	0x3c02cc00	0.007983208
42	0xbe4d7bec	-0.20066804
43	0x3e589731	0.21151425
44	0x3d26a866	0.04068794
45	0x3bd6ac27	0.006551284
46	0xbe1f6bed	-0.15568514
47	0x3e7eb30d	0.2487299
48	0x3c8866e5	0.016650626
49	0xbd681d78	-0.05666873
50	0x3dc37cf5	0.09545318
51	0xbe89632e	-0.2683348
52	0xbdd84866	-0.10560684
53	0xbe4207a7	-0.18948232
54	0x3d9842a7	0.07434588
55	0xbe68e5cc	-0.2274391
56	0x3e53db20	0.20689058
57	0x3e2d5224	0.16925865
58	0x3e26ab00	0.16276169
59	0x3e241cdb	0.16026632
60	0x3d87a502	0.066232696
61	0xbe39f737	-0.18160711
62	0x3ca6c533	0.020357704
63	0xbdecfd06	-0.11571698
64	0xbd785dd0	-0.06063634
65	0xbe69cd6b	-0.22832267
66	0x3d9dbd31	0.07702101
67	0xbe1e69e3	-0.1547008
68	0xbe195b65	-0.1497627
69	0x3e911120	0.28333378
70	0xbdb2679a	-0.08711167
71	0x3d2e7178	0.04258868
72	0x3d2ba36b	0.041903894
73	0xbca03077	-0.01955436
74	0x3dea8423	0.11450984
75	0xbd887998	-0.06663817
76	0x3db46f15	0.0881025
77	0x3dbe9267	0.09305268
78	0xbce9cbaa	-0.028539497
79	0x3a40de4c	0.00073573436
80	0xbe11ec83	-0.14250378
81	0x3c7e3451	0.015515403
82	0xbdd31f2c	-0.1030868
83	0xbe7c6e3a	-0.24651423
84	0x3df4ff98	0.11962813
85	0x3e196114	0.14978439
86	0x3d99fd63	0.07519033
87	0x3e1007c1	0.14065458
88	0xbe527d4f	-0.20555614
89	0xbd743753	-0.059623074
90	0x3cd56bb9	0.026052343
91	0xbde54cdc	-0.111963004
92	0x3b6af2b8	0.0035850238
93	0xbdce7f29	-0.100828476
94	0xbd2c8049	-0.04211453
95	0xbe24eb3c	-0.1610536
96	0xbde65418	-0.11246508
97	0xbe710745	-0.2353793
98	0xbe231749	-0.15926851
99	0x3c52d0b3	0.012867141
100	0x3de39edd	0.11114285
101	0xbdeb14c5	-0.11478571
102	0x3bdf2019	0.0068092463
103	0x3cf75f9e	0.030196961
104	0xbc29a3a9	-0.010353961
105	0xbdf4da6b	-0.119557224
106	0x3c7f0a65	0.015566443
107	0x3d120017	0.035644617
108	0x3e49892e	0.19681236
109	0x3da095ca	0.0784107
110	0x3d1f3879	0.038872216
111	0x3d6a1d59	0.057156894
112	0xbe115b9d	-0.14195104
113	0x3dfd9c37	0.12383311
114	0x3d8ff58e	0.07029258
115	0xbcbd18c9	-0.023083108
116	0x3e4bf223	0.19916587
117	0x3e1edf9d	0.15514989
118	0x3e0cf234	0.13764268
119	0x3c2e73d1	0.01064773
120	0x3d4fc1b1	0.050721828
121	0xbc86f287	-0.016473068
122	0x3c909e32	0.017653558
123	0x3d0d8ba0	0.034556985
124	0xbdc4e595	-0.09614102
125	0xbe2e8853	-0.17044191
126	0x3d63a912	0.05558116
127	0xbddd6e0a	-0.10812004
128	0xbc835837	-0.016033275
129	0x3d54207f	0.051788803
130	0x3cda06a4	0.026614495
131	0xbc8565c6	-0.01628388
132	0x3ce7b029	0.028282242
133	0x3daefe12	0.08544554
134	0x3e0d0660	0.13771963
135	0x3cb7a5fd	0.022418017
136	0xbe30c2a6	-0.17261752
137	0x3bafe711	0.0053681214
138	0xbd0d7959	-0.034539554
139	0xbdb60644	-0.08887914
140	0xbd40d521	-0.047078256
141	0x3db7165a	0.0893981
142	0x3ce15c02	0.027509693
143	0xbdb856ef	-0.09000956
144	0x3db180c9	0.08667142
145	0x3d84ea52	0.064900056
146	0xbdd8fb98	-0.10594863
147	0x3ccc93d7	0.02497284
148	0xbc8e2550	-0.017351776
149	0xbe035cf3	-0.12828426
150	0x3d9a2abc	0.07527682
151	0x3c1a4b71	0.009417401
152	0x3ddd1cef	0.10796534
153	0x3e070dd8	0.13188875
154	0x3d4e9a60	0.050440192
155	0xbdee6a6c	-0.11641392
156	0x3d212860	0.039345145
157	0xbe1f0d75	-0.15532477
158	0xbc93f2f2	-0.018060181
159	0xbe000378	-0.12501323
160	0xbdc87800	-0.09788513
161	0x3e00bc3c	0.12571806
162	0x3c14ee7f	0.009090065
163	0xbd801b88	-0.06255251
164	0xbdaa9a45	-0.08330206
165	0x3c9e9730	0.019359201
166	0xbd71c88f	-0.05902916
167	0x3e36ca73	0.17850666
168	0xbd7cde12	-0.06173522
169	0xbc125fb5	-0.008933951
170	0x3c3d43b8	0.01155179
171	0x3ddcd21e	0.10782264
172	0xbd2b1aac	-0.041773483
173	0xbbe77520	-0.007063523
174	0x3da3791b	0.079820834
175	0x3db9fb17	0.09081095
176	0x3cddb049	0.027061598
177	0xbcd7da0f	-0.026349096
178	0xbca4b024	-0.020103522
179	0x3e0981d5	0.13428433
180	0x3db97e0a	0.09057243
181	0x3e0cea3f	0.13761233
182	0x3c36e796	0.011163613
183	0x3dd3fc65	0.10350875
184	0xbcfe3ded	-0.031035388
185	0xbda66e3e	-0.08126496
186	0x3e33e00e	0.17565939
187	0x3c9f5097	0.019447608
188	0x3ad46df1	0.0016207081
189	0xbda4a79a	-0.0803978
190	0x3cc62ffc	0.024192803
191	0x3cb81294	0.022469796
192	0x3b5df195	0.0033865918
193	0xbbb777e3	-0.0055990084
194	0xbd195d54	-0.03744252
195	0xbdd89d00	-0.105768204
196	0x3d0ab4eb	0.033863943
197	0xbd87ceba	-0.06631227
198	0x3d448943	0.047982465
199	0x3c05c120	0.00816372
200	0x3cbe6fdd	0.0232467
201	0x3db2b773	0.087263964
202	0xbd9cf983	-0.07664778
203	0x3d3c6a6b	0.045999926
204	0xbd823faa	-0.06359799
205	0xbd812f13	-0.06307807
206	0x3d1eaec0	0.038740873
207	0xbd516dbf	-0.051130053
208	0xbd5df867	-0.054191973
209	0xbddd1308	-0.107946455
210	0x3dc7a2c5	0.09747843
211	0x3db0f5b3	0.086406134
212	0x3d014d76	0.031568013
213	0x3c13b1c7	0.009014553
214	0xbdf245db	-0.1182973
215	0x3e1b734a	0.15180698
216	0xbd8dce3d	-0.069241025
217	0x3e41bd3d	0.18919845
218	0x3cf0add6	0.029379766
219	0x3c54ead3	0.01299544
220	0x3dbd44df	0.09241652
221	0x3dac1f61	0.084044226
222	0x3d689e63	0.056791674
223	0xbda8d3fb	-0.08243557
224	0x3d317e98	0.04333362
225	0xbde24540	-0.11048365
226	0xbd86f86c	-0.065903515
227	0x3d412d70	0.047162473
228	0xbe4d606a	-0.2005631
229	0x3dbb5dfe	0.09148787
230	0xbdcf9576	-0.10135929
231	0xbd1ce5dd	-0.038305152
232	0xbe2a58c9	-0.16635431
233	0xbd4dcb36	-0.050242625
234	0xbd9941e5	-0.074832715
235	0xbcc27f93	-0.023742473
236	0xbdb84970	-0.08998382
237	0xbe55478c	-0.20828074
238	0x3c58a136	0.013222029
239	0x3dde4264	0.10852507
240	0xbdd4050e	-0.103525266
241	0x3e8e81eb	0.27833495
242	0x3ab5ca2b	0.0013869455
243	0x3e808089	0.25098065
244	0x3d78ba89	0.06072477
245	0x3e538f91	0.20660235
246	0x3e617b14	0.22019607
247	0x3dcb66b4	0.099316984
248	0xbe0f4e0b	-0.13994615
249	0x3cd9b248	0.026574269
250	0xbde70030	-0.11279333
251	0xbe22360d	-0.15840931
252	0x3ced19e1	0.028943004
253	0x3d6b2c66	0.05741539
254	0xbda8960f	-0.082317464
255	0xbadda285	-0.0016909397

network_body._body_endoder.seq_layers.2.bias f4 [128]
0	0xbb1f6e65	-0.0024327275
1	0x3ca382e7	0.01995988
2	0x3c9864d6	0.01860277
3	0x3b95fdf9	0.004577395
4	0x3d039e99	0.032133672
5	0xbd511186	-0.051042102
6	0xbc9161ee	-0.017746892
7	0xbd33f9a8	-0.043939263
8	0xbca3d76a	-0.020000178
9	0xbc5b9a2d	-0.013403458
10	0xbd04e096	-0.032440744
11	0xbcb1aaf4	-0.021687962
12	0x3ccb65a0	0.024828732
13	0xbd4ca1ed	-0.049959112
14	0x3d57fb26	0.05272975
15	0xbce5ecea	-0.028067071
16	0xbd3b5642	-0.04573656
17	0x3c28933e	0.0102890115
18	0x3d20576c	0.039145872
19	0x38c769cb	9.508765e-05
20	0x3d519bcb	0.051173966
21	0xbd221179	-0.039567444
22	0x3d7491bf	0.059709307
23	0x3c3cacf9	0.011515849
24	0xb9e1fc4a	-0.00043103314
25	0x3c5ffa03	0.013670447
26	0xbd14dd88	-0.03634408
27	0x3cafa382	0.021440271
28	0x38a8b629	8.044794e-05
29	0x3cd69106	0.0261922
30	0xbd374f86	-0.044753574
31	0xbc4b7427	-0.01241783
32	0x3ca2c202	0.0198679
33	0x3cd50e74	0.026007868
34	0x3dbba3bd	0.0916209
35	0x3d09e4a8	0.03366533
36	0x3b47bd93	0.0030477985
37	0x3a2ef25d	0.0006673688
38	0x3c5fd531	0.013661669
39	0x3d83301f	0.06405663
40	0xbd2ad03a	-0.041702487
41	0x3d6c9aa7	0.057764675
42	0xb993cf5e	-0.00028192525
43	0x3ab11baa	0.0013512273
44	0xbc392368	-0.011299945
45	0xba73d7af	-0.0009301854
46	0x3c84ceac	0.01621183
47	0x3cbad8e3	0.022808498
48	0xbd1e5669	-0.038656626
49	0x3d8dd794	0.06925884
50	0xbcd41d91	-0.025893005
51	0x3cbcbc27	0.023038937
52	0x3bcb433b	0.006203083
53	0x3db5cbff	0.088768
54	0xbb8ff169	-0.004392792
55	0xbcc76e81	-0.024344685
56	0x3d766a67	0.060160067
57	0x3ca521a8	0.02015765
58	0xba066066	-0.0005126059
59	0x3d44f5dd	0.048086036
60	0xbc761486	-0.015019542
61	0x3c85f81d	0.016353661
62	0xbd5a8916	-0.05335339
63	0x3d442833	0.0478899
64	0x3d9a76a8	0.07542163
65	0x3c0b2654	0.008493025
66	0x3bc78c96	0.006089757
67	0x3ca888df	0.020573078
68	0x3c81281f	0.015766202
69	0x3b40b579	0.002940504
70	0x3d5bc7d6	0.053657375
71	0x3d24525f	0.040117618
72	0x3c67b8a8	0.014143147
73	0x3c2b1576	0.010442128
74	0x3d85a751	0.06526054
75	0x3d51ea88	0.051249057
76	0xbb602637	-0.0034202465
77	0xbcc6db2c	-0.024274431
78	0x3d857488	0.06516367
79	0xbbba7fa1	-0.005691484
80	0x3b524a5c	0.0032087779
81	0xbc82f806	-0.015987407
82	0x3d5dc779	0.05414531
83	0xbd331f20	-0.043730855
84	0xbc6a9b98	-0.014319323
85	0xbd33cf29	-0.043898735
86	0xbd10835a	-0.035281517
87	0x3c1320ab	0.008979957
88	0xbce9afcf	-0.028526215
89	0xbc031b8b	-0.008002172
90	0x3c192c72	0.0093489755
91	0x3d905432	0.07047309
92	0x3d0abc88	0.033871204
93	0x3d3b0c37	0.045665946
94	0xbace7ae1	-0.0015753174
95	0x3bab5ce5	0.0052295798
96	0x3b468210	0.0030289926
97	0xbd0a3be3	-0.03374852
98	0xbd4ca0fe	-0.04995822
99	0x3d10f0f8	0.035386056
100	0x3bb1d630	0.0054271445
101	0x3d59d158	0.05317816
102	0xbcfce01c	-0.030868582
103	0xbcdd5acc	-0.027020834
104	0x3d7ebab8	0.062189788
105	0x3d407eed	0.046996046
106	0x3c73a831	0.014871643
107	0x3c943a4b	0.018094203
108	0xbce08108	-0.027405277
109	0xbc9d8bc5	-0.019231686
110	0x3d195c33	0.037441444
111	0x3dad2fdd	0.08456395
112	0x3c9d5b48	0.019208565
113	0xbc72749c	-0.01479831
114	0x3d10aefa	0.03532312
115	0x3da25592	0.079264775
116	0x3c6b134a	0.014347861
117	0x3cdf8f85	0.027290115
118	0x3b739952	0.0037170243
119	0xbb70fb85	-0.003677101
120	0x3cb2a3f2	0.02180669
121	0xbbcb55d8	-0.0062053017
122	0x3cf8cf35	0.030372242
123	0x3c799c6a	0.015235046
124	0xbd27064e	-0.040777497
125	0x3ab99ac2	0.0014160501
126	0x3aa2d022	0.0012421648
127	0x3c5356f9	0.012899154

action_model._discrete_distribution.branches.0.weight f4 [4, 128]
0	0x3d6a2758	0.057166427
1	0x3c9e04e8	0.019289449
2	0x3bb1e25d	0.005428596
3	0x3c00a742	0.007852377
4	0x3d3579b8	0.044305533
5	0x3b8e2d94	0.0043389294
6	0x3cd619ae	0.026135292
7	0x3c89fce7	0.016844226
8	0x3a9e74a1	0.0012089201
9	0x3bcff741	0.0063466136
10	0xbc8b7c90	-0.01702717
11	0xbccc4e2c	-0.024939619
12	0xbc19999c	-0.009375002
13	0x3b1b693d	0.002371385
14	0xbc76e783	-0.015069845
15	0x3b90cf70	0.0044192597
16	0xbc130bec	-0.00897501
17	0xbcdc1e5f	-0.02686995
18	0x3d362210	0.04446608
19	0x3c77cc45	0.015124385
20	0xbb036a15	-0.0020052243
21	0xbce1f8db	-0.027584484
22	0xbd4f3bf0	-0.05059427
23	0xbbb1bdd6	-0.0054242415
24	0xbcafb950	-0.021450669
25	0xbcd5e0c4	-0.026108153
26	0xbab2fc79	-0.0013655565
27	0xbc7cf5fb	-0.015439506
28	0x3d0c7134	0.034287646
29	0x3ae190ad	0.0017209254
30	0xbc203856	-0.0097790565
31	0x3ccda3a9	0.025102453
32	0xbb80ad04	-0.003926875
33	0xbd7366bd	-0.05942415
34	0xbd6845b6	-0.056707107
35	0xbbecefb6	-0.007230724
36	0x3d46a8cb	0.048500817
37	0x3af5d230	0.0018754657
38	0x3c962abe	0.018330928
39	0xbd0d8353	-0.03454907
40	0x3cffa21c	0.03120523
41	0xbce0ca9f	-0.027440367
42	0xbca92f09	-0.02065231
43	0x3d977407	0.07395177
44	0x3a86b06d	0.0010275968
45	0x3c65b562	0.014020296
46	0x3c860447	0.016359461
47	0xbcd92eb7	-0.026511533
48	0x3bae6715	0.005322347
49	0xbd9a02e9	-0.07520086
50	0x3bb26dfa	0.005445239
51	0x3c893018	0.016746566
52	0x3cac8b28	0.021062449
53	0xbcccb5fe	-0.024989124
54	0xbb1de20f	-0.002409104
55	0x3cba6291	0.022752078
56	0x3d89ee1d	0.0673487
57	0x3c90dd23	0.017683571
58	0x3c859c74	0.016309954
59	0x3d882207	0.06647115
60	0x3c1cd941	0.009573282
61	0xbcb99d82	-0.022658113
62	0xbc08e1d8	-0.008354627
63	0x3cec94eb	0.028879603
64	0xbd0488e6	-0.03235712
65	0xbda87b1d	-0.08226607
66	0x3c24d9fb	0.010061736
67	0xbd014c49	-0.03156689
68	0x3c24c483	0.010056618
69	0x3d28580c	0.041099593
70	0xbc128af6	-0.008944264
71	0xbcac9057	-0.02106492
72	0x3bb4375a	0.0054997625
73	0xbbdf8b04	-0.006821992
74	0xbda6fb07	-0.081533484
75	0x3d0f6c39	0.03501532
76	0xbc3905fe	-0.011292933
77	0xbba3924d	-0.0049918056
78	0xbb435b8b	-0.0029809203
79	0x3d25fa85	0.040522117
80	0x3d2aca82	0.041697033
81	0xbd1e759d	-0.038686384
82	0xbd10b43a	-0.035328127
83	0x3c881fca	0.01661672
84	0xbb4a3cb2	-0.003085893
85	0x3c1a9e25	0.009437119
86	0x3c1cfa05	0.009581094
87	0x3c4b69f9	0.012415403
88	0x39255721	0.00015768084
89	0x3b8472ba	0.004041997
90	0x3cfaf5ad	0.030634725
91	0xbdaa5456	-0.08316867
92	0x3d178213	0.036989283
93	0x3daa2c32	0.08309211
94	0xbc30e20e	-0.010796083
95	0x3a66da65	0.0008806347
96	0x3b92e3fe	0.004482745
97	0x3c17ff38	0.0092771575
98	0xbc77c26d	-0.015122038
99	0xbd4ca327	-0.04996028
100	0x3c3bdf4d	0.011466813
101	0xbcbaec93	-0.022817886
102	0xbafac939	-0.0019133455
103	0x3a4a62bd	0.00077204016
104	0x3cf8e769	0.030383782
105	0x3dca04c4	0.0986419
106	0xbcf61c36	-0.030042749
107	0xbcbb5971	-0.022869797
108	0x3ca09d3f	0.01960623
109	0xbbf07a0b	-0.0073387674
110	0xbce71a9f	-0.028210936
111	0xbc90c2b0	-0.01767096
112	0xbd03b617	-0.032156076
113	0x3b206981	0.0024476948
114	0x3c0a10cf	0.008426859
115	0xbd297b7f	-0.04137754
116	0xbd562050	-0.05227691
117	0x3cc79cfc	0.024366848
118	0x39d61381	0.00040831792
119	0xbc88ce52	-0.016699944
120	0x3b0ffa84	0.0021969387
121	0xbc1c1c29	-0.009528198
122	0x3d871d84	0.065974265
123	0xbd5cb945	-0.053887624
124	0x3bfe7372	0.007765227
125	0x3d4d86f8	0.050177544
126	0x3ca11f2d	0.019668186
127	0xbc9af78d	-0.01891687
128	0xbdc7af6c	-0.09750256
129	0xbc431265	-0.011906241
130	0xbcc62753	-0.024188673
131	0xbd2ff529	-0.042958412
132	0x3d13a90f	0.0360499
133	0x3afddd01	0.0019368232
134	0xbbb5da7e	-0.005549728
135	0xbb8ec5ac	-0.0043570604
136	0xb97a70b9	-0.0002388385
137	0xbcdaac7b	-0.026693573
138	0xbc72fd7b	-0.014830942
139	0x3c1eb5fb	0.009686942
140	0x3cae4f80	0.021278143
141	0xba2539da	-0.0006302871
142	0xbd4e8a69	-0.050424967
143	0xbc9c05fb	-0.01904582
144	0x3aaa2730	0.001298165
145	0xbb91e656	-0.004452507
146	0x3c2bf872	0.010496246
147	0xbd5c08fb	-0.053719502
148	0x3d37199b	0.044702154
149	0x3a49f3b2	0.0007703855
150	0x3c96427a	0.018342245
151	0xbdb35771	-0.087569125
152	0xbb8ba397	-0.004261445
153	0x3add487e	0.0016882566
154	0xbb79881a	-0.0038075508
155	0x3bdb7571	0.0066973497
156	0xbd73d239	-0.059526656
157	0xbaf687e4	-0.0018808809
158	0xbb8225cd	-0.0039717914
159	0xbd5002e7	-0.050784018
160	0xbd849735	-0.06474153
161	0x3bc8491f	0.0061122323
162	0x3d773a05	0.060358066
163	0xbb96f5f2	-0.0046069557
164	0xbda4e964	-0.08052328
165	0x3bb62fda	0.0055599036
166	0xbc49b546	-0.012311285
167	0x3d398c0b	0.04529957
168	0xbcb3511d	-0.021889264
169	0x3de28ff0	0.1106261
170	0x3caad37c	0.020852797
171	0xbd36594e	-0.04451876
172	0xba9d2300	-0.001198858
173	0xbd8c31c9	-0.06845433
174	0xbd2ddba3	-0.04244579
175	0x3c83b52f	0.016077606
176	0xbc4ddaea	-0.0125644
177	0x3d0a83e8	0.0338172
178	0x3a3d7e89	0.0007228633
179	0x3c574e40	0.013141215
180	0xbd191142	-0.037369974
181	0x3bded7e5	0.006800639
182	0xbc31f5fb	-0.010861869
183	0xbbb2a6cb	-0.005452012
184	0xbca06304	-0.019578464
185	0xbc3e5686	-0.0116173085
186	0xbcc24d00	-0.023718357
187	0xbd8165df	-0.063182585
188	0xbbc94a0f	-0.0061428617
189	0x3bf9e8b6	0.0076266183
190	0xbc294624	-0.010331664
191	0xbd4d5bc1	-0.05013633
192	0x3dae95c2	0.08524658
193	0x3d5fb060	0.054611564
194	0x3bc489d0	0.005997874
195	0x3ce51032	0.027961824
196	0x3ce2d4cd	0.027689362
197	0xbd24b3a8	-0.040210396
198	0x3d42854d	0.047490407
199	0xba1bfed9	-0.0005950756
200	0x3c58f903	0.013242963
201	0x3ae2e32d	0.0017310135
202	0x3d8176b6	0.063214704
203	0xbd8d2eec	-0.06893715
204	0x3a08bcca	0.000521612
205	0x3c4e44d1	0.012589649
206	0x3da1bd4a	0.07897432
207	0xbdd67d83	-0.10473158
208	0xbd97a8aa	-0.07405217
209	0xbb9aa7fb	-0.004719732
210	0x3d8bf7ca	0.068343714
211	0x3c2bf5be	0.010495601
212	0xbbf8dba0	-0.0075945407
213	0xbbbef366	-0.005827355
214	0xbb4ca48d	-0.003122601
215	0xbc91aa92	-0.01778153
216	0xbb89255d	-0.0041853623
217	0xbc137f44	-0.00900251
218	0xbd3d1f49	-0.046172414
219	0x3d9c04f0	0.07618129
220	0xbcbc0c8b	-0.0229552
221	0x3b9d86dc	0.0048073363
222	0xbc2a6ed3	-0.010402399
223	0xbdaf9ed9	-0.0857522
224	0x3ba03954	0.0048896465
225	0xbb95a54a	-0.004566823
226	0xbc7a26ea	-0.015268067
227	0x3d21451b	0.039372545
228	0xbd229be2	-0.039699443
229	0x3ccd12e8	0.02503343
230	0x3a0c05f2	0.0005341462
231	0xbc17520e	-0.009235872
232	0x3c38a6ed	0.011270267
233	0xbc9217b3	-0.017833566
234	0x3c69f63b	0.014279897
235	0x3b91ac3f	0.004445582
236	0x3bdecef4	0.006799573
237	0x3b956cb7	0.004560079
238	0xbd623809	-0.05522922
239	0x3cc277dd	0.023738796
240	0x3c79aaf7	0.015238515
241	0xbc0c5ce5	-0.00856707
242	0xbd3053e2	-0.043048747
243	0x3d8a38ca	0.06749113
244	0x3c2541ec	0.010086518
245	0xbc001148	-0.00781662
246	0x3c82063b	0.015872112
247	0x3c12e93f	0.008966743
248	0xbcffdb38	-0.031232461
249	0xbc05f751	-0.008176641
250	0xbe050bac	-0.12992734
251	0x3c614c1c	0.013751056
252	0xbb180ed2	-0.0023202193
253	0xbdf4e2d7	-0.11957329
254	0x3b9c623b	0.004772452
255	0x3c6e2802	0.014535906

action_model._discrete_distribution.branches.0.bias f4 [4]
0	0xbc588c29	-0.013217011
1	0x3cafb705	0.021449575
2	0xbc878853	-0.016544497
3	0xba98ff47	-0.0011672758

action_model._discrete_distribution.branches.1.weight f4 [3, 128]
0	0x3ca63acd	0.02029171
1	0x3cd1f809	0.025630968
2	0x3d341ab4	0.04397078
3	0x3c7d7869	0.015470603
4	0xbcc47c1e	-0.023984965
5	0x3bd88cf0	0.006608598
6	0x3d0200fd	0.031739224
7	0x3a93e00c	0.0011281981
8	0x3b4e053e	0.003143623
9	0x3b02e22e	0.001997124
10	0xb901ffc0	-0.00012397673
11	0x3d40fd41	0.04711652
12	0x3b8aa625	0.0042312318
13	0x3c1e8fc4	0.009677831
14	0xbc00671a	-0.007837081
15	0xbb08ceb3	-0.0020875155
16	0x3b6ce53f	0.0036147384
17	0x3d0b0888	0.033943683
18	0xbd33c434	-0.043888286
19	0x3d00bddc	0.031431064
20	0x3cd727a3	0.026264017
21	0x3c6a1e2e	0.014289422
22	0xbc99b1dc	-0.018761568
23	0x3ca132aa	0.019677479
24	0x3cc5e017	0.024154706
25	0x3bce7d15	0.006301532
26	0x3af110c9	0.0018391843
27	0x3c0c3348	0.008557148
28	0x3cff0185	0.031128654
29	0x3b98c1ae	0.0046617603
30	0x3cab13bb	0.020883432
31	0x3cadf062	0.021232788
32	0x3ca2ca14	0.019871749
33	0x3d47671b	0.048682313
34	0xbd29e1ae	-0.04147499
35	0x3c57d531	0.013173387
36	0x3cfe3e01	0.031035425
37	0x3c116a8a	0.008875499
38	0xbc85d95d	-0.016338998
39	0xbc140855	-0.00903519
40	0x3cf0799b	0.029354861
41	0xbce0dbd5	-0.027448574
42	0x3bbfe02a	0.00585558
43	0xbcd86ec9	-0.026420014
44	0x3cca1b38	0.024671182
45	0x3c5002f0	0.012696013
46	0x3c269d10	0.010169283
47	0x3c218942	0.009859385
48	0x3cfcfc77	0.030882103
49	0xbca43a58	-0.020047352
50	0x3caff4ad	0.021478975
51	0xbc17f05f	-0.0092736175
52	0x3cbb8031	0.022888275
53	0xbb97cd6c	-0.0046326425
54	0x3c29d129	0.010364809
55	0x3c7b078c	0.0153216235
56	0xbcf55d27	-0.029951645
57	0xbc943206	-0.01809026
58	0xbc15905e	-0.009128658
59	0xbb05e053	-0.0020427897
60	0x3cae21bd	0.021256322
61	0xbbc82c1f	-0.0061087753
62	0x3b54595d	0.0032401897
63	0xbcf96ca3	-0.03044731
64	0xbd4a73cc	-0.04942684
65	0x3d845976	0.06462376
66	0xbc8f0840	-0.017459989
67	0x3cb064e6	0.021532487
68	0x3bc6e5c5	0.006069871
69	0x3c3e9dcd	0.011634302
70	0xbc4edd40	-0.012625992
71	0xbc5a3315	-0.013317843
72	0xbc38cf8d	-0.011279953
73	0x3cbe4149	0.02322449
74	0xbcae8ee1	-0.021308364
75	0x3c1cbe6b	0.009566884
76	0x3cbef1df	0.023308692
77	0x3cd89262	0.026436988
78	0xbc22401e	-0.009902982
79	0x3d6042a0	0.05475104
80	0x3c3a1c14	0.011359233
81	0x3c045198	0.008076094
82	0xbd1eda3e	-0.03878235
83	0x3cd37466	0.025812339
84	0x3c886504	0.01664973
85	0x3c2938fc	0.010328528
86	0x3c5729ed	0.0131325545
87	0xbcaa21b2	-0.02076802
88	0x3c597a6d	0.0132738175
89	0x3c8d00e7	0.017212344
90	0xbb983a52	-0.004645624
91	0xbc70fa1c	-0.014708068
92	0xbd5726cb	-0.05252723
93	0xbd8128b8	-0.063065946
94	0x3cab735f	0.020929037
95	0x3d059783	0.032615196
96	0xbcb9b034	-0.022667028
97	0x3c148322	0.009064468
98	0x3d321630	0.04347819
99	0x3d285418	0.041095823
100	0x3c3cb3f4	0.011517514
101	0xbca91d01	-0.020643713
102	0x3aa0a869	0.0012257221
103	0xbb3a39ef	-0.0028415879
104	0xbda9df3e	-0.08294533
105	0xbd6dbe22	-0.058042653
106	0x3b60b7f1	0.0034289325
107	0x3b66d24b	0.003522056
108	0x3bab1672	0.0052211815
109	0x3d058cdf	0.03260505
110	0xbc6d7250	-0.014492586
111	0xbccd1795	-0.025035659
112	0x3c9160ec	0.017746411
113	0x3c3fed9c	0.011714365
114	0x3c8eba7c	0.017422907
115	0xbd1e8071	-0.03869671
116	0x3d6809ee	0.056650095
117	0xbccfb1b5	-0.025353292
118	0x3cd77944	0.026302941
119	0xbb6f9e47	-0.0036562847
120	0x3d066885	0.03281452
121	0x3ca4d0df	0.020119129
122	0x3bb98075	0.005661065
123	0x3d197823	0.037468087
124	0x3bfe88ed	0.0077677877
125	0x3d0efe5b	0.03491054
126	0xbcbb1dd9	-0.02284138
127	0x3ab35107	0.0013680764
128	0xbb560a2d	-0.0032659874
129	0xbcef640f	-0.029222516
130	0xbccd4630	-0.025057882
131	0xbc409653	-0.01175459
132	0xbabf146a	-0.0014578227
133	0xbc1dd258	-0.009632669
134	0xbd18a803	-0.037269603
135	0xbbb87238	-0.0056288503
136	0xbc5459a0	-0.012960821
137	0xbbf7e5fb	-0.0075652576
138	0xbc8556a5	-0.016276667
139	0x3a3418f1	0.00068701716
140	0x3bba83ab	0.0056919656
141	0xbbe49415	-0.0069756606
142	0xbc81cefe	-0.015845772
143	0xbca47b63	-0.020078367
144	0xbbb73683	-0.005591215
145	0xbb5e329f	-0.0033904684
146	0x3b7926c7	0.0038017498
147	0xbceb8996	-0.02875213
148	0x3bf3e20a	0.0074427174
149	0xbba34037	-0.0049820202
150	0xbd2e0829	-0.04248825
151	0xbd101490	-0.03517586
152	0xbcdd7288	-0.027032152
153	0x3a1551bc	0.00056960783
154	0xbc145917	-0.009054444
155	0xbc800638	-0.015627965
156	0xbcb6e889	-0.022327678
157	0x3ab56622	0.0013839642
158	0xbb4f682c	-0.0031647785
159	0xbce6207e	-0.028091665
160	0xbd6e03c3	-0.058109056
161	0xbd2fc8ed	-0.042916227
162	0xbd602aa0	-0.05472815
163	0xbc2a2eb8	-0.010387115
164	0xbc4493df	-0.011998146
165	0xbd0d1946	-0.03444793
166	0xbc869313	-0.016427552
167	0xbd9b13ff	-0.07572173
168	0xba517065	-0.00079894654
169	0xbd2ef817	-0.042717066
170	0xbd4bf83a	-0.049797274
171	0x3cc88be3	0.024480766
172	0xbb8ec61b	-0.004357112
173	0xbc99ffe6	-0.01879878
174	0xbce53660	-0.02798003
175	0x3cae94f6	0.021311264
176	0xbc17f680	-0.009275079
177	0xbd8f86e4	-0.0700815
178	0x3b22e8bc	0.0024857959
179	0x3b891a0c	0.004184013
180	0xbcd56a6c	-0.026051722
181	0xbd4a94e1	-0.04945839
182	0xbc1f2b4c	-0.009714913
183	0xbc9eec9e	-0.019399937
184	0xbc9bd008	-0.019020095
185	0xbc0dbcee	-0.008651001
186	0xbcf4feed	-0.029906714
187	0x3ac6f835	0.0015180173
188	0xbc247f7a	-0.010040158
189	0x3c017fad	0.007903975
190	0xbb11f928	-0.0022273753
191	0xbc9f50d0	-0.019447714
192	0xbd474079	-0.04864547
193	0xbd88d371	-0.06680954
194	0x3c8a1822	0.01685721
195	0xbd852dcc	-0.06502876
196	0x3d400352	0.046878166
197	0xbc6fa776	-0.014627328
198	0x3ca2d613	0.01987747
199	0xbbbadc9e	-0.005702569
200	0x3bf393df	0.007433399
201	0x3c96412a	0.01834162
202	0xbd9a8917	-0.07545679
203	0xbcd15a18	-0.025555655
204	0xbb0cf031	-0.002150547
205	0xbc0bf455	-0.00854214
206	0xbd5afe2f	-0.053465065
207	0xbd17c93a	-0.03705714
208	0xbc1187b5	-0.008882453
209	0xbc802237	-0.015641315
210	0xbdb93ae3	-0.09044435
211	0x3ca405d6	0.020022314
212	0x3a8b5743	0.0010630864
213	0x3b1f1ec1	0.0024279805
214	0xbce807af	-0.028323976
215	0x3bbf27d2	0.0058336044
216	0xbc19a43d	-0.009377536
217	0xbc735ef6	-0.014854183
218	0xbc0528d7	-0.008127413
219	0xbd0c52bd	-0.034258593
220	0x3d10449e	0.03522169
221	0x3d0bb97a	0.03411243
222	0xbcf6b3f7	-0.03011511
223	0xbd10fa10	-0.03539473
224	0xbc5ed669	-0.013600924
225	0xbbfbdfe9	-0.0076866043
226	0xbc902f80	-0.017600775
227	0xbcca7b74	-0.02471707
228	0xbcbe0b46	-0.023198735
229	0xbc6f3f2d	-0.014602465
230	0xbb8e1d65	-0.004337
231	0x3b89f136	0.004209663
232	0xbcd8270a	-0.026385803
233	0x3d4fa9d6	0.050699078
234	0xbbf2b8ea	-0.0074072974
235	0x3bdcbfca	0.00673673
236	0xbbde78ff	-0.006789326
237	0xbb4584fb	-0.0030139077
238	0xbd193b34	-0.037409976
239	0xbd77b31e	-0.060473554
240	0x3caa173e	0.020763036
241	0xbc2a82d5	-0.010407169
242	0xbc5165b5	-0.0127805965
243	0xbd4a98a1	-0.049461965
244	0xbc9da5e3	-0.01924414
245	0xbd4b44fb	-0.04962633
246	0x3c83e764	0.016101547
247	0xbb8f22a9	-0.0043681455
248	0xbd1f9af9	-0.038966153
249	0xbc98687d	-0.018604511
250	0x3bb863f3	0.0056271493
251	0xbca7db55	-0.020490328
252	0xbc13e8c5	-0.009027665
253	0xbc725ccc	-0.014792632
254	0x3b574a2e	0.003285061
255	0x3c462acc	0.0120951645

action_model._discrete_distribution.branches.1.bias f4 [3]
0	0xbd01cd56	-0.031689964
1	0xbbcb855d	-0.0062109665
2	0x3d215e2f	0.03939646
