results/playeragent/My Behavior.onnx (onnx, 91753 bytes, 8 tensors)

discrete_act_size_vector f4 [1, 2]
00000000: 0000 8040 0000 4040
4.0 3.0

network_body._body_endoder.seq_layers.0.weight f4 [128, 29]
00000000: abd8 4e3d 8670 323e fa1f 3ebd 3d63 ce3e
00000010: 0515 7abd 38f6 7b3e 70d0 e1bc 0fb8 0c3e
00000020: 5eb2 25be c2be 22bd e036 19be 75d1 ae3c
00000030: 2201 873c 97a2 df3b 6f30 ab3e aa1d 8fbc
00000040: d32c ddbd 6eb1 1fbe f4f5 d93e 9493 ad3d
00000050: e98d e9bd 3536 4f3d 9700 c53d 3389 f03b
00000060: 1a35 803e 885d 343e de12 28be 713f 8ebd
00000070: d7bb ebbd ec70 313c 9308 eebd 4313 85be
00000080: 9a66 b3be 57e0 793d 0b66 883d 2a6e 4ebe
00000090: 4066 b83c 84cb 73bd c3c0 d4bd bfd2 2f3e
000000a0: 57d6 5abe 33f6 bcbc 6650 04be a123 ee3d
000000b0: a4aa 0dbe 0320 183e 9cbb b1ba 4f5e c53d
000000c0: f613 08be 38dc 4e3e 3125 86be 8e40 bc3e
000000d0: 4e23 2fbe 1c95 0ebd 943c bb3d d39b 2fbe
000000e0: 9374 dbbd b426 663e d9b8 173e dced 5cbe
000000f0: dc8f 6a3e 272d c7bb 2e1a 8c3d 1d62 46be
00000100: b64b 54be af5c 633e 70be a33e a814 81bd
00000110: a646 d83d 5dbd afbd 4908 703d 1c40 143e
00000120: ab6a 183d 9879 38be ddd9 bf3d 1ee2 bb3d
00000130: 4eaf 383d a211 8cbd babd f03d f6fd a2be
00000140: 6bea a83e 70cd ddbd 23da 423e 1035 15bd
00000150: e874 7cbe 2b29 013e f7d1 523e 5104 07bd
00000160: 4dfc e13c cc1a 1bbd 22a6 95be de5f 17be
00000170: 1133 6cbe 7833 463e b8b3 043e 21f7 0d3e
00000180: 3086 74be 0949 a33d 3ef9 893d e041 e9bd
00000190: 854f 90be 97b3 3ebe af9a 243c c643 a4be
000001a0: 8b07 c9be 240e 03be cc44 9c3c fa94 be3e
000001b0: 3c1b 8fbc fe92 353e e040 19be 9444 df3e
000001c0: 3f8b 9abe 9336 cdbd ae78 d63c 00b4 ab3d
000001d0: 30ea 05bd 0e34 73be 1602 15be 5474 56be
000001e0: b5e9 92bc a577 4f3d e08f 03bf b336 8cbe
000001f0: e9c0 abbe 28e9 543e 5e0c 92be 6c1a 063e
00000200: fc6b 813d 9ec6 6ebd ba5e b03e b7c4 703e
00000210: 94a2 adbb a9c7 41bd 0bdc 3bbd f57d cabd
00000220: 827d 143e 2831 b3bc 024e 3e3e 3481 523b
00000230: 94ef e33d 1a7f 2cbe e7c5 69be 6b7e 7e3e
00000240: 9dde 963e 4721 a9be 342d 063f ad0b 993d
00000250: 1aef 023e eefd b1be 02c6 7dbc 5a68 6fbe
00000260: 42ac 003e 773a d03d f1b7 583e 0d3c 283e
00000270: 9740 4e3e 2597 b5bd 7ec5 7cbb 3947 823e
00000280: ffef a23e cada 6c3e 4206 d13c ce09 893e
00000290: e10f 3ebe 53f7 973c e638 563d 43d1 13be
000002a0: 4ad5 a53e 2f91 8e3d d342 673e 5908 4dbc
000002b0: c3fc 9fbe 67ec 1dbe d2e5 5f3e a615 2b3e
000002c0: b56d cbbd aaff 603d 866e 0cbe 71d9 d03e
000002d0: d1ce dc3c 31d4 b63d de36 d6be 94ec 9bbe
000002e0: 50c4 29bc 726f 29bd f2f6 883d 0f1c 29be
000002f0: f728 92bd 33d7 7ebd 11ed b8bc dff5 a13e
00000300: 40ad c9bd 46f9 57be a8c3 343d 1a61 69be
00000310: 2fa4 8d3e 5182 1dbe d653 0fbd 37a8 9ebc
00000320: 0cd0 ae3e 01d0 eb3d d29d 9cbe 4c90 15be
00000330: 2296 dabc b344 b03d f680 023e 5e75 3b3e
00000340: 3045 a63e 2b38 b43b a64c 183e 2ac9 3bbe
00000350: 2463 e73d 68cb 623d 0980 35be b34e c8bd
00000360: 59b9 37bd ce5f 983d e450 2b3e b475 393e
00000370: 56fb 753e 75f2 923e 1a76 023e f064 52bd
00000380: 9b4f 0d3d d1c2 d43d 47e8 8f3e 417e 993d
00000390: 7c96 a6bc e989 c9bd 4b76 883c 5ed5 ac3c
000003a0: 3a30 bebd 74ce 8ebd c45b 3d3e 8be9 fa3e
000003b0: dbdd 85bc 6cbd ddbc 336f f5be cad9 07be
000003c0: e4b4 b7bd 36ed 513d 4d69 283c f457 873e
000003d0: 689f 033f d8ce eb3e 22b0 1a3e 7c10 7cbd
000003e0: dd0e 3f3c 6164 f53d f50c 503c a5f1 083d
000003f0: 7d74 5fbd 58c9 a83c c5cd 473c 0ce8 0bbd
0.0504996 0.17425737 -0.046417214 0.40310088 -0.061055202 0.24605644 -0.027565211 0.13742088
-0.16181323 -0.039732702 -0.1496234 0.021340111 0.016480032 0.006824802 0.3343539 -0.0174702
-0.10799565 -0.15595028 0.4257046 0.08475414 -0.1140402 0.050588805 0.09619253 0.007340574
0.25040513 0.17613804 -0.16413447 -0.06945694 -0.11510437 0.010830145 -0.11622729 -0.25991258
-0.35039216 0.061004963 0.06660088 -0.20159212 0.022509694 -0.05952026 -0.10388329 0.17170237
-0.21370827 -0.023066616 -0.12921295 0.116278894 -0.13834625 0.14855962 -0.001355994 0.096371286
-0.13288864 0.20201194 -0.2620025 0.36768 -0.17103311 -0.03481017 0.09142414 -0.17149286
-0.10715594 0.22475702 0.14816608 -0.21575111 0.2290644 -0.0060783806 0.06840931 -0.19373365
-0.20732006 0.22203325 0.3198123 -0.06302768 0.1056035 -0.0858104 0.05860165 0.14477581
0.0372111 -0.18015134 0.09367726 0.09173988 0.04508906 -0.06839301 0.117549375 -0.31834382
0.32991347 -0.108302 0.19028525 -0.036427557 -0.24653971 0.1261336 0.20587908 -0.0329631
0.027586127 -0.037867352 -0.29228312 -0.14782664 -0.23066355 0.19355571 0.12959182 0.13863803
-0.23879313 0.07972915 0.06736992 -0.11389518 -0.2818567 -0.18623196 0.010046645 -0.32082957
-0.39263567 -0.12798363 0.019075774 0.37223035 -0.017469041 0.17731854 -0.14966154 0.43607008
-0.3018436 -0.10020175 0.026180591 0.08383942 -0.03269404 -0.23750326 -0.14551577 -0.20942813
-0.017933706 0.05065121 -0.5139141 -0.27385482 -0.33545616 0.20792067 -0.2852506 0.13096017
0.063194245 -0.058294885 0.3444727 0.23512541 -0.005298922 -0.04730955 -0.045864146 -0.09887306
0.14501002 -0.021874025 0.18584445 0.0032120468 0.1112968 -0.1684536 -0.228294 0.24852912
0.29466715 -0.330332 0.52412724 0.0747293 0.12786523 -0.34764045 -0.015489103 -0.2337965
0.12565711 0.10167401 0.21163918 0.16429158 0.20141827 -0.08866719 -0.0038569863 0.25444964
0.31823727 0.23130336 0.02551568 0.26765293 -0.18560745 0.01855055 0.052300356 -0.14435296
0.3238929 0.06961285 0.22584085 -0.012514197 -0.3124753 -0.15422212 0.21865013 0.16707477
-0.09933034 0.05493132 -0.13714036 0.40790895 0.026954086 0.08927191 -0.41838735 -0.30453932
-0.010361746 -0.04136605 0.06687726 -0.1651461 -0.0713672 -0.06221695 -0.02257398 0.31632897
-0.09847498 -0.21091184 0.044131905 -0.22790948 0.27664325 -0.15381743 -0.03499206 -0.01936732
0.34143102 0.11514283 -0.30589157 -0.14605826 -0.026682917 0.08606853 0.12744507 0.18306491
0.3247466 0.00549986 0.14872989 -0.18338457 0.112982064 0.055369765 -0.17724623 -0.09780636
-0.044854496 0.07440148 0.16730076 0.18111306 0.24021658 0.28700605 0.12740365 -0.051365793
0.034499746 0.10388721 0.281069 0.07494784 -0.020335428 -0.098407574 0.016657969 0.021097835
-0.09286542 -0.069729716 0.18492037 0.49006304 -0.01634114 -0.027067862 -0.479364 -0.13266674
-0.08970049 0.051251613 0.010279012 0.2643429 0.5141511 0.46056247 0.15106252 -0.06153916
0.0116612585 0.119820364 0.012698402 0.033433575 -0.05455445 0.02060382 0.012195055 -0.034156844

network_body._body_endoder.seq_layers.0.bias f4 [128]
00000000: 0000 0000 0000 0000 0000 0000 0000 0000
00000010: 0000 0000 0000 0000 0000 0000 0000 0000
00000020: 0000 0000 0000 0000 0000 0000 0000 0000
00000030: 0000 0000 0000 0000 0000 0000 0000 0000
00000040: 0000 0000 0000 0000 0000 0000 0000 0000
00000050: 0000 0000 0000 0000 0000 0000 0000 0000
00000060: 0000 0000 0000 0000 0000 0000 0000 0000
00000070: 0000 0000 0000 0000 0000 0000 0000 0000
00000080: 0000 0000 0000 0000 0000 0000 0000 0000
00000090: 0000 0000 0000 0000 0000 0000 0000 0000
000000a0: 0000 0000 0000 0000 0000 0000 0000 0000
000000b0: 0000 0000 0000 0000 0000 0000 0000 0000
000000c0: 0000 0000 0000 0000 0000 0000 0000 0000
000000d0: 0000 0000 0000 0000 0000 0000 0000 0000
000000e0: 0000 0000 0000 0000 0000 0000 0000 0000
000000f0: 0000 0000 0000 0000 0000 0000 0000 0000
00000100: 0000 0000 0000 0000 0000 0000 0000 0000
00000110: 0000 0000 0000 0000 0000 0000 0000 0000
00000120: 0000 0000 0000 0000 0000 0000 0000 0000
00000130: 0000 0000 0000 0000 0000 0000 0000 0000
00000140: 0000 0000 0000 0000 0000 0000 0000 0000
00000150: 0000 0000 0000 0000 0000 0000 0000 0000
00000160: 0000 0000 0000 0000 0000 0000 0000 0000
00000170: 0000 0000 0000 0000 0000 0000 0000 0000
00000180: 0000 0000 0000 0000 0000 0000 0000 0000
00000190: 0000 0000 0000 0000 0000 0000 0000 0000
000001a0: 0000 0000 0000 0000 0000 0000 0000 0000
000001b0: 0000 0000 0000 0000 0000 0000 0000 0000
000001c0: 0000 0000 0000 0000 0000 0000 0000 0000
000001d0: 0000 0000 0000 0000 0000 0000 0000 0000
000001e0: 0000 0000 0000 0000 0000 0000 0000 0000
000001f0: 0000 0000 0000 0000 0000 0000 0000 0000
0.0 0.0 0.0 0.0 0.0 0.0 0.0 0.0
0.0 0.0 0.0 0.0 0.0 0.0 0.0 0.0
0.0 0.0 0.0 0.0 0.0 0.0 0.0 0.0
0.0 0.0 0.0 0.0 0.0 0.0 0.0 0.0
0.0 0.0 0.0 0.0 0.0 0.0 0.0 0.0
0.0 0.0 0.0 0.0 0.0 0.0 0.0 0.0
0.0 0.0 0.0 0.0 0.0 0.0 0.0 0.0
0.0 0.0 0.0 0.0 0.0 0.0 0.0 0.0
0.0 0.0 0.0 0.0 0.0 0.0 0.0 0.0
0.0 0.0 0.0 0.0 0.0 0.0 0.0 0.0
0.0 0.0 0.0 0.0 0.0 0.0 0.0 0.0
0.0 0.0 0.0 0.0 0.0 0.0 0.0 0.0
0.0 0.0 0.0 0.0 0.0 0.0 0.0 0.0
0.0 0.0 0.0 0.0 0.0 0.0 0.0 0.0
0.0 0.0 0.0 0.0 0.0 0.0 0.0 0.0
0.0 0.0 0.0 0.0 0.0 0.0 0.0 0.0

network_body._body_endoder.seq_layers.2.weight f4 [128, 128]
00000000: 2abf 7f3d 753b f43c ac58 a0bd bb7c 523d
00000010: e861 45bc d9ec f83c a136 e03d 1336 b0bc
00000020: 3522 663d 5f42 323e 2d04 d83c 532f f03d
00000030: 6f28 a2bc a5ff 323d 4936 a13e a49f 1d3e
00000040: d0c7 303e 9cd4 23bd 7458 97bd e493 f73d
00000050: 231b bebd 2958 22bd 4fb2 093c 32ca 3ebd
00000060: c958 383e b3e2 093e f141 843d 5be6 c7bd
00000070: 728b 87bd 385b a9bd e00c 513d ebdd 46bd
00000080: fe07 983d 1d3a 7ebd b632 6fbd 9522 c63d
00000090: 895b 983d cb1d cfbd 9fd1 c2bc b287 04bd
000000a0: 4027 b3bb 59bd e83d 4a21 d03c 1673 a53c
000000b0: 9030 f43d 31a0 db3d 2b60 16be 6494 293b
000000c0: 6b0a e23d b071 8e3c a90a 573a c226 053d
000000d0: 340c b9bd 4e10 c4bb 0b45 babd cdd2 34be
000000e0: 8e68 543c 4427 813c 1e37 be3d da0a c53c
000000f0: 520e f53d d741 0f3d eae8 363d 84ff 1cbd
00000100: 46b6 f6bd c1a0 bc3d 7f22 b3bb 1e0f 08bd
00000110: 223e 3d3e 9fd3 8ebc 8918 1e3e 7339 1f3e
00000120: 110b e4bc cbb4 2f3d 33df 4f3d d397 cc3d
00000130: ed2d eb3d 9a07 12be 769e a0bd f1a9 48be
00000140: e365 bd3d abf0 a9bc ee65 bbbd 7b40 233e
00000150: c4dc 863c ad66 303d ed44 ec3d 2e18 a8bd
00000160: b5c7 813d d4b4 683d 6502 90bd 8710 223d
00000170: 8485 2f3d ceb1 733d 0474 d3bd c8d6 28be
00000180: 2d5e 49be c3ef 2f3e 73c2 903d cc38 fb3c
00000190: 457f 77bc 3abb 353d fa66 6ebd e04f c53d
000001a0: 06e1 bd3c c879 4dbd 268a 3c3d 3d9e 8a3d
000001b0: b386 74be 81c6 a33d 60e0 e2bd 6cf6 c0bd
000001c0: aefe 503e bc5e f3bd cb84 383d fde1 acbb
000001d0: e8f9 f33c 2c38 213d 3d40 12bc 0ac8 50bd
000001e0: 9261 803b 1d48 5b3e a7c3 4abd 3e55 463d
000001f0: 4f8e 343d 960b aebb 118b 273e a355 9ebd
00000200: 4bf9 f83d 7469 b63b b519 67bd 947b 76bd
00000210: 0d0b f5bd 0f86 0e3d 6cf8 b93c abcb 0d3e
00000220: 99d2 7f3d f3b5 93bd c5e8 cbbc c32e c4bd
00000230: c6c1 2d3d 2b66 2b3e c8f4 b53d 07aa 993d
00000240: 2707 f1bb 357f 883d 6659 34bd f3df 7c3d
00000250: 6800 893d 1ec0 393e 8dbc 943d aee1 d43c
00000260: f566 df3c 89e5 be3c f8a7 a7bd 9365 44bd
00000270: 52c6 553e 4971 173d 165e 753d 0495 6e3d
00000280: a07e d53c 2186 913d dac4 dd3d 909c 853d
00000290: d452 6abc 6feb cbbc 9df3 d73d ef0e 09bc
000002a0: ece5 f33d 3d00 aabd 665e 2f3d 0283 473c
000002b0: cdbd 7e3e 10c7 3dbe ce4a 0a3e e138 203e
000002c0: 474a 4b3d fb27 0f3d f1e9 883c c529 aa3d
000002d0: 98e3 debc 67e1 63bd abbd e7bd 3f42 963d
000002e0: cafc 1d3c 25d9 e53d f7dd ad3d 10f5 0b3e
000002f0: 1254 ecbc 8606 06be 0f14 01be 23ca 1e3e
00000300: 980a 0c3e 4753 db3c 8ef8 debd 7cda 6c3d
00000310: abe3 253c 7c4e 543d f9b3 ed3d c7a9 0f3d
00000320: c2b4 003d dbf5 cabc bae1 093e 1659 99bc
00000330: 8e4f 273d 126d ca3d f18a 80be 0d2e 353a
00000340: d99d 19be 9461 9f3d d2fe dabc 8f7d 13be
00000350: 61b9 223e 7e33 fabc 3ba5 b53d 6226 a7bd
00000360: bf94 27be 55db f83c 0ae2 eb3d 8b6c 13be
00000370: 53e7 b5ba 75a6 15bd f29a 8abd 5fe2 98bd
00000380: df3c 853d de4d a9bd 8b26 dcbd 44d8 33be
00000390: 7386 dcbd ff16 ddbc 66d3 cebc 0a44 d63d
000003a0: e147 c33d 6a8b 2d3d d93e 87bb 979b 61bc
000003b0: 8bc8 28be 41d2 903d b27a cfbd 0c6a 0b3d
000003c0: 55d5 f8bd 6d46 2f3e 4293 54bd 9e9e 303d
000003d0: 737a 67be 4a99 b83d 9ead cbbd 637d e8bd
000003e0: bc60 953c a4fa 94bd b4c6 aebd a764 373d
000003f0: a61d efbc 06c2 f63b a605 a7bd 7598 ea3d
0.062438168 0.029813508 -0.07829413 0.051388483 -0.012047268 0.030386375 0.1094792 -0.02151016
0.056184966 0.17408131 0.026369179 0.117277764 -0.01979467 0.043700833 0.3148673 0.1539293
0.17263722 -0.039997682 -0.07389918 0.12088755 -0.0928252 -0.039634857 0.0084043285 -0.046579547
0.18002619 0.13465385 0.0645789 -0.09760734 -0.06618394 -0.08269352 0.05103767 -0.04855148
0.074233994 -0.06206714 -0.05839797 0.09674565 0.07439334 -0.101131044 -0.023781596 -0.03235597
-0.0054673254 0.1136424 0.025406498 0.020196479 0.11923325 0.107239135 -0.14685123 0.0025875801
0.11037143 0.017388195 0.00082031876 0.032507665 -0.09035531 -0.005983389 -0.090952 -0.17658539
0.012964381 0.015765794 0.092878565 0.024053026 0.11965622 0.0349749 0.044655718 -0.038329616
-0.12046485 0.09210349 -0.0054667587 -0.033217542 0.18480733 -0.017434893 0.15439047 0.15549259
-0.027837308 0.042897027 0.05074997 0.09989896 0.11483369 -0.14260712 -0.07842724 -0.19596078
0.09247949 -0.020744642 -0.09150301 0.15942566 0.016462691 0.04306667 0.11536584 -0.08207737
0.06336919 0.056813076 -0.07031707 0.039566543 0.04285194 0.05949574 -0.103248626 -0.16488183
-0.19664831 0.17181306 0.07068338 0.030666731 -0.015106027 0.044368006 -0.058203675 0.096343756
0.023178589 -0.050164968 0.046030186 0.06768463 -0.23879509 0.07996846 -0.110779524 -0.09422001
0.20409653 -0.118833035 0.045048516 -0.0052759633 0.02978225 0.03936021 -0.008926448 -0.050972022
0.0039178813 0.21414228 -0.049502995 0.048421137 0.04408103 -0.0053114397 0.16361643 -0.07731178
0.12156924 0.00556677 -0.056421 -0.060176447 -0.119649984 0.034795817 0.022701465 0.13847224
0.0624567 -0.072124384 -0.024891267 -0.095792316 0.042421125 0.16738193 0.08884579 0.07503133
-0.007355589 0.06664888 -0.04403057 0.061737012 0.066895306 0.18139693 0.07262526 0.025986519
0.027270773 0.02330281 -0.08186334 -0.04794843 0.20876434 0.03697327 0.05990418 0.05824758
0.026061356 0.07105661 0.10828562 0.065240026 -0.014301974 -0.024892537 0.105445124 -0.008365377
0.119090885 -0.08300827 0.042814635 0.012177231 0.24877091 -0.18532968 0.13505098 0.15646698
0.049631383 0.034950238 0.016713114 0.08308748 -0.027208135 -0.055634882 -0.11315473 0.07336854
0.009642789 0.11223058 0.08489602 0.13667703 -0.028848682 -0.13088426 -0.12605308 0.15506797
0.13675916 0.026773108 -0.10887252 0.05782555 0.010125081 0.05183266 0.11606593 0.03507402
0.031422384 -0.024775436 0.13465014 -0.018719237 0.040847354 0.09884085 -0.25106004 0.0006911464
-0.1500162 0.077822834 -0.026732836 -0.14403366 0.15891029 -0.030542132 0.08869406 -0.08161618
-0.16365336 0.030378023 0.11517723 -0.14396875 -0.0013878144 -0.0365357 -0.06767835 -0.07465052
0.06505751 -0.08266805 -0.10749539 -0.17562968 -0.10767832 -0.026988504 -0.025247287 0.10462196
0.09535194 0.042369284 -0.004127365 -0.013770006 -0.16482751 0.07071353 -0.10130824 0.03403668
-0.12150065 0.17116709 -0.05189825 0.04312002 -0.22605304 0.090136126 -0.09945224 -0.113520406
0.018234603 -0.072743684 -0.08533993 0.044773724 -0.029188942 0.0075304536 -0.08155374 0.1145486

action_model._discrete_distribution.branches.0.weight f4 [4, 128]
00000000: 50b1 22bb b190 423b df12 8b3c 6301 5dba
00000010: 2379 88bb 3629 113c 0fc3 31bb f7a8 6cbb
00000020: 1097 7cbb 2d70 ae3c e72d 353c f18e 973c
00000030: ebe3 043a 4dd6 5bbb bbdb 07bc 3556 873a
00000040: 9c68 163c b564 67bc 4fca 073b 440a bfbb
00000050: 0b5f d9ba b8ec 3cbc 6dee 7e3a cd5c d3b9
00000060: 17dc 1f3c 059b 9dba b84c 68ba 9ceb 92bc
00000070: e53e 793c d5c6 52bc 572a 26bc c69a c1ba
00000080: a3ac 3b3c ab06 36bc 3b56 39bc e360 81b8
00000090: 61c0 a9bc 00bc c83b 8e52 813b 3914 403c
000000a0: 3365 043c a8cb 73ba 6cce 09bb c3c8 2cbc
000000b0: 08ff b83a cdce 5f3b 732f f5bb d13f 113b
000000c0: 3016 c3ba 77df 25bc 4fd4 24bb 776e ecba
000000d0: ed06 ecba 5f0b b9bb 431a 1cbc b0dd 603b
000000e0: 3024 f03b 6f7c 7c3c 03b1 f7bb 9b43 d63b
000000f0: cac9 0f3b f733 213b 248a 2b3c fa90 4fbb
00000100: 1893 0f3a c689 39bb 4f27 cc3b f71a 953c
00000110: 2da8 6dbc 1cea bf3b b9a0 09bc 04b3 9cbb
00000120: 002a 60b9 3307 94bb 2b93 33bb 5837 59bc
00000130: 13ce debb 4ba7 3e3c 0923 8fba 9b13 713c
00000140: 0279 ef3b 0c13 0c3b 9b0f 93bb b229 ed3a
00000150: 75c5 983c ab0a 293c 5561 633b d2ea cbba
00000160: b53c f93b d76a 8a3b 4e24 8f3b 2ed4 88bb
00000170: 69ab 2dba 06a1 afbc 627e 373c a348 0fbb
00000180: 8b63 c93b 0a79 4a3a 97b2 b63b 92fe 4dbc
00000190: 22bd da3b 0882 f73b 23ad b53a c4a1 973b
000001a0: 8d4e 36bb 325a 32bb 20d6 8b3b 87cb 47bb
000001b0: 3884 8dbb db16 573b 4f67 1f3c af8b f53a
000001c0: 42d3 9a3a 2725 baba 4152 ab3a 54d9 1b3c
000001d0: ea98 8cbb 528b bd3a 46e9 c6ba 6360 8e3b
000001e0: 98c8 0c3c c1f2 27bc 874d d8bb d37d a8ba
000001f0: 75a2 6abc e7aa dbbb 3df3 ef3b 3f78 6ebb
00000200: 67bd bbba 3236 373b 4e57 1b3c fd0f 6fbc
00000210: 4da2 f43a df04 91bb d555 d03a 43a4 4c3c
00000220: 1374 37bc 63b9 13bc 9735 54bb dbe0 453b
00000230: 2353 f03c 1885 7a3c 61dc c1ba 005d 8e3b
00000240: a6c3 30bc 6072 5e39 cb89 eb3b 6f53 fe3b
00000250: 34a8 b83b 012a 24bc 5316 34bb 1d48 82bc
00000260: 836c 72bc 7843 d339 dfb1 a93a 7bb9 2a3c
00000270: 67b1 823b e637 b43b f409 2fbb e8ef bcb9
00000280: b79c 0d3c ecf7 123c 1b3d cebb 33c9 353b
00000290: 7aa0 fe3b 3e6b 8eb9 1abd b3bb 783c ea3b
000002a0: 15c0 bf3b 2bee b63b 1ac6 7d3b e910 08bb
000002b0: 0353 583c 5934 273c c0a0 213c e5a2 16bc
000002c0: bd17 14bc f5fe 66bb 7b91 d33b 7b52 a33b
000002d0: b2e4 433c bf7b b53a 8000 33bc 87b2 98bc
000002e0: f747 b33b 83c8 05bc a0e9 24bb 35a0 333a
000002f0: 4502 b2bb 6be3 68bc 17a5 74bb afa6 bc3b
00000300: df81 44bc 839a 85bc e72c 793c 4c8a 343c
00000310: 2628 9f3b 9244 603b cbdc 3a3c 7c34 bfbb
00000320: 9b04 acbb 5208 68bc a24c fe3b 2a7b 30bb
00000330: e3d1 a13b 2d40 f1bb 9bcd 4e3c afa9 e1ba
00000340: 552c 10bb 2fd4 193c dc4c a8bc 37da c43b
00000350: 8bdf 553a 7841 cb3b 37a8 14bc 9312 6bb8
00000360: 5b61 43bb 33ae 113b b31f 56bc 32dd d93b
00000370: a3b7 42bb 22df 02bc 010e 0b3c 67cf 613b
00000380: 3777 703c 8d55 773c 4c31 cabb 038f a4bb
00000390: 76c8 97bb 6667 bd3c f436 84b8 cf57 69bb
000003a0: 275b 3cbc a85e 4d3c 2beb 09bc 1b33 ee3b
000003b0: 7f3f 613c bf5b dcbb ff57 aa3b 22e0 cc3b
000003c0: f540 9bbb 8fc6 243c 1ae3 0ebb ed51 583b
000003d0: 23a2 fabb b7f2 0c3c c0e3 0a3a 9303 613b
000003e0: 02b2 98bc 9fd8 8cbb da1f 09bc bb12 46bb
000003f0: 9713 49bb 5bbc c1ba 8ae0 4e3b 137d ba3b
-0.0024824925 0.0029688294 0.016976772 -0.00084306876 -0.0041648312 0.008859923 -0.002712432 -0.0036111453
-0.0038542189 0.021293724 0.011058307 0.018500777 0.0005069363 -0.0033544481 -0.008292134 0.0010325374
0.009180214 -0.0141231315 0.002071995 -0.005830081 -0.0016584111 -0.0115310475 0.0009724859 -0.00040314198
0.009757063 -0.0012024349 -0.00088615296 -0.017934613 0.015212749 -0.012864788 -0.010141931 -0.0014770858
0.011454734 -0.011109988 -0.011312063 -6.169246e-05 -0.020721616 0.006125927 0.003946609 0.011723571
0.008080768 -0.00093000615 -0.0021027578 -0.010545912 0.0014114091 0.0034150362 -0.007482463 0.0022163282
-0.0014883932 -0.010124079 -0.002515096 -0.0018038292 -0.0018007435 -0.0056471075 -0.009527746 0.0034311824
0.0073285326 0.015410527 -0.0075589432 0.006538821 0.0021940344 0.0024597624 0.010469947 -0.0031672106
0.0005476936 -0.002831088 0.006230272 0.018201334 -0.014505428 0.0058567654 -0.008400136 -0.0047820825
-0.00021377951 -0.00451746 -0.0027400951 -0.013257824 -0.0067994683 0.011636565 -0.0010920475 0.014714147
0.0073081264 0.0021373658 -0.0044879443 0.0018094091 0.018648842 0.010317485 0.0034695466 -0.0015557653
0.007606114 0.004224162 0.0043683415 -0.0041756844 -0.00066249684 -0.021439087 0.011199566 -0.0021863363
0.0061458996 0.00077237247 0.005575489 -0.012572901 0.0066753784 0.0075533427 0.0013860803 0.0046274383
-0.0027817816 -0.0027214405 0.004267469 -0.0030486302 -0.00431874 0.003282002 0.0097292205 0.0018733646
0.0011812227 -0.0014201746 0.0013070778 0.009512264 -0.0042906897 0.0014461076 -0.0015175722 0.0043449863
0.008592747 -0.010250748 -0.006601039 -0.0012854881 -0.014320959 -0.0067037228 0.0073226974 -0.003638759
-0.0014323414 0.0027955887 0.009481264 -0.014591214 0.0018664092 -0.0044256295 0.001589472 0.012490335
-0.011197108 -0.009016368 -0.0032380575 0.0030193839 0.029336518 0.015290521 -0.001479041 0.0043445826
-0.010788834 0.00021214178 0.007188057 0.007761411 0.0056352858 -0.01001978 -0.0027479127 -0.015903527
-0.014796379 0.00040295324 0.0012946686 0.010420199 0.003988433 0.0054998277 -0.0026708813 -0.00036036898
0.008643321 0.008970242 -0.0062939054 0.0027738332 0.007770595 -0.00027164252 -0.005485189 0.0071483217
0.0058517554 0.005582591 0.0038722814 -0.0020762032 0.013203385 0.010205352 0.009864986 -0.0091941105
-0.009038863 -0.003524718 0.0064565516 0.0049841977 0.011956381 0.0013846083 -0.010925412 -0.018639816
0.0054712254 -0.0081654815 -0.0025163665 0.0006852181 -0.0054323995 -0.014214377 -0.0037329847 0.005757175
-0.011993854 -0.016309028 0.015208459 0.011019301 0.004857081 0.0034220559 0.01140518 -0.005835114
-0.0052495725 -0.01416214 0.0077606 -0.002692888 0.0049383505 -0.0073623867 0.012622262 -0.0017216707
-0.002199908 0.009388967 -0.020544462 0.0060074585 0.00081586157 0.006202873 -0.009073309 -5.6045665e-05
-0.0029812667 0.0022229075 -0.013069081 0.006648683 -0.0029711507 -0.007987769 0.0084872255 0.0034455897
0.0146768605 0.0150960805 -0.0061704274 -0.005021931 -0.004632051 0.023120593 -6.304486e-05 -0.0035605317
-0.011496342 0.012534775 -0.008417885 0.007269276 0.013748049 -0.006724804 0.0051984782 0.0062523047
-0.004737968 0.010057106 -0.0021802844 0.0033007816 -0.0076487227 0.00860279 0.00052982196 0.0034334406
-0.018639568 -0.004298284 -0.00836941 -0.0030223567 -0.0030681842 -0.0014780866 0.0031566941 0.0056911795

action_model._discrete_distribution.branches.0.bias f4 [4]
00000000: 0000 0000 0000 0000 0000 0000 0000 0000
0.0 0.0 0.0 0.0

action_model._discrete_distribution.branches.1.weight f4 [3, 128]
00000000: 49c2 88bb 083a 8ebc 11f6 b13b 3a4f 8eb9
00000010: 0809 10bc 2db1 5e3c c7c5 8c3a cdfe bf3b
00000020: 6286 083c 3a8b d23a e261 45bb e35c 373c
00000030: 484b 68bb 70f9 cc39 f38c a53c 4aac c3bb
00000040: ab42 47bb bbd0 cdbb 7780 0639 15fb b33b
00000050: ac86 c53b 23a1 adbb bee6 00bc ab52 fd3b
00000060: 3828 17bc 6dc0 d039 5360 25ba e8bb a83b
00000070: 2227 7dbc b2ea 4abc 7e90 903b 37a6 da3b
00000080: 18f9 22bc 1df9 663c 9146 8fbb f5d4 d93b
00000090: 87ec 8ebb c382 7b3c 776f dcbb be51 b239
000000a0: 73ca fc3b 5440 97bb 7b02 9b3c 67c8 e6bb
000000b0: f028 e33b a2b0 6e3b d332 92bc 625b 2a3b
000000c0: 5607 86ba 3f41 1b3b c576 5cbb df9f 85ba
000000d0: 6635 38bb 1e3a 02bc 18a1 973b 66f4 ad3b
000000e0: 1a43 6dbc 03d0 61bc 90ad 373c 0f57 113c
000000f0: 10e7 51bc bbe2 1dbb cee6 88bc 6bca 1e3b
00000100: 8714 e9bb 3723 90bb 5f75 01bc 2f2c 153a
00000110: 28de 4abb 2b0e 0d3a db9e 80bc 68cc a4bb
00000120: a326 903b 14b2 22bc e391 2c3b 35cc ff3b
00000130: 1be5 873c cddb 343c 597c a8bb f21d 8ebc
00000140: cbd7 223b 686e c83b e222 6abb 1da3 38bc
00000150: 83b7 c0bb a051 52bb 6776 0dbc 938f 23bb
00000160: b097 9ebc f26e f03a 0777 b0bc 332b 873b
00000170: e709 03bc 0a76 af3a d36c 6abc 4776 f2bb
00000180: f38d e4bb 3bc3 b7bb baac 2dbc 41d5 153a
00000190: 17e5 18bc 33e0 82bb bbb0 023b 0501 1d3b
000001a0: 9813 743c b8bb 573b 2f56 6a3c d805 ebbb
000001b0: cf1a eabb 370c 4abb f7e5 603c 5202 023b
000001c0: 6d5b 1ebc fd72 113c 5892 09bb ca38 f4b9
000001d0: 2b2b c43b 0826 b63b ff34 8dbb 7573 dabb
000001e0: 0bda 0dbb 8fb6 85bb c7c4 11bc edb1 dcba
000001f0: eb9b bf3b 6291 1abb 19c0 4bbb 6818 223c
00000200: dfed 54bb d078 f9bb f854 79bb 0e10 b63b
00000210: c33e 1b3b bf44 89bc 15a1 6a3c 84e3 3ebc
00000220: db4f 313c d8ef f03a 99d0 a3bb edd6 263c
00000230: b1e7 9d39 4ae1 87bb 476f 0f3a a9e1 053c
00000240: 5704 733b 5a6c 4abc 9661 35bc ff8b 563a
00000250: 1d22 d4ba 7d27 a13b 1bbe 05bb fbe4 aa3b
00000260: 5388 09bb 85d9 f2bb 0bfd 93bb 53dd d1bb
00000270: abc1 41bc cf65 583c d7fa aeb8 7f9b a33b
00000280: c2cb 72bc 9f47 393c fd5b 62ba 3336 8b3b
00000290: b3ad 2abc f291 ea3b 224e 4e3b 82a9 7a3b
000002a0: a226 fa3b 5c40 353b 18c7 d1bb 05b8 6abc
000002b0: 14e4 88ba cbea bb3c 070e 2e3b a2ad dbbb
000002c0: fa67 1fbc fa0c 8d3b d322 353b 053c 83bb
000002d0: ab44 a5bb 0b53 c5bb 78b8 98bb f491 29bc
000002e0: 7af0 3abb c5df 99bb 3b65 4d3a e0cb 153c
000002f0: 3f66 383c 8482 9cbb f32f 06bc 0089 803b
00000300: b3bb 403b 05c2 a439 a0b6 56bc 132b a1ba
00000310: 12db adbb b20c 85bc 6087 8dba f5d3 253c
00000320: 0f25 d83a d2d9 d43a ef9c 98bc 47a1 5bbc
00000330: 6fbc bebb 7554 fd3b 332f 26bc 4b04 7cba
00000340: c7b5 a9bb 7742 ee3b 1ae8 0bba fb7d 473c
00000350: 1abf 933b 163a 0abc 39b0 183c 00b4 793b
00000360: c608 88bc 6d5c 03bb 4daf 8c3b d881 4cba
00000370: 8541 623c 3c18 933c 599a 0bbc 5b0a 8cbc
00000380: dfd0 9d3c 128a 2dba f0e0 823a 432b 6b3c
00000390: a3c5 a83c b2f3 233c 02fe 1b3c 2c75 c9bb
000003a0: 4836 5fbc 330a b8bb 82bb 703c c1be a33a
000003b0: bfa3 ea3b 4699 bb3c 91e8 9bbc d01d c4bb
000003c0: bb19 5bbb fdd2 9f39 072a 493c b8be d73b
000003d0: 3f05 0539 52c3 c3bb 579a 933b 21ea 323c
000003e0: f326 78bc 0b95 8dbb 4a41 e4bb 575a 803a
000003f0: 5081 c03b b7e8 bcbc 7ad6 053b 2a42 d33b
-0.004173551 -0.017361656 0.0054309447 -0.0002714338 -0.008791216 0.013592047 0.0010740095 0.005859232
0.008332821 0.0016063221 -0.0030118157 0.0111915795 -0.0035445262 0.00039095758 0.020208811 -0.005971466
-0.0030404727 -0.006280986 0.00012827093 0.005492578 0.006028017 -0.00529875 -0.007867513 0.007730802
-0.0092258975 0.0003981622 -0.0006308604 0.0051493533 -0.0154512245 -0.012385057 0.004411756 0.0066726464
-0.009947084 0.014097479 -0.004372426 0.006647701 -0.0043616924 0.015351 -0.006727155 0.00034011708
0.0077145635 -0.004615823 0.018922081 -0.007042933 0.0069323704 0.00364212 -0.0178465 0.002599441
-0.0010225575 0.0023690013 -0.0033640128 -0.001019474 -0.0028108 -0.0079484265 0.004627358 0.0053086756
-0.01448133 -0.013782504 0.011210814 0.008870854 -0.012811437 -0.002409144 -0.016711619 0.0024229537
-0.0071130428 -0.004398729 -0.007901519 0.0005690483 -0.003095517 0.00053808343 -0.015700748 -0.00502925
0.004399137 -0.009930152 0.0026332072 0.007806326 0.016588738 0.011038733 -0.0051417765 -0.017348263
0.002484786 0.006116677 -0.0035726358 -0.011269358 -0.0058812513 -0.003209211 -0.008634186 -0.0024957403
-0.01935944 0.0018343611 -0.021541132 0.004125023 -0.007997966 0.0013386619 -0.014308172 -0.0073993537
-0.0069749295 -0.00560799 -0.010600263 0.0005715676 -0.009331963 -0.003994012 0.0019941765 0.0023956907
0.01489725 0.0032918286 0.014302774 -0.0071723275 -0.007144309 -0.0030830035 0.013726703 0.0019837809
-0.009665352 0.008877513 -0.0020991769 -0.00046581618 0.0059865913 0.005558733 -0.004309296 -0.0066665956
-0.0021644856 -0.0040806006 -0.008897013 -0.0016837694 0.0058474443 -0.002358519 -0.003108984 0.009893514
-0.0032490415 -0.007613279 -0.003804503 0.005556113 0.0023688532 -0.016756414 0.0143206315 -0.011650924
0.010822262 0.0018382026 -0.004999232 0.010183078 0.00030117997 -0.0041467296 0.00054715987 0.008171477
0.0037081444 -0.012354935 -0.01107063 0.0008184313 -0.0016184483 0.0049180374 -0.00204075 0.005215285
-0.0020985797 -0.0074111843 -0.004516249 -0.0064045577 -0.011825959 0.013207867 -8.343689e-05 0.004992902
-0.014819087 0.01130858 -0.0008634923 0.0042484044 -0.01041739 0.0071585113 0.0031479676 0.0038248007
0.007634 0.002765677 -0.0064019077 -0.0143261 -0.0010443949 0.022939106 0.0026558654 -0.0067040483
-0.00972938 0.0043045254 0.0027639165 -0.0040049576 -0.0050435863 -0.0060218624 -0.0046606623 -0.010349739
-0.0028524683 -0.004695865 0.0007835214 0.009142846 0.011254846 -0.004776301 -0.008190143 0.0039225817
0.0029408752 0.00031425073 -0.013105065 -0.0012296162 -0.005305656 -0.016241405 -0.0010797791 0.010121335
0.0016490537 0.0016239232 -0.01862952 -0.013405151 -0.005820803 0.0077310153 -0.010143089 -0.0009613677
-0.0051791403 0.007271107 -0.0005337015 0.012176032 0.004508865 -0.0084367 0.0093193585 0.0038101673
-0.016605746 -0.0020044104 0.0042933584 -0.00078013306 0.013809566 0.017955892 -0.008520686 -0.017094782
0.019264637 -0.00066200003 0.000998525 0.014353576 0.020602053 0.010006832 0.009521009 -0.006148001
-0.0136237815 -0.00561645 0.014693143 0.0012492762 0.0071606333 0.022900235 -0.019031795 -0.0059849992
-0.0033432085 0.00030484042 0.0122780865 0.0065840147 0.00012685823 -0.0059742117 0.0045044827 0.0109200785
-0.015146005 -0.004320746 -0.006965791 0.0009792548 0.0058747903 -0.023060186 0.0020422027 0.0064470964

action_model._discrete_distribution.branches.1.bias f4 [3]
00000000: 0000 0000 0000 0000 0000 0000
0.0 0.0 0.0
