results/test/My Behavior/checkpoint.pt (torch, 524130 bytes, 40 tensors)

discrete_act_size_vector f4 [1, 2]
4.0 3.0
00000000: 0000 8040 0000 4040

network_body._body_endoder.seq_layers.0.weight f4 [128, 30]
-0.1646479 0.097505435 0.039087314 -0.11074859 -0.10422833 0.030310346 0.13725474 -0.11800866
-0.2097868 -0.15974726 0.073489875 0.1411008 0.010201482 -0.09103319 -0.12639454 -0.0049214507
-0.3118771 -0.41660365 0.16728067 -0.08287243 0.085368834 -0.3123158 0.1908385 -0.1635481
-0.07173124 0.033343174 0.040973708 0.10514117 -0.08141988 0.27176467 0.21529353 0.038115438
0.056281764 0.20530614 0.38792902 -0.10260236 -0.12968446 0.31921756 0.09102323 -0.084181555
-0.0349763 -0.036943015 -0.029325835 0.22584988 -0.11282689 -0.28569677 -0.08481011 -0.14776245
-0.03061101 0.2282065 0.11547487 -0.15169834 -0.10176031 0.0032206539 -0.08438048 -0.023008505
-0.33536512 -0.059607603 -0.28879 -0.09735233 0.10031464 -0.020196892 0.079314515 0.19834092
-0.2006823 0.29046685 -0.16827792 0.0750421 -0.144497 0.25744635 0.200521 -0.1873487
0.04010481 -0.3186706 0.114408344 0.14320679 -0.04188707 0.108034916 -0.27266437 0.00084670476
0.105713345 0.50312394 -0.08107893 0.0689501 -0.0308376 -0.22252068 -0.14193712 -0.23399563
0.03215628 -0.027153725 0.09102719 -0.09355409 0.097563796 0.05273652 0.0239862 0.52135533
0.21431373 0.20911868 0.34736913 0.022664469 -0.004438863 0.27034354 -0.03242741 -0.06499221
-0.087109074 -0.45876536 -0.29479185 -0.064168505 -0.20476541 0.08906639 -0.040802196 -0.1874979
0.23405154 -0.2298142 -0.4568539 -0.056373417 -0.15819919 0.16087626 -0.17424794 0.44071683
0.013920153 0.06656186 0.06914766 -0.17926991 0.34377608 0.06504847 -0.24845949 0.09515107
0.09542 -0.11155435 -0.082086414 -0.45098358 -0.49709556 0.10130885 0.02764294 0.107082814
0.11406175 0.0894717 0.013035692 0.13950583 -0.04636716 0.13252781 -0.030158795 0.17556334
0.0038787017 -0.17276 0.2386045 -0.21897162 -0.46837744 -0.044708703 -0.047202148 0.33150783
0.19581744 -0.11390554 -0.29837522 -0.06001545 -0.42106104 0.1691516 0.06584393 0.026773147
-0.030615302 0.07459498 -0.18211257 -0.12951767 -0.31156045 -0.009646376 0.09286906 -0.11375745
0.08021866 0.20597483 -0.16986981 0.189842 0.50866985 -0.29226342 0.20574847 0.20081393
0.039836526 -0.07526752 0.10813346 0.012471654 -0.08670974 -0.1362116 -0.09036909 0.0018812695
0.027225643 -0.23987599 -0.05357672 0.015241458 -0.19593145 -0.05029132 0.21198538 -0.18884204
0.010915025 -0.19056065 -0.06265259 0.22351888 0.27393767 -0.11873816 -0.1308538 -0.30269083
-0.23885709 0.34197074 0.18135202 -0.08417073 -0.080192655 0.19644664 0.07030403 0.30141
-0.22455628 0.005513763 -0.05839568 0.072942786 0.37510017 -0.15459913 -0.3984344 0.084883675
-0.0124364365 0.00909892 0.26250783 0.014487382 -0.030254902 -0.09707914 -0.21193312 -0.038744945
0.0098609105 0.16678952 -0.06216481 0.058224875 -0.14823124 0.10395 -0.22327684 -0.05321035
0.13662499 0.16103931 -0.16179834 -0.26367587 0.08399384 -0.0036497768 -0.38766867 0.006458848
-0.15071315 0.154363 -0.1716693 0.11796873 0.1323922 -0.075779326 -0.014619344 -0.051839575
-0.06057803 0.5676887 -0.19145128 0.03836284 -0.15082978 -0.06561039 0.2630922 0.31651843
00000000: 7699 28be eeb0 c73d 051a 203d 28d0 e2bd
00000010: aa75 d5bd 674d f83c 828c 0c3e 86ae f1bd
00000020: 5ad2 56be c994 23be dc81 963d ba7c 103e
00000030: 1e24 273c 9c6f babd 926d 01be 1f44 a1bb
00000040: 5bae 9fbe 134d d5be a04b 2b3e 05b9 a9bd
00000050: dbd5 ae3d dbe7 9fbe 2b6b 433e 2779 27be
00000060: d4e7 92bd da92 083d 0cd4 273d 4154 d73d
00000070: 77bf a6bd bd24 8b3e e875 5c3e ef1e 1c3d
00000080: b587 663d c63b 523e a29e c63e 3021 d2bd
00000090: 01cc 04be 7c70 a33e 636a ba3d 6167 acbd
000000a0: 4f43 0fbd 8f51 17bd bc3c f0bc 3145 673e
000000b0: c911 e7bd d946 92be ecb0 adbd 0a4f 17be
000000c0: f1c3 fabc f7ae 693e 177e ec3d cf56 1bbe
000000d0: b667 d0bd 9b11 533b accf acbd 557c bcbc
000000e0: fab4 abbe 1a27 74bd 48dc 93be a960 c7bd
000000f0: c371 cd3d f473 a5bc a66f a23d e219 4b3e
00000100: a97f 4dbe 12b8 943e 0c51 2cbe acaf 993d
00000110: 06f7 13be 02d0 833e 6155 4d3e 56d8 3fbe
00000120: f144 243d cb28 a3be ec4e ea3d cda4 123e
00000130: c791 2bbd 6941 dd3d aa9a 8bbe 65f5 5d3a
00000140: 3d80 d83d bbcc 003f b60c a6bd b635 8d3d
00000150: 229f fcbc 76dc 63be f757 11be 8d9c 6fbe
00000160: 4eb6 033d 7d71 debc 776c ba3d 4999 bfbd
00000170: 87cf c73d 4002 583d b57e c43c 8b77 053f
00000180: 0f75 5b3e 3523 563e 5eda b13e d6aa b93c
00000190: e273 91bb 786a 8a3e 9bd2 04bd a31a 85bd
000001a0: 3e66 b2bd 4be3 eabe f5ee 96be c76a 83bd
000001b0: 06ae 51be 7168 b63d 3420 27bd 73ff 3fbe
000001c0: 35ab 6f3e 6a54 6bbe c1e8 e9be d0e7 66bd
000001d0: f8fe 21be bfbc 243e 0d6e 32be a3a5 e13e
000001e0: 5a11 643c 9651 883d 4a9d 8d3d 8892 37be
000001f0: 6b03 b03e 2238 853d 2a6c 7ebe 90de c23d
00000200: 906b c33d 9b76 e4bd ec1c a8bd 52e7 e6be
00000210: 4f83 febe 047b cf3d 7273 e23c 3c4e db3d
00000220: 3599 e93d f03c b73d a893 553c 9eda 0e3e
00000230: 7eeb 3dbd 5fb5 073e 940f f7bc e0c6 333e
00000240: d131 7e3b ffe7 30be bd54 743e 193a 60be
00000250: 2bcf efbe 7920 37bd 0a57 41bd 65bb a93e
00000260: 5e84 483e 4f47 e9bd a3c4 98be c3d2 75bd
00000270: 5095 d7be 1436 2d3e 2fd9 863d 5c53 db3c
00000280: f1cc fabc 41c5 983d b87b 3abe 48a0 04be
00000290: da84 9fbe d50b 1ebc 2232 be3d aaf9 e8bd
000002a0: ae49 a43d 11eb 523e 5af2 2dbe f165 423e
000002b0: 3038 023f 8da3 95be baaf 523e 2ba2 4d3e
000002c0: a02b 233d dc25 9abd 1375 dd3d e955 4c3c
000002d0: e094 b1bd 0e7b 0bbe 6e13 b9bd ee94 f63a
000002e0: 5008 df3c 0da2 75be 4373 5bbd 4fb7 793c
000002f0: 41a2 48be 45fe 4dbd b212 593e cf5f 41be
00000300: efd4 323c 5522 43be 0050 80bd 22e2 643e
00000310: 8f41 8c3e fe2c f3bd 8afe 05be 4bfa 9abe
00000320: f496 74be ca16 af3e 58b4 393e b461 acbd
00000330: 0c3c a4bd 4f29 493e 8ffb 8f3d 6952 9a3e
00000340: 15f2 65be ccac b43b 4f30 6fbd 0763 953d
00000350: 210d c03e 3c4f 1ebe 98ff cbbe 7ed7 ad3d
00000360: 32c2 4bbc a313 153c 6d67 863e 7c5c 6d3c
00000370: 21d9 f7bc 6ed1 c6bd ff04 59be 05b3 1ebd
00000380: a88f 213c dfca 2a3e 87a0 7ebd 357d 6e3d
00000390: eec9 17be bde3 d43d afa2 64be 19f3 59bd
000003a0: 6ce7 0b3e 7de7 243e 77ae 25be 8600 87be
000003b0: f604 ac3d 1831 6fbb 827c c6be bea4 d33b
000003c0: 8c54 1abe 5611 1e3e 14ca 2fbe 9799 f13d
000003d0: d291 073e 3132 9bbd f985 6fbc bc55 54bd
000003e0: ab20 78bd 0c54 113f ce0b 44be 5a22 1d3d
000003f0: 1f73 1abe bd5e 86bd 05b4 863e b40e a23e

network_body._body_endoder.seq_layers.0.bias f4 [128]
0.00031804002 0.0014185281 0.011915776 0.008178106 -0.008802387 -0.0034849597 0.0027483338 -0.010495135
0.0024744074 -0.006685275 -0.004843494 -0.011581231 -0.0067908657 0.00013320337 -0.001002816 0.0018434535
0.0020257048 0.005309532 -0.0063693016 0.004107705 0.0028032558 0.014935831 -0.008186509 0.0049388213
-0.0011841547 -0.00023196438 -0.005735094 0.00698829 0.0032676652 -0.005615186 -0.0066358405 -0.0012583565
0.0023313407 0.015146508 -0.0044193016 0.008064429 0.0039972435 0.012018728 -0.0030700138 0.012522559
-0.0015704017 -0.019864347 -0.0019923002 0.013221494 -0.0055768117 -0.008601821 -0.003413822 -0.0022760916
0.0036088936 -0.0025949483 -0.0022371295 -0.0013581855 0.004450986 -0.0071183676 0.005592438 -0.0072198366
-0.003365363 0.0054257405 -0.006529724 0.005467131 -0.0013868299 0.0075350273 0.0026178027 -0.008002512
-0.0034644392 -0.012722102 0.007902704 -0.0035304637 -0.0059100073 -0.015678853 0.0027289486 0.00951734
0.012960629 -0.00037685363 0.011820184 -0.0027897125 -0.007359218 0.004206727 -0.00344269 0.012650635
0.00091183226 0.0041870563 0.0030435012 0.0023981042 -0.010369594 -0.0070000826 -0.009477214 -0.005312735
-0.011713683 0.0136629185 0.013881783 -0.01077444 -0.0035248315 -0.0029115707 -0.00017405902 0.0064226855
-0.0068412693 -0.0021525512 0.005257878 -0.0022981712 -0.006007029 0.0005145602 -0.0042093806 -0.012854521
0.0039198366 0.022546496 -0.01646366 0.003935938 0.004417232 0.0025392668 0.0029865378 -0.0088408645
0.010143532 0.004735226 0.01089765 0.0035075895 -0.011536798 -0.0052125114 0.019424308 -0.002900027
-0.008822401 0.009048564 -0.007203113 0.006350831 0.0057324143 -0.003632884 0.010358251 -0.0038755415
00000000: 9cbe a639 e8ed b93a 633a 433c 76fd 053c
00000010: e337 10bc ec63 64bb 641d 343b c9f3 2bbc
00000020: ab29 223b 2710 dbbb 2cb6 9ebb 34bf 3dbc
00000030: e985 debb 82ac 0b39 ec70 83ba 09a0 f13a
00000040: b0c1 043b 95fb ad3b 93b5 d0bb ed99 863b
00000050: d4b6 373b 6ab5 743c b520 06bc d6d5 a13b
00000060: a335 9bba 773b 73b9 75ed bbbb 07fe e43b
00000070: 5326 563b 98ff b7bb 7771 d9bb 70ef a4ba
00000080: 68c9 183b 0f29 783c cacf 90bb ab20 043c
00000090: 4ffb 823b 33ea 443c 4932 49bb 6b2b 4d3c
000000a0: f0d5 cdba 8eba a2bc 4091 02bb f79e 583c
000000b0: b0bd b6bb a7ee 0cbc 6eba 5fbb 7b2a 15bb
000000c0: 3083 6c3b 0210 2abb ce9c 12bb 2505 b2ba
000000d0: 94d9 913b 3241 e9bb c540 b73b 6194 ecbb
000000e0: 6c8d 5cbb 69ca b13b 4cf7 d5bb 9e25 b33b
000000f0: 4ac6 b5ba 64e8 f63b 718f 2b3b f81c 03bc
00000100: a50b 63bb 5d70 50bc 587a 013c 5a5f 67bb
00000110: bca8 c1bb f070 80bc 29d8 323b 9eee 1b3c
00000120: d158 543c 7094 c5b9 72a9 413c 9cd3 36bb
00000130: 9825 f1bb 95d8 893b c19e 61bb 9c44 4f3c
00000140: 0708 6f3a 9333 893b 7a75 473b 8329 1d3b
00000150: 3be5 29bc f360 e5bb 5146 1bbc 7416 aebb
00000160: bfea 3fbc 6fda 5f3c 6b70 633c 4787 30bc
00000170: dc00 67bb 0dd0 3ebb 9d83 36b9 6475 d23b
00000180: ba2c e0bb d111 0dbb 474a ac3b ea9c 16bb
00000190: 9dd6 c4bb 8de3 063a d8ee 89bb c59b 52bc
000001a0: f971 803b 6eb3 b83c ccde 86bc 0af9 803b
000001b0: 6dbe 903b d469 263b cab9 433b 46d9 10bc
000001c0: 0f31 263c f429 9b3b 0f8c 323c 96df 653b
000001d0: d704 3dbc b7cd aabb ba1f 9f3c 610e 3ebb
000001e0: d58b 10bc 6e40 143c 1708 ecbb a21a d03b
000001f0: fad6 bb3b ae15 6ebb a7b5 293c ccfc 7dbb

network_body._body_endoder.seq_layers.2.weight f4 [128, 128]
-0.023807554 0.020077892 -0.12183628 -0.11090099 0.026956577 0.044715144 0.026765758 -0.018107401
0.18143566 -0.042584013 -0.10018862 -0.013296928 -0.06302777 -0.030339874 0.0972737 0.043356184
0.036441863 0.058812194 0.049176335 0.047125902 -0.0024832725 0.008050257 -0.047049694 -0.059138164
0.094829805 -0.036819182 -0.028495258 -0.065469496 -0.0065940865 0.01076025 -0.057105433 -0.032635182
0.05348822 0.09972227 -0.06299615 0.053834666 0.05879524 0.17896037 0.18595599 -0.09959057
0.007847494 -0.112013124 -0.08749749 0.11880209 0.04346859 -0.034131143 0.08219591 -0.01102012
-0.12860064 0.103520244 0.021773644 0.12322991 0.107761405 0.07183787 0.074268505 -0.017018553
-0.061438933 -0.27966416 0.19482069 -0.09434021 0.10943766 0.023902897 -0.0057321656 -0.14068386
0.13955064 -0.011982366 -0.10839709 -0.060530204 0.013471145 -0.10450554 -0.12158197 -0.10353495
0.066749215 -0.039603952 -0.0020267467 -0.103332564 -0.1144689 0.1539923 -0.22836064 -0.014352923
0.09319838 0.08446003 -0.034412645 -0.14099911 -0.18735781 0.030039232 0.0035652495 0.033379328
0.007947609 0.097299404 -0.077511035 -0.027588498 0.072059065 0.117156446 0.028368402 0.10417281
-0.15141854 -0.03987136 0.07472088 -0.23164776 -0.070017725 0.01418236 0.022375923 -0.0028089082
0.2668161 0.06579957 -0.05950052 -0.0044441232 0.041994352 0.12985021 -0.09212253 -0.044996694
0.020925948 0.026099052 0.083158866 -0.12654403 -0.026911171 -0.058217835 -0.115752295 -0.059241645
-0.054652397 0.027057283 -0.10504232 0.039162274 -0.029140847 -0.0389498 -0.061492655 -0.054753304
-0.055866037 -0.1259042 -0.06468764 -0.121457696 -0.034022775 -0.0012136078 -0.027733356 -0.0150666535
-0.013683609 0.024312086 -0.010093236 0.12871695 0.12443251 0.09416392 -0.124887586 -0.12713024
-0.07961578 -0.039181497 0.036571853 0.16066718 -0.03124227 0.0658724 -0.06527107 -0.2649339
-0.07968669 0.07858529 -0.14073466 -0.0023241504 0.00054709683 0.08430669 -0.022202838 0.15573946
-0.054275606 0.10049309 0.0043885927 0.1818084 -0.141188 0.025501179 0.0707092 0.047187917
0.15145971 -0.06646815 -0.10520805 -0.015300332 -0.065000035 0.0842449 -0.18678263 -0.10804213
0.018606063 -0.11589936 0.07842948 0.14871928 0.009874835 0.006833424 0.01484352 0.0069069043
-0.14554547 0.17684989 0.0025829403 -0.001821488 0.041179698 0.24179566 -0.06791312 0.046022333
0.04783271 -0.10013614 0.013745541 0.027398163 -0.032210615 -0.079493746 -0.059394132 0.013321523
-0.02372768 -0.12023298 0.019064883 0.20871052 -0.31324744 -0.04846049 -0.15375876 0.15361354
-0.025522422 -0.086535804 0.16794789 -0.09328199 -0.12519659 0.051465977 -0.07448389 0.045938652
0.0034778363 -0.035372335 0.018476516 0.006425525 0.10465002 -0.0386939 -0.08226003 -0.08360117
-0.04411636 -0.0077589005 0.009383087 0.04448712 -0.00193006 -0.1399086 -0.18243986 0.0046100025
0.015160314 0.013910183 -0.07551201 -0.12144134 -0.11335729 -0.088110656 0.020055652 0.21661778
-0.013785766 -0.0686398 0.051422868 0.03618626 0.14097552 -0.07637834 -0.058247566 0.038471412
0.05665761 0.14288598 -0.010646565 0.17068823 -0.013077713 -0.057461716 0.05764431 0.038401324
00000000: 0f08 c3bc 647a a43c 4d85 f9bd 0f20 e3bd
00000010: 0ad4 dc3c 3a27 373d dd43 db3c f955 94bc
00000020: 45ca 393e 936c 2ebd b12f cdbd 5cdb 59bc
00000030: b414 81bd 548b f8bc 6f37 c73d 4196 313d
00000040: 1044 153d 0ee5 703d 206d 493d 1707 413d
00000050: 66be 22bb 3ae5 033c 2eb7 40bd dc3a 72bd
00000060: 2136 c23d b6cf 16bd e36e e9bc df14 86bd
00000070: 3513 d8bb c24b 303c 63e7 69bd 78ac 05bd
00000080: 7716 5b3d 313b cc3d 2004 81bd bd81 5c3d
00000090: 47d3 703d 6341 373e 3f6b 3e3e 24f6 cbbd
000000a0: c792 003c 2367 e5bd e231 b3bd 834e f33d
000000b0: 1f0c 323d 19cd 0bbd 5456 a83d bc8d 34bc
000000c0: e3af 03be 6c02 d43d a45e b23c f75f fc3d
000000d0: 03b2 dc3d bc1f 933d 161a 983d 7e6a 8bbc
000000e0: 64a7 7bbd 2430 8fbe 137f 473e 7135 c1bd
000000f0: da20 e03d 02d0 c33c e4d4 bbbb 6e0f 10be
00000100: 5de6 0e3e b051 44bc 4bff ddbd 85ee 77bd
00000110: 14b6 5c3c 0007 d6bd f8ff f8bd 220a d4bd
00000120: d0b3 883d c137 22bd 2bd3 04bb 06a0 d3bd
00000130: ac6e eabd 28b0 1d3e 5fd7 69be 8628 6bbc
00000140: cbde be3d 61f9 ac3d 46f4 0cbd 1262 10be
00000150: bada 3fbe d614 f63c f6a6 693b c3b8 083d
00000160: b036 023c e944 c73d 1bbe 9ebd 4601 e2bc
00000170: b493 933d b8ef ef3d da64 e83c 8e58 d53d
00000180: 760d 1bbe 2750 23bd 4307 993d 1235 6dbe
00000190: 7465 8fbd 215d 683c b64d b73c a915 38bb
000001a0: 1f9c 883e edc1 863d d1b6 73bd 02a0 91bb
000001b0: 4502 2c3d 74f7 043e bdaa bcbd 744e 38bd
000001c0: e56c ab3c aecd d53c 324f aa3d c294 01be
000001d0: d174 dcbc d375 6ebd 8a0f edbd 5ea7 72bd
000001e0: 31db 5fbd 3ca7 dd3c 6e20 d7bd 9f68 203d
000001f0: c9b8 eebc d389 1fbd b9df 7bbd 0045 60bd
00000200: c9d3 64bd 08ed 00be f47a 84bd d0be f8bd
00000210: 775b 0bbd ec11 9fba 1031 e3bc 20da 76bc
00000220: 3731 60bc 242a c73c 1a5e 25bc 60ce 033e
00000230: 79d6 fe3d 03d9 c03d 10c5 ffbd 6e2e 02be
00000240: 990d a3bd c77c 20bd 5ecc 153d f085 243e
00000250: caef ffbc 1ce8 863d d7ac 85bd 6ba5 87be
00000260: c632 a3bd 53f1 a03d bf1c 10be c650 18bb
00000270: 0c6b 0f3a fca8 ac3d bae2 b5bc 2a7a 1f3e
00000280: 1950 5ebd 52cf cd3d 2fce 8f3b fb2b 3a3e
00000290: 9693 10be d9e7 d03c fccf 903d 1e48 413d
000002a0: 4118 1b3e 7420 88bd 5177 d7bd 3eae 7abc
000002b0: bd1e 85bd 9788 ac3d f243 3fbe 3145 ddbd
000002c0: be6b 983c a55c edbd a39f a03d de49 183e
000002d0: 0fca 213c eaea df3b 3c32 733c 5053 e23b
000002e0: df09 15be 2318 353e 8c46 293b ffbe eeba
000002f0: 0bac 283d 4899 773e 0916 8bbd ea81 3c3d
00000300: 3bec 433d 2d14 cdbd fa34 613c 1d72 e03c
00000310: 47ef 03bd 9ecd a2bd 4347 73bd 8442 5a3c
00000320: 8d60 c2bc b53c f6bd f52d 9c3c 36b8 553e
00000330: f861 a0be 827e 46bd f072 1dbe de4c 1d3e
00000340: 6614 d1bc af39 b1bd 88fa 2b3e a10a bfbd
00000350: 8933 00be fdcd 523d 028b 98bd 2b2a 3c3d
00000360: 69ec 633b 95e2 10bd 105c 973c 368d d23b
00000370: c052 d63d 7f7d 1ebd f277 a8bd 1737 abbd
00000380: 5bb3 34bd 603e febb 85bb 193c 2038 363d
00000390: 11fa fcba 3344 0fbe 84d1 3abe 810f 973b
000003a0: f762 783c 89e7 633c 0aa6 9abd 3db6 f8bd
000003b0: de27 e8bd 5c73 b4bd c04b a43c 0dd1 5d3e
000003c0: b2dd 61bc 0693 8cbd c9a0 523d 0b38 143d
000003d0: e35b 103e 3f6c 9cbd 0095 6ebd 3394 1d3d
000003e0: cf11 683d b450 123e ee6e 2ebc e5c8 2e3e
000003f0: e743 56bc fa5c 6bbd 711c 6c3d b54a 1d3d

network_body._body_endoder.seq_layers.2.bias f4 [128]
0.0071641216 0.0014948818 -0.0074499394 0.0062476983 -0.0069555533 -0.0014443357 -0.005586226 0.010189015
0.017107269 4.105397e-05 0.0060614184 0.010001422 0.0014425094 -0.0031103964 -0.0056262026 -0.009780875
-0.006931642 -0.00023258808 -0.008115797 -0.0073121567 0.0071713515 0.0075577036 0.0021278572 -0.0057031303
0.0017012235 0.009070995 0.012984387 0.0031379978 -0.0071460125 -0.011036772 0.009100147 -0.0018923053
-0.007665902 0.0038108965 -0.005901213 0.0022891462 -0.0032361588 0.0043168566 -0.011240862 0.0053791706
0.012806885 0.0003533418 -0.004166864 0.01067158 0.004192148 0.003973063 0.0039395797 0.0027354027
-0.016205875 0.0015301299 0.008816164 0.00664036 -0.003363851 0.0053068725 -0.002140714 0.0009029899
-0.011344452 -0.0039940234 0.007838183 0.00033318618 -0.0065431693 -0.0019403977 -0.0021074736 -0.002202296
6.213131e-05 0.009362294 -0.011925927 0.00091969897 -0.0022665784 0.0007829479 -0.010191715 0.00042789054
-0.007533765 -0.001129372 -0.010941595 0.005587185 -0.00135419 -0.004941808 0.003276704 -0.007410991
0.009687649 -0.0024840764 0.00837887 0.013352885 0.015734844 0.005262042 0.0005653141 0.008738284
0.004448474 0.009904005 0.0047039455 0.0002389251 -0.0034328685 -0.002058413 -0.01594168 0.00846614
-0.00828346 -0.0002529995 -0.00014716471 -0.0058678063 -0.0064124516 -0.0033101917 -0.0023077528 0.0080049075
-0.0023673542 0.0009932825 -0.0079083685 -0.00344779 0.0050154985 -0.010988495 -0.00455922 0.0050630467
-0.0069515524 0.0004181696 -0.0067292075 0.013139813 0.00010437632 -0.0029974543 -0.0016808329 -0.012250042
0.012663849 0.0037319895 -0.0018038949 -0.0074778385 -0.0039992738 -0.010432833 -0.00566738 -0.0050667184
00000000: 02c1 ea3b e9ef c33a 9f1e f4bb 7eb9 cc3b
00000010: 69eb e3bb dd4f bdba a90c b7bb d4ef 263c
00000020: 8b24 8c3c 5d31 2c38 dd9e c63b 01dd 233c
00000030: 9512 bd3a cbd7 4bbb 025c b8bb f73f 20bc
00000040: d422 e3bb e3e2 73b9 1ff8 04bc d19a efbb
00000050: a8fd ea3b 9da6 f73b 8573 0b3b 53e1 babb
00000060: 97fb de3a 839e 143c 77bc 543c dea6 4d3b
00000070: 1929 eabb 94d3 34bc c818 153c 3b07 f8ba
00000080: 3f32 fbbb 3cc0 793b f65e c1bb 8005 163b
00000090: bc15 54bb 6b74 8d3b 982b 38bc c143 b03b
000000a0: f8d3 513c bc40 b939 308a 88bb dad7 2e3c
000000b0: 495e 893b 7830 823b 9717 813b 7144 333b
000000c0: 2fc2 84bc a48e c83a ac71 103c 6197 d93b
000000d0: 0e74 5cbb 46e5 ad3b 394b 0cbb a0b6 6c3a
000000e0: 15de 39bc 4ce0 82bb b96b 003c 7eaf ae39
000000f0: 1568 d6bb f154 feba 8a1d 0abb 6554 10bb
00000100: 7e4c 8238 4f64 193c f764 43bc f417 713a
00000110: e08a 14bb be3e 4d3a 27fb 26bc 7f56 e039
00000120: cddd f6bb 7007 94ba 6044 33bc b414 b73b
00000130: 147f b1ba e4ee a1bb f9bd 563b e6d7 f2bb
00000140: f2b8 1e3c e3cb 22bb 8747 093c 0fc6 5a3c
00000150: 5ce6 803c 356d ac3b 9631 143a 052b 0f3c
00000160: 81c4 913b 6844 223c 8e23 9a3b f887 7a39
00000170: faf9 60bb 71e6 06bb 2098 82bc 91b5 0a3c
00000180: 59b7 07bc 05a5 84b9 3a50 1ab9 ba46 c0bb
00000190: 8b1f d2bb cdef 58bb ab3d 17bb 0427 033c
000001a0: 9d25 1bbb 0831 823a 1a92 01bc 51f4 61bb
000001b0: 0d59 a43b 1709 34bc 8265 95bb eae7 a53b
000001c0: d9c9 e3bb c63d db39 af80 dcbb 5f48 573c
000001d0: 9ce4 da38 f070 44bb 654f dcba 66b4 48bc
000001e0: 087c 4f3c 6594 743b ab70 ecba a808 f5bb
000001f0: 570c 83bb 79ee 2abc 6eb5 b9bb b706 a6bb

action_model._discrete_distribution.branches.0.weight f4 [4, 128]
-0.013686565 -0.015303354 -0.007864938 -0.0143199405 -0.0016473525 -0.006938692 0.0038478384 0.015289947
-0.0016631203 0.0052410946 0.0016001638 0.00258752 0.003071736 -0.005581723 -0.0043944465 -0.012464088
0.0008651973 -0.009245376 -0.016122572 -0.0022601602 0.006331402 -0.0029640605 -0.00030971263 0.0055954405
0.0015902409 0.009585065 -0.0028830033 0.0050188187 0.011453083 0.013614635 -0.006462738 0.004708447
-0.0126940515 0.0029142192 0.00336791 0.001210088 -0.00018330207 0.009645877 -0.0023244608 -0.003742064
0.010198933 -0.01796124 0.0047692945 -0.000112812806 -0.0018772056 0.011234778 -0.008354938 -0.005041988
0.008028801 0.00334496 0.0025131484 0.005903191 0.0006537571 0.01588089 0.010907087 0.020814972
0.008105947 -0.010132992 -0.0023722826 -0.019556338 0.0007842955 -0.013307202 -0.009219327 0.014047324
0.003084161 -0.01080464 0.008600645 0.00030762498 -0.0063662375 -0.0023584112 0.00470964 -0.009865791
-0.011150035 0.00011863397 -0.0055611427 0.010214705 0.00014403446 -0.018461552 0.01426965 -1.4303292e-05
0.0028317557 -0.00833992 -4.3464337e-05 3.6161688e-05 -0.0064402116 0.019286083 -0.004754588 -0.019357363
-0.0075169057 0.00964699 -0.019653128 -0.015866213 0.006791918 -0.0016076646 -0.0001590518 -0.008921604
-0.004099504 -0.0041358913 0.01376833 -0.015640069 -0.01264706 -0.014124131 -0.01789265 -0.0024760857
-0.007277742 0.00015580424 0.0044479524 -0.011013797 0.00040016827 0.007532608 -0.017653968 -0.018057117
-0.0022303718 -0.011950391 -0.002775725 -0.005840098 0.0026660564 -0.021585904 -0.011798162 0.01141983
-0.00075337646 -0.0011130769 -0.0060090255 -0.009224973 0.0047584134 -0.00027485765 0.0015251562 -0.0064064804
-0.003518068 0.013797356 -0.00094990607 -0.009348135 0.0041279434 -0.0039826077 -0.004376019 -0.010463726
-0.014649388 -0.008104191 -0.00031195406 -0.011895736 -0.0016956807 -0.008073075 0.00019320067 0.011094772
0.0034288922 -0.0045230323 0.008658519 -0.00022541833 -0.0027207306 -0.011618184 0.021143269 -0.00063419936
-0.009379228 0.011094978 0.0005989917 0.015891725 0.0067214775 0.00666385 -0.007477972 0.005204088
0.006790207 0.00087480806 0.002019633 -0.0019712138 0.0036056084 0.0035939196 0.005648973 -0.0008679152
-0.010580488 -0.005987034 -0.005694006 0.0012001459 0.013279129 0.0050526047 -0.010858259 0.0078623565
0.005434844 0.016840588 -0.0062731593 0.010407973 -0.004048815 -0.0026887103 -0.001683204 0.008508636
0.0068294657 0.0075950557 -0.0068619247 -0.0032640412 -0.006912675 0.006395185 0.016908985 -0.0038440896
0.0024664428 -0.014755133 0.0044284966 0.0057069627 -0.000387401 2.46493e-05 -9.518922e-05 0.0037698133
0.004218518 -0.004316907 0.028163657 -0.00021005479 0.008341335 0.021559263 -0.0056286165 0.0063217296
-0.0059391633 0.012529685 0.009264404 -0.0028845503 -0.020377716 -0.006432673 0.0033687614 0.0014829654
0.009123051 0.0063203396 0.0034728425 0.01176647 0.0055542495 0.0018110541 0.003105681 -0.0037275061
-0.005922053 0.01553498 -0.018299134 0.0059955944 -0.0038894124 0.022885231 0.009238164 -0.004283049
-0.003400084 0.0071570505 0.015130122 0.008875416 -0.0036586798 0.015994642 0.0029971225 -0.0157102
0.0039062803 -0.00031300233 0.013736263 -0.0061243637 -0.0045340555 0.0079610115 0.0006608432 0.01572987
-0.010355111 0.0049110716 -0.002976835 -0.005374525 0.0014582021 0.007948647 -0.0065490357 -0.00390859
00000000: 9d3d 60bc ebba 7abc f1db 00bc 2f9e 6abc
00000010: faeb d7ba f85d e3bb 042c 7c3b b082 7a3c
00000020: 0ffd d9ba 7dbd ab3b 96bc d13a 6293 293b
00000030: 2e4f 493b e3e6 b6bb 4aff 8fbb 2d36 4cbc
00000040: 68ce 623a eb79 17bc 7c13 84bc 321f 14bb
00000050: a677 cf3b af40 42bb ed60 a2b9 f559 b73b
00000060: a16f d03a ad0a 1d3c c5f0 3cbb e774 a43b
00000070: b6a5 3b3c eb0f 5f3c 60c5 d3bb 5149 9a3b
00000080: b6fa 4fbc 7cfc 3e3b 27b8 5c3b d19b 9e3a
00000090: c634 40b9 be09 1e3c fb55 18bb 6a3d 75bb
000000a0: 6d19 273c 7323 93bc be47 9c3b ea95 ecb8
000000b0: 910c f6ba 1312 383c 26e3 08bc 4337 a5bb
000000c0: 3b8b 033c 1e37 5b3b a2b3 243b 8e6f c13b
000000d0: e560 2b3a a418 823c a3b3 323c 2984 aa3c
000000e0: cece 043c d904 26bc 4c78 1bbb 9d34 a0bc
000000f0: 2e99 4d3a 7306 5abc a90c 17bc bf26 663c
00000100: a31f 4a3b f205 31bc b8e9 0c3c ba48 a139
00000110: df9b d0bb 938f 1abb 5353 9a3b 20a4 21bc
00000120: a3ae 36bc 21cb f838 3f3a b6bb 945b 273c
00000130: f507 1739 ae3c 97bc 40cb 693c 2cf8 6fb7
00000140: fa94 393b 29a4 08bc 7a4d 36b8 51ac 1738
00000150: 6908 d3bb d9fd 9d3c 60cc 9bbb 5593 9ebc
00000160: 6050 f6bb 690e 1e3c 99ff a0bc dcf9 81bc
00000170: bd8e de3b 46b8 d2ba 24c7 26b9 eb2b 12bc
00000180: 2255 86bb 5f86 87bb 9094 613c 9a1f 80bc
00000190: 9d35 4fbc e668 67bc 9b93 92bc d345 22bb
000001a0: 207a eebb 625f 2339 21c0 913b 3673 34bc
000001b0: adcd d139 19d4 f63b 0e9f 90bc 85ec 93bc
000001c0: 6e2b 12bb 93cb 43bc f0e8 35bb 4b5e bfbb
000001d0: 01b9 2e3b ecd4 b0bc 144d 41bc 3d1a 3b3c
000001e0: 3d7e 45ba aae4 91ba 5ce7 c4bb 5724 17bc
000001f0: 77ec 9b3b c51a 90b9 c0e7 c73a 74ed d1bb
00000200: 638f 66bb 4e0e 623c 1e03 79ba ec28 19bc
00000210: b343 873b 8980 82bb b564 8fbb 0c70 2bbc
00000220: fd03 70bc 71c7 04bc c48d a3b9 55e6 42bc
00000230: 9a41 deba ee44 04bc e995 4a39 d9c6 353c
00000240: 44b7 603b f235 94bb 76dc 0d3c 465e 6cb9
00000250: 494e 32bb 325a 3ebc a634 ad3c 6640 26ba
00000260: 55ab 19bc b6c7 353c a705 1d3a 5d2f 823c
00000270: d73f dc3b 6d5c da3b c709 f5bb 0e87 aa3b
00000280: 6280 de3b 6053 653a d25b 043b 7b2f 01bb
00000290: 124c 6c3b f787 6b3b 051b b93b ce84 63ba
000002a0: c859 2dbc e22e c4bb c994 babb 374e 9d3a
000002b0: b490 593c 5290 a53b d7e6 31bc 1dd1 003c
000002c0: c716 b23b 46f5 893c 138f cdbb 3486 2a3c
000002d0: ecab 84bb 1335 30bb f49e dcba ce67 0b3c
000002e0: b6c9 df3b f2df f83b ffd9 e0bb 86e9 55bb
000002f0: b983 e2bb b38e d13b b684 8a3c 1fed 7bbb
00000300: 0ba4 213b 83bf 71bc ec1c 913b 7901 bb3b
00000310: 151c cbb9 f8c5 ce37 53a0 c7b8 f90e 773b
00000320: 7e3b 8a3b d774 8dbb 78b7 e63c 2742 5cb9
00000330: 18aa 083c 0d9d b03c 4270 b8bb 8326 cf3b
00000340: 509d c2bb 4f49 4d3c bac9 173c b90a 3dbb
00000350: 2bef a6bc 2cc9 d2bb 70c6 5c3b 1060 c23a
00000360: d978 153c da1a cf3b a198 633b 27c8 403c
00000370: 6c00 b63b e460 ed3a ae88 4b3b 2d49 74bb
00000380: c80d c2bb 6e86 7e3c 11e8 95bc b176 c43b
00000390: 83e5 7ebb cf79 bb3c ab5b 173c d258 8cbb
000003a0: f2d3 5ebb b185 ea3b 55e4 773c 316a 113c
000003b0: 76c6 6fbb 3207 833c 5f6b 443b adb2 80bc
000003c0: 4100 803b 761a a4b9 100e 613c e3ae c8bb
000003d0: 6a92 94bb e76e 023c 703c 2d3a eedb 803c
000003e0: 7ca8 29bc 0eed a03b 0117 43bb c91c b0bb
000003f0: 2521 bf3a 0b3b 023c 4b99 d6bb a113 80bb

action_model._discrete_distribution.branches.0.bias f4 [4]
0.00042763128 -0.003943416 -0.009571214 0.01087615
00000000: b333 e039 c537 81bb 95d0 1cbc e131 323c

action_model._discrete_distribution.branches.1.weight f4 [3, 128]
0.007551931 -0.00074884767 0.0042369165 0.011194964 -0.019023081 -0.003354678 0.009747777 -0.007471839
0.009709049 -0.010514202 -0.006614009 -0.004329306 -0.0016127509 -0.0038036024 0.0033418513 -0.008798112
-0.0019075086 0.0033622107 0.002177829 -0.01373311 0.0050382474 0.009150409 0.006049541 -0.008488444
-0.015106743 -0.0059294063 0.005578862 -0.0148157505 0.00095108704 -0.0037276759 0.0005068849 -0.00088099384
-0.009361461 -0.004841975 0.0017421133 0.012796477 -0.0063644247 0.015579181 -0.007260823 0.0062295226
-0.0014960502 0.010838067 -0.008478919 0.0053216466 -0.0017356935 -0.0046373717 0.000995172 -0.015966019
-0.008641293 0.0041197976 0.0016661332 2.0856533e-05 0.0022664934 0.0018832032 -0.019531006 -0.014167694
0.00012164403 -0.0012272984 0.01554061 0.0010134445 0.006994593 0.009007638 0.001053943 0.013876763
-0.014844896 0.004942326 -0.005431449 0.007611844 0.010698412 0.017364161 -0.021282773 -0.0069066803
-0.013809705 0.007865018 -0.018633734 0.022659525 0.017654227 -0.0085288845 0.0024615207 0.0025764478
-0.010183485 0.007050328 -0.0003494822 -0.010745886 0.017028479 -0.00912337 0.00787407 -0.003237454
0.003967675 -0.0003833262 0.0100858295 -0.003349929 0.0024629242 -0.007082575 0.00071273657 -0.0012337808
-0.021083366 -0.015322916 0.0029714142 -0.0036740927 -0.017680917 0.020329833 0.00069052324 0.020434009
-0.017666439 -0.001709577 -0.017118268 0.008205839 -0.004947061 -0.022190511 0.00030140416 -0.002225793
-0.0015571855 -0.010859994 0.0011280016 0.000647044 -0.018238254 -0.00277643 0.005446335 -0.0026522991
0.004736726 0.0036981506 -0.017871402 -0.01660128 -0.016945245 0.011597035 -0.010231034 0.009811929
-0.00047959172 -0.008491716 0.010245616 -0.0047609876 -0.0011767462 0.005688528 -0.008803096 -0.009770075
0.017652234 -0.0029833892 -0.0018579877 -0.001699609 0.012938469 -0.012310764 -0.018445088 -0.0076883943
-0.008678227 -0.014049427 -0.0015580927 -0.008511725 -0.0052402155 -0.0073187114 -0.0023494272 0.0052363775
0.014840977 -0.0013813053 0.0029862928 4.024002e-05 -0.019088631 -0.006565015 0.0111404685 0.005707318
0.0056680823 0.0026140267 -0.015794728 -0.0038592184 0.003748578 -0.0111411195 0.005382411 0.00067328266
0.0037531538 -0.0024444442 0.008821139 0.018362144 0.0064793285 0.0053213406 -0.011497762 -0.00075765606
-0.0015700243 0.008830122 -0.011803976 -0.0003170995 -0.004695707 -0.0012544548 0.0008994701 0.010752913
-0.016478555 0.008682857 0.0045675435 -0.0075212736 0.012756856 -0.011635871 0.00371246 -0.0018844241
0.005019762 -0.004610415 0.0026776833 -0.0039124973 0.0013071405 0.004924114 0.00068649836 0.017375985
0.010684439 0.017930098 -0.017472837 0.0022987782 0.0038636592 0.0013881173 -0.00020018291 -0.0038593432
-0.0015891185 -0.0052518453 0.0018015913 -0.0016709309 0.0013494763 0.009323959 -0.008789416 0.0043152184
-0.003023675 0.002477372 0.014420927 -0.005821473 -0.02350556 -0.008349717 -0.0027433203 -0.0017078334
-0.0072427094 0.0033291823 0.0012127052 -0.0053369403 -0.0033010135 -0.013545942 0.005262933 -0.02279963
0.007835076 -0.0030909628 -0.00730352 0.0036167807 0.0015296964 -0.013528499 -0.008639071 -0.0065143257
-0.012986246 0.015159899 -0.012469834 0.005544852 0.0028469597 -0.013533177 0.013782651 -0.0067641116
-0.0036504385 -0.0062293475 0.004169991 -0.011723522 0.0032495465 0.002357211 0.002136499 -0.013282994
00000000: 3076 f73b 514e 44ba d5d5 8a3b 156b 373c
00000010: 4bd6 9bbc 28da 5bbb 24b5 1f3c 54d6 f4bb
00000020: b412 1f3c c243 2cbc 54ba d8bb dadc 8dbb
00000030: f162 d3ba dc45 79bb f602 5b3b f525 10bc
00000040: 5e05 faba 8958 5c3b e8b9 0e3b d700 61bc
00000050: e217 a53b 99eb 153c 3a3b c63b 1d13 0bbc
00000060: 4682 77bc 774b c2bb e3ce b63b c3bd 72bc
00000070: 5f52 793a 064c 74bb 78e0 043a 7ff2 66ba
00000080: d060 19bc 6ea9 9ebb 9f57 e43a 51a8 513c
00000090: aa8c d0bb d23f 7f3c 33ec edbb 0621 cc3b
000000a0: 1d17 c4ba 2692 313c 2aeb 0abc 3561 ae3b
000000b0: 3680 e3ba 18f5 97bb 6e70 823a 2bcb 82bc
000000c0: 3694 0dbc 5eff 863b 2762 da3a 10f5 ae37
000000d0: 7389 143b d0d5 f63a 7dff 9fbc 9e1f 68bc
000000e0: 241b ff38 4ddd a0ba 0b9e 7e3c 8ed5 843a
000000f0: e632 e53b c694 133c 7524 8a3a 5d5b 633c
00000100: 0238 73bc 3cf3 a13b 4cfa b1bb c76c f93b
00000110: 6448 2f3c 493f 8e3c 3659 aebc 6f51 e2bb
00000120: 1a42 62bc 47dc 003c c6a5 98bc 78a0 b93c
00000130: 999f 903c bcbc 0bbc 7751 213b 9fd9 283b
00000140: a2d8 26bc 7006 e73b b53a b7b9 830f 30bc
00000150: 4f7f 8b3c 307a 15bc 3e02 013c 772b 54bb
00000160: 4503 823b 2cf9 c8b9 093f 253c 7b8a 5bbb
00000170: 0369 213b f214 e8bb f1d6 3a3a d0b6 a1ba
00000180: 06b7 acbc f80c 7bbc 0fbc 423b 0cc9 70bb
00000190: 92d7 90bc c08a a63c 3b04 353a 3965 a73c
000001a0: 35b9 90bc e313 e0ba 9c3b 8cbc c971 063c
000001b0: f51a a2bb e0c8 b5bc c805 9e39 9cde 11bb
000001c0: 7a1a ccba 1eee 31bc 74d9 933a 639e 293a
000001d0: 6468 95bc c4f4 35bb 2b77 b23b 32d2 2dbb
000001e0: 8a36 9b3b ac5c 723b 0c67 92bc 68ff 87bc
000001f0: c1d0 8abc 7e01 3e3c 11a0 27bc 37c2 203c
00000200: b671 fbb9 d720 0bbc 3add 273c 0f02 9cbb
00000210: 0d3d 9aba d566 ba3b dc3a 10bc aa12 20bc
00000220: 6b9b 903c f784 43bb b987 f3ba 6ac5 deba
00000230: dffb 533c 16b3 49bc 271a 97bc edee fbbb
00000240: 1f2f 0ebc 912f 66bc ea38 ccba c374 0bbc
00000250: 1db6 abbb cdd1 efbb d9f8 19bb eb95 ab3b
00000260: 9227 733c ea0c b5ba aeb5 433b 64c7 2838
00000270: c35f 9cbc 561f d7bb 8386 363c 7404 bb3b
00000280: 52bb b93b 1750 2b3b f263 81bc f1ea 7cbb
00000290: b4aa 753b 3e89 36bc f05e b03b 3c7f 303a
000002a0: 79f7 753b f832 20bb 8a86 103c 356c 963c
000002b0: 8c50 d43b a45e ae3b 1c61 3cbc 709d 46ba
000002c0: 46c9 cdba 37ac 103c 7765 41bc 6040 a6b9
000002d0: 72de 99bb 856c a4ba 6bca 6b3a fc2c 303c
000002e0: 09fe 86bc 8b42 0e3c 55ab 953b 0475 f6bb
000002f0: 2202 513c 61a4 3ebc be4c 733b c8fe f6ba
00000300: d17c a43b f712 97bb 127c 2f3b 6834 80bb
00000310: 5b54 ab3a 765a a13b 20f6 333a 1558 8e3c
00000320: c90d 2f3c 24e2 923c 3223 8fbc 19a7 163b
00000330: 7235 7d3b 7df1 b53a 31e8 51b9 09ed 7cbb
00000340: f849 d0ba ac17 acbb 5f23 ec3a 2303 dbba
00000350: e9e0 b03a 85c3 183c 7c01 10bc ad66 8d3b
00000360: d928 46bb 685b 223b c045 6c3c 0ec2 bebb
00000370: bb8e c0bc 40cd 08bc 47c9 33bb 61d9 dfba
00000380: 4054 edbb 692e 5a3b a2f3 9e3a 80e1 aebb
00000390: d155 58bb ccef 5dbc af74 ac3b 4ac6 babc
000003a0: b15e 003c c091 4abb 5e52 efbb 8307 6d3b
000003b0: 1880 c83a a3a6 5dbc e48a 0dbc 2076 d5bb
000003c0: 43c4 54bc 3a61 783c 464e 4cbc 97b1 b53b
000003d0: 0f94 3a3b 42ba 5dbc a1d0 613c 7ba5 ddbb
000003e0: 323c 6fbb 8e1f ccbb 6ba4 883b 0414 40bc
000003f0: 58f6 543b 707b 1a3b 8104 0c3b eaa0 59bc

action_model._discrete_distribution.branches.1.bias f4 [3]
0.00330561 0.0035020397 -0.008567509
00000000: efa2 583b 7a82 653b bd5e 0cbc

exp_avg f4 [128, 30]
-4.996089e-06 6.3082274e-07 0.0 8.852183e-06 2.7186354e-07 -0.00015452443 1.3347895e-06 3.37336e-06
-5.281372e-06 -5.014529e-06 7.6354195e-07 0.0 4.0505756e-06 9.081835e-08 -3.5441243e-08 0.0
1.5595436e-06 5.3999933e-08 2.9923395e-08 0.0 5.474375e-07 1.18192396e-07 4.2520483e-08 0.0
1.0569204e-06 -2.8460775e-08 1.773883e-09 0.0 1.4781236e-06 0.0 -2.521143e-06 5.408551e-07
0.0 -2.0548947e-05 -4.291094e-06 -7.6388154e-05 -2.30193e-06 -2.346389e-05 -1.5403093e-05 -2.3363511e-06
3.770651e-07 0.0 -1.9739537e-05 -4.3645107e-07 1.534471e-07 0.0 -2.3101513e-06 1.0401778e-06
7.822385e-09 0.0 -3.0015414e-07 9.182086e-08 2.2698223e-09 0.0 -1.2221687e-06 1.6277741e-07
5.1400367e-08 0.0 -1.8957157e-06 0.0 -1.3047096e-05 8.1419614e-07 0.0 -5.2349365e-05
-3.947634e-06 -0.0002760118 -1.2918836e-05 -8.15859e-05 -4.5768385e-05 -1.2049723e-05 6.1944957e-07 0.0
-7.060558e-05 -5.757565e-06 -1.4512412e-07 0.0 -9.917079e-06 -8.191767e-07 6.905015e-08 0.0
-5.8835217e-06 -7.499651e-07 4.9501903e-08 0.0 -2.4445687e-06 2.983728e-07 4.1335745e-08 0.0
5.6233466e-06 0.0 -1.12261005e-05 -4.766338e-06 0.0 -8.566425e-05 -5.9932026e-06 -0.0003838445
-1.121921e-05 -0.00010549691 -6.9832095e-05 -1.1037702e-05 -5.298667e-06 0.0 -8.8397996e-05 -6.1380724e-06
-1.6485933e-07 0.0 -9.37592e-06 -9.22673e-07 4.3124935e-08 0.0 -6.3816774e-06 -7.3634607e-07
2.589276e-08 0.0 -1.7821238e-06 2.977676e-07 3.8392063e-08 0.0 5.732016e-06 0.0
6.7835085e-06 7.745316e-07 0.0 8.86842e-06 3.4700438e-06 0.00041848482 5.098334e-06 2.1367634e-05
1.330598e-05 6.3099665e-06 2.6090353e-07 0.0 1.7887125e-05 2.3393006e-06 1.6480538e-08 0.0
4.820704e-06 3.627938e-07 -1.1185561e-08 0.0 2.6907373e-06 4.146855e-07 3.9358728e-08 0.0
1.6747576e-06 -3.085861e-08 -9.110351e-09 0.0 -2.450351e-07 0.0 3.4894522e-06 6.668025e-08
0.0 1.3037093e-05 1.6155307e-06 4.011248e-05 4.5603074e-06 1.8878962e-05 1.1348935e-05 3.3683737e-06
2.0945178e-07 0.0 1.5248247e-05 1.3293749e-06 3.2235146e-08 0.0 3.1813622e-06 5.030559e-07
9.90275e-10 0.0 3.4424272e-06 3.6477005e-07 1.0743259e-09 0.0 1.9240654e-06 -1.5046655e-07
-1.0486223e-08 0.0 -2.018428e-06 0.0 -1.0104055e-06 -1.1265114e-07 0.0 6.0730247e-07
4.9222103e-07 -1.300862e-05 8.5485436e-07 1.4314974e-06 7.91632e-07 -9.78061e-07 -6.916856e-08 0.0
7.371205e-07 -6.7556573e-07 -1.7779712e-09 0.0 6.8429256e-07 6.324978e-08 -9.4990344e-09 0.0
1.5540643e-06 -2.29849e-08 2.236371e-08 0.0 4.9576437e-07 2.5783597e-08 8.981908e-10 0.0
-2.6815616e-07 0.0 5.2164387e-06 -8.829975e-07 0.0 3.5506593e-05 3.0338354e-06 8.650924e-05
8.725267e-06 5.419503e-05 2.2186694e-05 4.2318684e-06 -7.1149555e-07 0.0 4.7724523e-05 2.5342279e-06
2.1101807e-08 0.0 7.5623648e-06 3.3807032e-07 -3.849866e-08 0.0 3.6048164e-06 4.928007e-07
2.323643e-08 0.0 2.6215107e-06 1.9497278e-08 -1.1868205e-08 0.0 -2.9560194e-08 0.0
-2.3404662e-06 -2.7797702e-07 0.0 -1.6914662e-06 -2.604482e-06 -6.6814473e-06 -2.6899777e-06 -4.6825016e-06
-4.117976e-06 -2.2721088e-06 -2.75318e-07 0.0 -2.3323505e-06 -2.6633925e-06 -5.592166e-08 0.0
00000000: 14a4 a7b6 cf55 2935 0000 0000 d683 1437
00000010: a4f4 9134 d607 22b9 0527 b335 e261 6236
00000020: a436 b1b6 7a42 a8b6 34f6 4c35 0000 0000
00000030: 2eea 8736 ea07 c333 0f38 18b3 0000 0000
00000040: 8351 d135 8eed 6733 1f85 0033 0000 0000
00000050: 9ef3 1235 f5d0 fd33 c49f 3633 0000 0000
00000060: 82db 8d35 e879 f4b2 f6cc f330 0000 0000
00000070: f163 c635 0000 0000 e830 29b6 482f 1135
00000080: 0000 0000 8760 acb7 37fc 8fb6 9432 a0b8
00000090: db7a 1ab6 52d4 c4b7 e435 81b7 35ca 1cb6
000000a0: 6f6f ca34 0000 0000 5596 a5b7 6151 eab4
000000b0: 38c3 2434 0000 0000 1908 1bb6 3d9c 8b35
000000c0: 3763 0632 0000 0000 df24 a1b4 0d2f c533
000000d0: 23fb 1b31 0000 0000 6609 a4b5 eac7 2e34
000000e0: 4dc3 5c33 0000 0000 4c70 feb5 0000 0000
000000f0: dae4 5ab7 228f 5a35 0000 0000 b491 5bb8
00000100: eb75 84b6 adb5 90b9 fabd 58b7 1919 abb8
00000110: 6ef7 3fb8 2b29 4ab7 4048 2635 0000 0000
00000120: 1512 94b8 1b31 c1b6 6ad3 1bb4 0000 0000
00000130: 8861 26b7 65e5 5bb5 b948 9433 0000 0000
00000140: 116b c5b6 3651 49b5 eb9b 5433 0000 0000
00000150: 5f0d 24b6 0c30 a034 2289 3133 0000 0000
00000160: 2eb0 bc36 0000 0000 bc57 3cb7 88ee 9fb6
00000170: 0000 0000 a5a6 b3b8 3819 c9b6 bd3e c9b9
00000180: 243a 3cb7 393e ddb8 d272 92b8 922e 39b7
00000190: 34cb b1b6 0000 0000 5062 b9b8 a4f5 cdb6
000001a0: 3004 31b4 0000 0000 454d 1db7 9bad 77b5
000001b0: 5e38 3933 0000 0000 3122 d6b6 51a9 45b5
000001c0: c86a de32 0000 0000 4f31 efb5 dedc 9f34
000001d0: 85e4 2433 0000 0000 a455 c036 0000 0000
000001e0: e59d e336 68e9 4f35 0000 0000 93c9 1437
000001f0: e6de 6836 1568 db39 5b12 ab36 a53e b337
00000200: c03c 5f37 33ba d336 4f12 8c34 0000 0000
00000210: 4f0c 9637 e1fc 1c36 1691 8d32 0000 0000
00000220: 88c1 a136 00c6 c234 9e2a 40b2 0000 0000
00000230: 8492 3436 f1a1 de34 610b 2933 0000 0000
00000240: 3cc8 e035 6789 04b3 bf83 1cb2 0000 0000
00000250: 5e8d 83b4 0000 0000 552c 6a36 db31 8f33
00000260: 0000 0000 e3b9 5a37 36d5 d835 733e 2838
00000270: be04 9936 435e 9e37 4e67 3e37 380c 6236
00000280: abe5 6034 0000 0000 b9d2 7f37 f96c b235
00000290: eb72 0a33 0000 0000 637f 5536 bd09 0735
000002a0: 341a 8830 0000 0000 7304 6736 9dd5 c334
000002b0: 7ba7 9330 0000 0000 311f 0136 ee8f 21b4
000002c0: e526 34b2 0000 0000 5474 07b6 0000 0000
000002d0: 459d 87b5 9fea f1b3 0000 0000 8205 2335
000002e0: 2c21 0435 993f 5ab7 2579 6535 e021 c035
000002f0: 8980 5435 ec45 83b5 d189 94b3 0000 0000
00000300: 89de 4535 8658 35b5 cd5c f4b0 0000 0000
00000310: 3ab0 3735 efd3 8733 3231 23b2 0000 0000
00000320: 3e95 d035 5470 c5b2 521a c032 0000 0000
00000330: ab14 0535 bb7a dd32 8fe4 7630 0000 0000
00000340: 1af7 8fb4 0000 0000 de08 af36 2007 6db5
00000350: 0000 0000 eaec 1438 e598 4b36 4b6c b538
00000360: bd62 1237 784f 6338 901d ba37 79ff 8d36
00000370: 9afd 3eb5 0000 0000 d12b 4838 b411 2a36
00000380: 5d43 b532 0000 0000 38c0 fd36 0880 b534
00000390: b959 25b3 0000 0000 46ea 7136 0249 0435
000003a0: 7399 c732 0000 0000 36ed 2f36 f87a a732
000003b0: ebe4 4bb2 0000 0000 8eeb fdb2 0000 0000
000003c0: e710 1db6 df3c 95b4 0000 0000 5606 e3b5
000003d0: a9c8 2eb6 3231 e0b6 7785 34b6 621e 9db6
000003e0: 252d 8ab6 887a 18b6 6bcf 93b4 0000 0000
000003f0: 7a85 1cb6 bcbc 32b6 842e 70b3 0000 0000

exp_avg_sq f4 [128, 30]
6.53163e-11 1.3977928e-12 0.0 9.641794e-10 3.595044e-12 6.917282e-06 6.2606908e-12 1.7861925e-09
1.2683068e-09 6.262189e-11 1.0481323e-12 0.0 1.3690662e-09 1.1930914e-12 4.0679364e-14 0.0
2.7075174e-12 4.901447e-14 6.6909267e-15 0.0 4.1303727e-12 3.197566e-14 6.0583007e-15 0.0
3.587719e-12 1.5071169e-14 2.7305553e-15 0.0 1.5721291e-12 0.0 5.581845e-11 2.3801263e-12
0.0 1.3573415e-10 8.296972e-11 2.186216e-08 8.861783e-11 1.3928766e-10 1.234942e-10 5.6194896e-11
2.1822505e-12 0.0 1.1992651e-10 4.5876223e-11 1.7553646e-12 0.0 3.7355986e-11 1.1252416e-12
1.8661532e-13 0.0 2.9256403e-11 7.125026e-13 1.588058e-13 0.0 2.7468089e-11 4.3539082e-13
1.2094519e-13 0.0 1.3161034e-11 0.0 1.549535e-10 4.4660027e-12 0.0 1.3230533e-09
1.0221145e-10 4.5551064e-06 1.201903e-10 2.3789803e-09 1.7215345e-09 1.4926281e-10 4.184063e-12 0.0
1.9002042e-09 4.085216e-11 1.3363676e-12 0.0 7.078186e-11 2.9962675e-12 2.9818856e-13 0.0
6.891996e-11 1.7239035e-12 2.7984714e-13 0.0 5.5480797e-11 6.8452546e-13 1.5735873e-13 0.0
3.7264934e-11 0.0 3.616259e-10 8.597573e-12 0.0 3.6893253e-09 1.5087259e-10 1.0150402e-05
1.5499951e-10 6.8058448e-09 4.6816093e-09 3.5156064e-10 8.257948e-12 0.0 5.201441e-09 6.645078e-11
2.22374e-12 0.0 6.5106344e-11 2.360552e-12 2.6934187e-13 0.0 6.364013e-11 1.0826144e-12
2.1419554e-13 0.0 4.3263556e-11 5.296491e-13 1.1733877e-13 0.0 2.2966585e-11 0.0
7.662659e-11 1.5262882e-12 0.0 7.948104e-10 1.896844e-11 3.9213883e-06 2.2890955e-11 1.5531295e-09
1.1173187e-09 7.3773286e-11 1.3193719e-12 0.0 1.1858624e-09 1.1102703e-11 2.8710985e-13 0.0
1.3179537e-11 1.912624e-13 1.9139645e-14 0.0 3.7536562e-12 1.2640564e-13 1.479878e-14 0.0
2.0199742e-12 2.4778809e-14 5.339073e-15 0.0 3.7586506e-13 0.0 5.5353122e-12 1.6768882e-13
0.0 3.781235e-11 6.8205224e-12 8.222298e-09 1.3870487e-11 6.6591746e-11 5.3533396e-11 5.3125716e-12
1.7950563e-13 0.0 4.8108694e-11 1.8066847e-12 7.2918586e-14 0.0 1.0186355e-11 2.324228e-13
5.9198164e-14 0.0 8.1690705e-12 1.9825032e-13 5.4764573e-14 0.0 8.5042355e-12 1.3777251e-13
3.6506615e-14 0.0 4.9028134e-12 0.0 5.8888302e-12 2.6688474e-13 0.0 1.0872278e-11
1.0420344e-11 1.06936196e-10 1.2775017e-11 6.718057e-12 9.903665e-12 5.888583e-12 2.4766316e-13 0.0
7.424693e-12 5.337865e-12 2.6688097e-13 0.0 2.20118e-11 1.3702146e-13 9.845819e-15 0.0
2.8302653e-12 7.0100074e-14 6.9167482e-15 0.0 2.343222e-12 3.9171608e-14 5.1146988e-15 0.0
7.932336e-13 0.0 2.4115504e-10 5.2829624e-12 0.0 3.0080027e-09 2.088795e-11 1.3368202e-05
3.6655286e-11 5.6234377e-09 4.147586e-09 2.3133662e-10 4.4198256e-12 0.0 4.2224957e-09 1.1440695e-11
2.9644776e-13 0.0 1.8474335e-11 3.391824e-13 3.3069393e-14 0.0 1.0578695e-11 1.6513413e-13
1.998694e-14 0.0 7.131061e-12 6.936886e-14 8.158755e-15 0.0 1.0932029e-12 0.0
3.3214244e-11 1.1035568e-12 0.0 4.7577588e-11 4.3783754e-11 1.3482808e-09 4.4987913e-11 1.590138e-11
4.3193282e-11 3.2713353e-11 1.0413786e-12 0.0 3.5347898e-11 2.9220047e-11 1.0507416e-12 0.0
00000000: cfa1 8f2e cbb8 c42b 0000 0000 0c84 8430
00000010: 8efa 7c2c 001b e836 4a47 dc2c 107e f530
00000020: 9450 ae30 fdb4 892e f282 932b 0000 0000
00000030: bc29 bc30 a6e9 a72b 1d34 3729 0000 0000
00000040: 4c86 3e2c d6bd 5c29 e810 f127 0000 0000
00000050: 1753 912c 6d01 1029 f645 da27 0000 0000
00000060: 9a76 7c2c c0bf 8728 dbc1 4427 0000 0000
00000070: ec41 dd2b 0000 0000 fd7d 752e 8b7c 272c
00000080: 0000 0000 c43d 152f cd73 b62e 66cb bb32
00000090: 67df c22e fe25 192f 87c8 072f d425 772e
000000a0: ee8f 192c 0000 0000 50dc 032f 09c4 492e
000000b0: ad0b f72b 0000 0000 1a4b 242e 1a5d 9e2b
000000c0: 341c 522a 0000 0000 c8ab 002e 398d 482b
000000d0: a8cc 322a 0000 0000 a39c f12d 6e1a f52a
000000e0: 142c 082a 0000 0000 0788 672d 0000 0000
000000f0: 885f 2a2f 2d22 9d2c 0000 0000 cdd6 b530
00000100: eec3 e02e 11d8 9836 9026 042f 777b 2331
00000110: 1c9b ec30 bf1d 242f b036 932c 0000 0000
00000120: bf94 0231 71ab 332e b813 bc2b 0000 0000
00000130: a5a6 9b2e f5d7 522c 80dd a72a 0000 0000
00000140: 7d8e 972e 2b9e f22b 398a 9d2a 0000 0000
00000150: d301 742e 42ad 402b 912b 312a 0000 0000
00000160: 96e4 232e 0000 0000 52ce c62f 0740 172d
00000170: 0000 0000 4c87 7d31 dce2 252f a54b 2a37
00000180: 7c6c 2a2f d8d8 e931 dfdb a031 c345 c12f
00000190: 7e46 112d 0000 0000 5cb8 b231 7720 922e
000001a0: 577b 1c2c 0000 0000 9d2b 8f2e ed1b 262c
000001b0: 41a0 972a 0000 0000 35f2 8b2e 4b5d 982b
000001c0: a929 712a 0000 0000 6f46 3e2e 3d15 152b
000001d0: 991c 042a 0000 0000 2704 ca2d 0000 0000
000001e0: ef80 a82e 54ce d62b 0000 0000 cf79 5a30
000001f0: 21d9 a62d 7894 8336 d959 c92d e375 d530
00000200: 2890 9930 ab3a a22e 62af b92b 0000 0000
00000210: d3fb a230 2152 432d e4a0 a12a 0000 0000
00000220: 5cdb 672d a257 572a 0465 ac28 0000 0000
00000230: ee11 842c f251 0e2a aa4b 8528 0000 0000
00000240: 9f24 0e2c 0b30 df28 425c c027 0000 0000
00000250: dd97 d32a 0000 0000 a9c1 c22c 03cd 3c2a
00000260: 0000 0000 ec4c 262e cef9 ef2c 0d42 0d32
00000270: 1f03 742d d26f 922e 3f71 6b2e 64eb ba2c
00000280: fa1a 4a2a 0000 0000 9395 532e ad44 fe2b
00000290: b432 a429 0000 0000 4433 332d a8d7 822a
000002a0: 6b4d 8529 0000 0000 39b6 0f2d c435 5f2a
000002b0: 41a3 7629 0000 0000 ac9b 152d 391e 1b2a
000002c0: 4369 2429 0000 0000 9e80 ac2c 0000 0000
000002d0: de31 cf2c 253e 962a 0000 0000 6344 3f2d
000002e0: 0f51 372d ba27 eb2e 90bd 602d e15e ec2c
000002f0: 243a 2e2d a42f cf2c 066c 8b2a 0000 0000
00000300: d89d 022d 37cf bb2c 9a3d 962a 0000 0000
00000310: 2b9e c12d bf45 1a2a d35d 3128 0000 0000
00000320: 8729 472c f1d9 9d29 be33 f927 0000 0000
00000330: bce3 242c ca69 3029 c546 b827 0000 0000
00000340: 8146 5f2b 0000 0000 8e93 842f b2e0 b92c
00000350: 0000 0000 58b5 4e31 7bbb b72d fe47 6037
00000360: 2f36 212e 4838 c131 8d82 8e31 785b 7e2f
00000370: 4082 9b2c 0000 0000 7715 9131 4f44 492d
00000380: a0e2 a62a 0000 0000 8180 a22d 56f1 be2a
00000390: 6aee 1429 0000 0000 351a 3a2d acec 392a
000003a0: bf06 b428 0000 0000 e3e6 fa2c 6d34 9c29
000003b0: 9ef9 1228 0000 0000 c9da 992b 0000 0000
000003c0: ea13 122e d34f 9b2b 0000 0000 9a3f 512e
000003d0: 2090 402e 6a4e b930 e3db 452e b9de 8b2d
000003e0: 50f7 3d2e f6df 0f2e 9e8f 922b 0000 0000
000003f0: 3276 1b2e d982 002e f5e0 932b 0000 0000

exp_avg f4 [128]
3.3733509e-06 -2.3463972e-05 -8.1585975e-05 -0.00010549705 2.1367665e-05 1.8878964e-05 1.4315038e-06 5.419505e-05
-4.6825285e-06 1.0174968e-05 -1.8110688e-06 1.8454242e-05 1.5937145e-05 -2.995683e-05 1.4070607e-05 -4.0756413e-06
-1.3033593e-05 -1.0339074e-05 2.2920494e-05 -4.6565016e-05 -2.1381384e-05 5.4159696e-06 6.721525e-06 -1.3830482e-05
7.295344e-06 3.8728713e-06 -3.5128833e-06 -5.279638e-05 2.217605e-06 -1.6410046e-05 -3.3537322e-05 -1.863488e-05
-4.7524158e-05 -7.978371e-05 8.73102e-06 -1.7178471e-06 -5.951433e-07 -1.4474149e-05 5.8051014e-06 -4.508764e-06
1.5729976e-05 3.2174746e-06 -1.2462036e-07 -9.8072655e-05 8.2242275e-07 5.630077e-05 1.0022143e-05 4.760534e-06
4.2416534e-05 2.165387e-05 2.3292352e-05 1.7589595e-05 -3.2963093e-05 3.2392465e-05 -5.073271e-06 3.059109e-05
-6.5897816e-06 -5.384614e-05 2.5287263e-06 -6.1353926e-06 1.5036214e-05 -3.276162e-05 -2.5407575e-05 1.786662e-05
-2.626549e-05 1.2746869e-05 -3.323046e-05 3.442965e-05 1.7085562e-05 2.2265795e-05 -3.9377505e-06 -1.2946534e-05
-3.5148594e-05 5.528452e-06 -4.0470655e-05 3.2944006e-06 2.3012199e-05 -5.638472e-06 -2.2045939e-05 -6.2060186e-05
-3.2596738e-05 1.6372029e-05 1.3322237e-06 3.7360394e-05 -1.0415451e-05 2.3090954e-06 2.433941e-05 -3.886189e-06
2.2078428e-05 -8.6771695e-05 -3.746392e-05 9.212255e-06 2.6838108e-05 -1.1881097e-05 -7.9090705e-06 -5.609734e-05
-8.387827e-07 -2.917194e-05 -3.1551122e-06 7.0958754e-06 1.6201835e-05 -5.5436235e-06 2.1810509e-05 2.855748e-05
4.6564496e-06 -7.9131474e-05 1.248809e-05 -3.3009208e-05 -9.153833e-06 -1.6111604e-05 -3.012939e-05 3.2910077e-05
-5.5887383e-05 -1.0013671e-05 -3.390466e-05 1.072987e-06 2.7431866e-05 8.989073e-05 -6.4193206e-05 1.3824859e-05
2.7929698e-05 -4.21304e-05 -5.138211e-06 -5.6345085e-05 3.0843466e-06 -4.8593283e-06 -4.456568e-05 3.0000888e-06
00000000: ba61 6236 7fd4 c4b7 2319 abb8 4c3e ddb8
00000010: b63e b337 445e 9e37 1922 c035 7e4f 6338
00000020: 9d1e 9db6 28b5 2a37 da13 f3b5 2fce 9a37
00000030: c2b0 8537 cd4b fbb7 cc10 6c37 7ec1 88b6
00000040: dbaa 5ab7 fc75 2db7 6345 c037 ce4e 43b8
00000050: 2c5c b3b7 d3ba b536 7689 e136 7809 68b7
00000060: 87ca f436 b6f3 8136 e0be 6bb6 ae71 5db8
00000070: 2ad2 1436 4ea8 89b7 6daa 0cb8 1a52 9cb7
00000080: ad54 47b8 8e51 a7b8 727b 1237 c790 e6b5
00000090: f0c1 1fb5 ffd5 72b7 71c9 c236 fd49 97b6
000000a0: def3 8337 cbeb 5736 62cf 05b4 5bac cdb8
000000b0: 76c4 5c35 7e24 6c38 c724 2837 adbc 9f36
000000c0: 68e8 3138 55a5 b537 f263 c337 5e8d 9337
000000d0: da41 0ab8 25dd 0738 113b aab6 ef4e 0038
000000e0: cb1d ddb6 dad8 61b8 30b3 2936 9fde cdb6
000000f0: 0c44 7c37 8669 09b8 5a22 d5b7 46e0 9537
00000100: b654 dcb7 63db 5537 ef60 0bb8 8e68 1038
00000110: f752 8f37 6ec7 ba37 0521 84b6 f134 59b7
00000120: 846c 13b8 0b81 b936 09bf 29b8 5f15 5d36
00000130: 520a c137 1b32 bdb6 4bef b8b7 4f26 82b8
00000140: 7bb8 08b8 aa56 8937 dcce b235 6bb3 1c38
00000150: 05be 2eb7 f5f5 1a36 7c2c cc37 1c66 82b6
00000160: 1035 b937 33f9 b5b8 9422 1db8 558e 1a37
00000170: 6622 e137 ec54 47b7 33b1 04b7 0f4a 6bb8
00000180: b528 61b5 44b6 f4b7 6abc 53b6 1b19 ee36
00000190: 2de9 8737 5d03 bab6 b6f5 b637 b98e ef37
000001a0: 993e 9c36 63f3 a5b8 f083 5137 5e73 0ab8
000001b0: 6a93 19b7 6827 87b7 5fbe fcb7 ed08 0a38
000001c0: 9f68 6ab8 6400 28b7 da34 0eb8 8d03 9035
000001d0: 7c1d e637 b883 bc38 779f 86b8 51f1 6737
000001e0: 924a ea37 2cb5 30b8 e568 acb6 1354 6cb8
000001f0: acfc 4e36 500d a3b6 09ec 3ab8 2255 4936
