results/test/My Behavior/My Behavior-12313.pt (torch, 524599 bytes, 40 tensors)

discrete_act_size_vector f4 [1, 2]
000000 00 00 80 40 00 00 40 40
       4.0 3.0

network_body._body_endoder.seq_layers.0.weight f4 [128, 30]
000000 ec 49 37 3c b0 9f 2c be b4 88 42 be c5 92 1e be
       0.011187058 -0.16857791 -0.1899746 -0.15485676
000010 f1 48 84 be fc ad 93 be 0c fa 8d bd 09 87 3a be
       -0.258369 -0.28843677 -0.06932458 -0.18215574
000020 c2 97 ba bd 4b 68 01 3e 7c d9 bc 3d da f6 60 3e
       -0.09110977 0.12637441 0.09221169 0.21969166
000030 a1 f6 80 be a5 63 cb 3d 76 12 bc bd b6 8d 94 3e
       -0.25188163 0.09931115 -0.09183209 0.29014367
000040 60 4f 13 be 3d ab 35 bd c9 d1 97 bd b5 57 38 be
       -0.14385748 -0.04435276 -0.0741306 -0.18002208
000050 71 df a6 be c9 df e6 3d 21 d6 e5 3d 62 fb 54 3e
       -0.32592347 0.112731524 0.112224825 0.2079902
000060 1f 39 14 be 68 82 0d 3e b5 a5 25 3d 3b 6b bc bd
       -0.14474915 0.13819277 0.040441234 -0.0920014
000070 84 4d 82 be f5 6a 43 3d 5d 4b 1d 3e fd 7d 4e be
       -0.25449765 0.047709424 0.1536078 -0.20165248
000080 bd 59 2b 3e b8 6c 9f 3d ad 00 d6 3d 3b 9c 87 bd
       0.16733451 0.07784408 0.10449348 -0.066215955
000090 fc 3e b8 3e 08 13 3c 3e c2 1d f7 bc a8 74 dd 3c
       0.35985553 0.18366635 -0.030165557 0.027033165
0000a0 57 fe f5 3e b0 75 a6 be 12 9a c9 3d 55 1b 81 bd
       0.48045608 -0.32511663 0.0984384 -0.06304041
0000b0 f9 9c 8e 3e 8f 58 5a be ed 08 94 3b 62 0d 8c bd
       0.27854136 -0.21322845 0.0045176656 -0.0683849
0000c0 a0 3c 22 bd 7e c8 71 3e 1d 54 ee bb f6 e8 cc be
       -0.039608598 0.23611638 -0.0072732107 -0.40021485
0000d0 25 d8 54 bc ba ad ac 3e c3 8c e6 3d 9b fc 40 bd
       -0.012990986 0.33726293 0.11257317 -0.047115903
0000e0 58 f3 e2 bd b6 28 b5 3a a5 e1 00 3f 13 6d c7 be
       -0.110815704 0.0013821337 0.50344306 -0.38950405
0000f0 87 5d 02 3e 79 cb de bd f9 9f 80 3e 29 61 a8 3e
       0.1273099 -0.10878653 0.2512205 0.32886627
000100 bb 90 7d bd 63 a8 2f be a7 0b fc 3e 2d 7e c5 3d
       -0.061905604 -0.17154078 0.4922764 0.09643207
000110 d8 d1 0f be 9b ab 86 be 38 14 6a be 56 42 e0 bd
       -0.14044893 -0.263028 -0.22859275 -0.109501526
000120 c2 52 22 3d ce 01 67 3e 29 9d 86 3e ee 4b ba 3c
       0.039629705 0.22559282 0.2629178 0.022741284
000130 e8 e7 7b be 2b c8 40 be 85 c1 f6 bb cd ed 68 bd
       -0.24600184 -0.18826358 -0.0075303935 -0.05686741
000140 f0 c5 73 3c fb a4 27 3d 18 7c 56 be 31 75 8d bd
       0.014878735 0.040928822 -0.20945776 -0.06907118
000150 35 ac bb bc 2c e7 74 3d 62 bb 36 be 41 ab fe 3c
       -0.022909263 0.059790775 -0.17844918 0.03108752
000160 da c7 68 3e 61 e6 53 be c6 fc 24 3e b5 59 fd 3d
       0.22732487 -0.20693351 0.1611205 0.12370626
000170 0b b7 ae 3c 08 4b 1b be 13 95 d7 bc 62 46 45 be
       0.021327516 -0.15165341 -0.026316201 -0.1926513
000180 09 22 60 bd 9c 7f d2 bd 6d 45 94 bd 22 a9 6b be
       -0.05471996 -0.10278246 -0.072398044 -0.23013738
000190 4f e7 ed 3d 8d af 2f 3e aa 37 26 be 23 13 fe bd
       0.11616384 0.17156811 -0.16232172 -0.12405994
0001a0 5c 8f c0 3c 10 04 18 be 62 a2 6b bc 7a a0 8f be
       0.02350586 -0.148453 -0.014381977 -0.2805212
0001b0 5b b4 ae be 66 1d b1 3d da eb d7 ba 62 0f 1e 3f
       -0.34121975 0.086481854 -0.0016473487 0.6174222
0001c0 78 49 ca bd ec d0 b9 3d 24 9d 91 3e da 50 99 bd
       -0.09877294 0.09073052 0.284402 -0.07486124
0001d0 16 97 4a be da 9c 78 be 90 d0 93 bd 18 1c c2 3d
       -0.19784197 -0.24278584 -0.072175145 0.09478015
0001e0 9e b4 33 3d 6a 28 e1 3e 64 3e 7e 3e a7 f8 ce bb
       0.04387342 0.43976146 0.24828488 -0.0063162628
0001f0 7b 4e c0 bd 06 09 ce bc 0b 4d b8 be f4 d4 31 3d
       -0.09389969 -0.025150787 -0.3599628 0.04341598
000200 64 3f 63 3d 1c 20 25 3e 3c 66 5c 3e e5 46 48 3c
       0.055480376 0.1612553 0.21523374 0.012223934
000210 55 a2 af be 41 1f 15 be 92 bd cf bd 46 91 a4 be
       -0.34303537 -0.14562704 -0.101435795 -0.32142085
000220 1a fd 5a 3e 83 fe a6 be 3f b3 f7 3d b3 a1 86 3d
       0.21385613 -0.32616052 0.12094735 0.065738104
000230 eb 56 5e 3d 19 c9 ab bd 43 e1 66 3e 1a 16 3c be
       0.05428211 -0.08387966 0.22546868 -0.18367806
000240 70 a9 e3 bd 6b da 2b be 18 26 f7 3d c0 97 3c be
       -0.11116302 -0.16782539 0.12067813 -0.18417263
000250 1d e1 9e 3c ca a3 79 3d bd 6b a4 3d e4 ea 39 3d
       0.019394452 0.060947217 0.08028362 0.045390025
000260 86 52 52 3e 3a 63 d4 bc 9c 8e 7b 3c fa cc 6e bd
       0.20539293 -0.025926221 0.015353825 -0.05830095
000270 0c 59 6d be de b3 fb bc 29 08 37 be 94 64 a5 3d
       -0.231785 -0.030725416 -0.17874207 0.080758244
000280 f3 44 d1 bd 7b c5 be bd b8 45 98 bc 69 90 da 3c
       -0.10218229 -0.0931501 -0.018587932 0.026680188
000290 ec ec 1c be 46 da c2 bd b9 82 19 3d 91 b5 4c 3e
       -0.15324754 -0.095142886 0.037478182 0.19991137
0002a0 00 c3 39 bd eb f3 26 bd f4 c9 9f 3d 7a 2b 2d 3e
       -0.045351982 -0.040759962 0.078021914 0.16911116
0002b0 1d 00 1d be 92 c8 cd 3c f0 96 66 3e 76 69 0a bd
       -0.15332074 0.025120053 0.22518516 -0.03379198
0002c0 96 65 2e bd dd d7 1c bd 00 db 8d 3d 0a 19 9a bd
       -0.04257735 -0.0382918 0.069265366 -0.07524307
0002d0 77 6b 0e 3d 46 45 94 bc 28 85 af 3d ca 07 0c be
       0.034770455 -0.018099438 0.085703194 -0.13674846
0002e0 bd 41 3e bd 1b 5c e4 3d 36 26 3e be 21 ac 9f be
       -0.04644941 0.1115038 -0.18569264 -0.3118601
0002f0 8f ad 4c 3e 08 70 61 be 00 23 23 bc 9b e7 59 bd
       0.19988082 -0.22015393 -0.009957075 -0.05319939
000300 8b ad 38 be 85 e8 a0 be 7a 14 b1 3d b6 45 67 bb
       -0.18034951 -0.31427398 0.08646484 -0.0035289354
000310 ab e8 bc bd 7a aa f8 bd c3 76 80 bd a7 d8 31 be
       -0.092240654 -0.12141891 -0.06272652 -0.17367803
000320 40 eb 92 3d d1 00 46 bd 6b 97 d5 bd c7 24 6b be
       0.071737766 -0.048340622 -0.10429271 -0.22963248
000330 de a1 22 3e 09 c3 4f 3e 96 25 be be 29 9d ae bd
       0.1588206 0.20289244 -0.3713805 -0.0852607
000340 63 ae b0 3e 22 e0 6b bd a8 6d 89 bd c4 dd bb bd
       0.34508047 -0.057586797 -0.067103684 -0.09173158
000350 c1 72 a6 bd 55 2b 8c be 4a ce a3 bc fc 3b ac bd
       -0.08127356 -0.2737681 -0.019995827 -0.084098786
000360 ad 44 d2 3d 1b 37 0f be 49 1e 9f 3e 55 3c 1e 3e
       0.10267005 -0.13985865 0.31077793 0.15452702
000370 8e 40 8f bd 66 24 e1 bc 11 b4 83 3d c7 1e 5b 3e
       -0.06994735 -0.027483176 0.06430829 0.2139846
000380 c2 82 bd 3d e5 5c 22 be d2 4e 13 be 33 8f c9 bc
       0.09253456 -0.15855749 -0.14385536 -0.024604416
000390 92 ad 64 3e a0 20 ae 3d 95 d7 74 bd 8d 33 e3 3d
       0.22331837 0.085023165 -0.059775908 0.11093817
0003a0 14 68 e0 bd 3b a9 b1 3c c7 72 63 3e 46 ea 61 3e
       -0.10957351 0.02168714 0.22211753 0.22062024
0003b0 23 b3 98 be ef e5 5e bd 90 56 f2 bd 5b 98 ea 3d
       -0.2982417 -0.0544185 -0.11832917 0.11454841
0003c0 5a d0 8d be 96 5b b9 bd ef f8 f8 bb 86 df 5e 3e
       -0.27698022 -0.09050672 -0.0075980346 0.21764955
0003d0 04 ec 65 bd ed 9b a3 3d 87 18 1d 3e ea 30 a9 3d
       -0.056133285 0.07988725 0.15341388 0.08261283
0003e0 04 30 7b 3e 7a aa b3 bc fd ae 72 3e 02 e9 08 3e
       0.24530035 -0.021931875 0.23699565 0.13370135
0003f0 1f d3 a6 3d 86 5d 95 be d6 18 c2 3d 2c cb e7 bc
       0.08145737 -0.29172915 0.09477393 -0.028295122

network_body._body_endoder.seq_layers.0.bias f4 [128]
000000 f5 9a d5 3a 2f 62 35 3a 55 81 3d bb 8d db 95 3a
       0.0016296791 0.00069192325 -0.00289162 0.0011433229
000010 ec d4 93 3a ab c3 f1 3a 91 87 ae 3b 8d 50 e7 3a
       0.0011278666 0.0018445154 0.0053262194 0.0017647907
000020 a2 79 48 bb ba ce 8e ba ce bf 13 bb 56 be 18 3a
       -0.0030590077 -0.001089535 -0.0022544744 0.0005826702
000030 63 8b 59 3b ec 26 aa 3a 6b 18 0b ba d3 61 7b 38
       0.0033194653 0.001298157 -0.0005306068 5.993417e-05
000040 19 42 69 3b 5d 36 e1 b9 d3 55 ef 3a 56 6f a4 3a
       0.0035592376 -0.00042955848 0.001825983 0.0012545388
000050 03 d5 9d 3a ec 0b ce b9 56 3f c3 ba 4e 4c 4d ba
       0.0012041632 -0.00039300264 -0.0014896195 -0.00078314997
000060 49 c6 14 3a 80 bb 0b b9 d0 38 fe 3a 26 ac 00 ba
       0.0005675299 -0.00013325922 0.0019395594 -0.00049084646
000070 bd 10 a3 ba ff 21 46 3a da 47 b4 ba 6c a9 21 bb
       -0.0012440901 0.00075581664 -0.0013754324 -0.0024667634
000080 f2 26 8f ba c9 d2 93 3a 3b 39 f8 39 e5 b1 a8 ba
       -0.0010921641 0.0011278029 0.00047344886 -0.00128704
000090 22 8c 09 3b 53 e0 e6 39 20 da 28 bb 71 3b e1 b9
       0.0020988067 0.00044036153 -0.0025764778 -0.00042959632
0000a0 d2 00 86 3b c0 1e 34 3b 78 8a ef 39 81 86 65 3a
       0.0040894533 0.0027484149 0.000456888 0.00087556994
0000b0 ae de 4b 3b 6f 08 b6 ba ac ba fe b9 43 6b 59 ba
       0.003110807 -0.0013888011 -0.00048585737 -0.00082938763
0000c0 4a c7 c6 b9 05 eb 10 ba 8a 85 33 3b 85 bd 16 3a
       -0.00037913985 -0.00055281847 0.0027392828 0.00057502865
0000d0 7d 1e 53 3a f8 61 50 ba ad 93 08 39 c6 8a 70 b9
       0.00080535543 -0.0007949169 0.00013024984 -0.00022939881
0000e0 54 8d 0e 3b a4 fa 2c 3b a3 d6 46 b8 00 0c 29 bb
       0.0021751719 0.002639451 -4.7406775e-05 -0.0025794506
0000f0 8b b6 14 bb 19 38 5a ba 64 53 ab 3a 83 37 52 bb
       -0.0022691812 -0.0008324399 0.0013071117 -0.0032076545
000100 2c 3d cd ba 88 7d f1 3a 88 0f 0c 3b a9 5e 12 bb
       -0.001565849 0.0018424252 0.0021371562 -0.0022334254
000110 f9 b6 ce ba 94 95 af ba 21 c9 d4 3a 70 aa 0f 3b
       -0.0015771083 -0.0013396018 0.0016234257 0.0021921657
000120 d7 23 96 39 88 9c 53 ba 37 88 9c ba cd 38 fd b9
       0.00028636932 -0.0008072336 -0.0011942451 -0.0004829824
000130 c1 39 9d ba 6c 51 e7 ba 41 c2 e2 39 3d ff 6b ba
       -0.0011995361 -0.0017648167 0.0004325081 -0.0009002572
000140 9c ec 2c 3a 52 b4 e9 ba 81 68 f2 ba cd fa e4 3a
       0.0006596537 -0.0017830229 -0.0018494279 0.0017469764
000150 5b 21 00 3b 04 3b c0 39 24 7c 1d 3b e8 90 2a bb
       0.0019551131 0.00036665064 0.0024030292 -0.0026026312
000160 b6 1a 9b b9 61 85 2a 3b 10 c4 13 3b 6b 0c 2e 3b
       -0.00029583805 0.0026019441 0.0022547282 0.0026557695
000170 36 7e 3b ba cc c0 1b 3b 5d 99 c1 39 7c b2 a9 ba
       -0.0007152291 0.002376604 0.00036926093 -0.0012946869
000180 be 0f 0c 3a dc 7a 68 b9 ef 4c 9f b8 76 80 ab 3a
       0.0005342922 -0.00022171013 -7.596041e-05 0.0013084549
000190 4a b7 1b ba 08 e5 49 3a f5 d0 03 3b be 09 aa bb
       -0.0005940093 0.000770167 0.0020113562 -0.0051891496
0001a0 fc 72 2a ba 48 d7 df 3a 84 ee 3c ba 5f b2 39 bb
       -0.00065021194 0.0017077709 -0.00072071725 -0.0028335077
0001b0 a6 d6 cb ba 9f e0 b9 39 73 3e e7 b9 84 0d 47 bb
       -0.0015551641 0.00035453305 -0.00044106282 -0.0030373046
0001c0 6b bc 91 3a 5e ca 10 ba 26 8d 11 3b f4 0c d3 39
       0.0011118775 -0.0005523319 0.0022209375 0.00040254707
0001d0 b0 65 48 bb af 54 86 bb c2 99 2f ba 7f 60 6d 3b
       -0.0030578189 -0.0040994505 -0.0006698632 0.0036220846
0001e0 59 2e 54 b9 c2 04 11 bb 68 da df b9 e7 1a 0f 39
       -0.00020235161 -0.002212808 -0.000426966 0.00013647565
0001f0 ac 30 b6 ba c7 54 57 ba 67 a0 01 3b bd 72 4b 3a
       -0.0013900003 -0.0008214232 0.0019779445 0.0007760933

network_body._body_endoder.seq_layers.2.weight f4 [128, 128]
000000 29 2b b1 3b 6f d1 8d 3d dd e1 58 bd 14 a4 b7 bd
       0.0054067564 0.06924712 -0.052949775 -0.08966842
000010 f1 76 3f bd 3f d5 42 3e 68 06 f7 3d df a5 2b be
       -0.04674429 0.1902666 0.12061769 -0.16762494
000020 4b 3a 5f 3d e5 50 85 bb 8d 0f 4a bd ff 96 84 3b
       0.054498952 -0.0040684813 -0.049331237 0.0040463204
000030 3f a8 13 3e e2 f9 81 3d 05 f5 b0 bd e4 92 10 be
       0.1441965 0.063464895 -0.08640484 -0.14118534
000040 5d e3 af 3d ab e2 43 3c 57 8e fa bd ea d0 ad 3c
       0.08588288 0.011955897 -0.122341804 0.021217782
000050 2c 51 64 bc 64 3c cd bc 73 f4 ad 3d 61 15 0a bc
       -0.0139353685 -0.02505321 0.084938906 -0.008427949
000060 f4 44 37 3e 8c 86 07 be 9d fd e7 bd c8 fc 99 bd
       0.17897397 -0.1323492 -0.1132767 -0.07518917
000070 29 f3 3b 3d d9 7e 59 3e e0 ee 34 bc 8f a1 0c bd
       0.045886192 0.21239795 -0.01104328 -0.03433376
000080 8f 3c 12 bd b8 6c e6 bc 12 54 46 bd 75 3e ab 3d
       -0.035702284 -0.028128013 -0.04842002 0.08361522
000090 7c 98 a7 bd 30 77 cb 3c 13 bb 85 3d d6 10 af bd
       -0.08183381 0.024837106 0.06529822 -0.08548133
0000a0 29 48 01 3e e0 b1 1c be ae b4 29 bd a2 7b de 3c
       0.12625183 -0.15302229 -0.041432075 0.027158562
0000b0 7f 5f b4 3d 8f 9f 4f bc 93 f1 f9 bd 33 c1 cb 3c
       0.08807277 -0.012672319 -0.1220428 0.024872398
0000c0 46 9a eb 3c de 18 82 bc a6 1b 3e be fd b8 f9 3b
       0.028760087 -0.015880998 -0.18565235 0.0076209293
0000d0 ca b0 99 3d ec 1c 79 bd d1 ec 6b bb 7a 08 19 3d
       0.07504423 -0.060818598 -0.0035999308 0.0373616
0000e0 db 5c 97 bd 68 e9 a3 bd 38 54 4c bd 46 6d c5 3d
       -0.07390758 -0.08003503 -0.049885005 0.09639983
0000f0 e8 29 24 be 3a bd c6 3b be f7 af bd 1c a9 b9 3d
       -0.16031611 0.006065038 -0.08592175 0.09065458
000100 8a ac 79 be 40 62 62 bd 44 0e af 3d 71 3e 97 bd
       -0.24382225 -0.05526948 0.08547643 -0.07384957
000110 43 11 67 bd 2a 6f dd 3c f2 d2 b7 3d c6 d9 1a 3d
       -0.056412946 0.027030546 0.089757815 0.03780534
000120 eb 0b 6f 3c e3 58 c9 3c 94 0f 76 bc ed f3 90 3b
       0.014590244 0.024578517 -0.015018363 0.0044236095
000130 bb d2 47 bd 9e 7c 1b 3d b9 65 2a 3d 59 a6 59 3d
       -0.048784953 0.03796064 0.041600917 0.053137157
000140 f3 c4 0a be f3 d8 1e be 85 9f d5 bd ed 6c 8a 3d
       -0.13551693 -0.15512447 -0.104308166 0.06759057
000150 89 ce 68 bd d9 b7 98 bb 39 44 41 3d 79 69 3a be
       -0.056837592 -0.004660588 0.047184203 -0.18204297
000160 f2 38 07 3e c4 cb dc 3d af 90 31 3e 3d 42 d8 bd
       0.13205317 0.10781053 0.17340349 -0.10559509
000170 ef ab ca bd 3b 17 1e be 06 2c de bc 47 7e 55 3c
       -0.09896075 -0.15438549 -0.027120601 0.013030595
000180 db 90 5f bd 6d 9d e2 bd 3e 94 a6 bd 4d 90 c7 3d
       -0.054581504 -0.11065183 -0.08133744 0.0974432
000190 00 ba f9 bb 43 2d 72 bd 32 1d 37 3d f2 7b cf bd
       -0.00762105 -0.059125196 0.044705577 -0.101310626
0001a0 81 91 25 bd 48 91 86 3d 9e 73 14 bd c4 4d 9e bd
       -0.040421966 0.06570679 -0.036243074 -0.07729676
0001b0 40 4a 2c bd 76 e4 be bd ca 57 99 3d 02 de a1 3d
       -0.042062998 -0.09320919 0.074874476 0.07903673
0001c0 21 4e ae 3d e5 ee eb bd 33 8c 72 3c bf 39 05 bd
       0.08510996 -0.11520175 0.014803934 -0.032525774
0001d0 c4 b6 1e 3e a0 d1 f5 bb 1b 26 a1 3d 0b 4a 7f bd
       0.15499407 -0.007501796 0.07868596 -0.062326472
0001e0 4e 11 16 be 07 85 35 be 13 f9 0f be 59 5c 45 bd
       -0.14655039 -0.17726527 -0.14059858 -0.048183773
0001f0 90 c2 d4 3d 26 9a e1 3d 7a ec 45 bc 1e 7f 79 3d
       0.10388672 0.110157296 -0.012080306 0.060912244
000200 c4 ea cf bd 95 37 41 bc 4e 7d 28 bc c3 1d 25 3c
       -0.101522 -0.011793037 -0.010283781 0.0100778965
000210 89 72 0e 3e 0d b2 34 3c 78 a7 aa 3c f1 1f 8b 3d
       0.13910879 0.011028779 0.020831808 0.06793202
000220 96 f8 ab 3d a6 06 cb 3c 66 fa 52 3d e2 4d 5a 3e
       0.083970234 0.024783444 0.05150833 0.21318772
000230 1f a9 59 3d c3 57 d3 bd 8b 3f e9 3d 7d ee 02 3d
       0.053139802 -0.103194736 0.11389073 0.03196572
000240 98 24 3a 3d f8 84 10 be f8 fe b4 bc d8 aa 09 bd
       0.045445055 -0.14113224 -0.022094235 -0.033610195
000250 b0 4a 43 3d 72 92 89 3d 3b 27 8a 3c cc b3 b2 bd
       0.04767865 0.06717385 0.01686441 -0.087257
000260 52 84 21 bc f8 22 ce 3d d3 a1 85 bb b3 01 e4 3a
       -0.009858208 0.100652635 -0.004078129 0.0017395526
000270 f5 76 6c 3d 77 d0 02 bc 4d 0b 88 bd 2f b3 35 3e
       0.057730634 -0.007984272 -0.066427805 0.17744134
000280 d3 8d f9 3d 03 6d 9a bd 32 e4 ca bc af 22 49 bb
       0.12185254 -0.075403236 -0.024767015 -0.003069084
000290 a5 9a 6b 3d 49 88 c1 3d 70 c5 a2 3b ae 70 91 bd
       0.057520527 0.094498225 0.004967384 -0.0710157
0002a0 48 96 eb 3c d0 2b 40 bd cc fe 1b 3d bb 6f 87 be
       0.028758183 -0.046916783 0.03808479 -0.2645243
0002b0 76 e4 50 bd 49 18 1c 3e 0b f9 35 bd 70 f6 05 3e
       -0.050999127 0.15243639 -0.04442696 0.1308229
0002c0 d9 6d 5a bd de f4 21 bd 84 05 ef 3c 56 25 fa 3b
       -0.053327415 -0.039540164 0.029177435 0.0076338453
0002d0 de 0b 66 bd 3a cd 4f 3d dd 4a 4c bd 95 d4 c6 3d
       -0.05616366 0.05073283 -0.049876083 0.097085156
0002e0 44 16 f3 bd ca 79 25 bc 1d 9e ba 3c 86 2c a0 bd
       -0.11869481 -0.010099838 0.022780472 -0.07820992
0002f0 42 5a e7 3d ba 1a 5f 3d 89 f5 64 3d b5 66 68 bc
       0.11296512 0.054468848 0.055898223 -0.0141846435
000300 98 d0 45 3c 96 26 cb bd 8a 78 68 bd c0 27 d0 bc
       0.012073658 -0.09919469 -0.05675558 -0.02540958
000310 c9 f1 01 be 53 62 87 bc 84 09 83 3d 05 42 8b bc
       -0.1268989 -0.016526377 0.06398299 -0.016999254
000320 b1 12 24 bc e1 1d 6a bd ba a3 c4 3c a0 5a 35 3e
       -0.010014222 -0.0571574 0.024003852 0.17710352
000330 c2 97 ce bc 1d 82 af 3c 9a 32 96 3d a1 4d a4 3d
       -0.025218848 0.021424348 0.0733387 0.08022619
000340 a9 0a be 3d 4c 7b d5 3d a1 96 3c bd 68 98 01 be
       0.09279377 0.10423908 -0.04604209 -0.12655795
000350 9a 65 03 be b1 22 7b bc ec 49 8d 3e 88 3b 33 bc
       -0.12831727 -0.015328095 0.2759546 -0.010939486
000360 6e 09 99 bd a2 2d ae bb e1 ed 27 3c 17 f3 08 3c
       -0.07472502 -0.0053154984 0.010249586 0.008358738
000370 a7 5f 71 bd eb d9 d7 bd ed 6b 96 3c fb a3 48 3e
       -0.05892911 -0.105396114 0.01836201 0.19593804
000380 b0 af e6 3d b1 99 b2 3d cd 34 18 be 63 5c 34 3d
       0.112639785 0.087207206 -0.14863892 0.04403342
000390 e8 7b 97 bc 17 6f fe bc 92 b9 9a 3d 7a 41 80 3d
       -0.0184917 -0.031058831 0.07554926 0.06262489
0003a0 e6 20 02 be 6e 39 1a be 77 c4 25 bd 3e bc 82 bb
       -0.12707862 -0.1506097 -0.040470567 -0.0039897254
0003b0 53 e1 63 be 75 6f 7c 3b 96 09 98 3a 91 61 ab bd
       -0.22253923 0.0038518582 0.0011599537 -0.08368219
0003c0 d8 4c 6c bd 19 b1 d6 bd 21 cb af 3c e3 9c 77 bd
       -0.05769047 -0.104829974 0.021459164 -0.060452353
0003d0 01 57 1a be 6a eb 0f 3c df 46 e5 bd 13 db af 3b
       -0.15072252 0.008784154 -0.11195158 0.005366692
0003e0 18 43 06 be f8 e6 b1 3c f7 89 0e bd 01 da 76 bd
       -0.13111532 0.02171658 -0.034799542 -0.0602665
0003f0 a3 59 48 3e 3d d7 5c bc 22 12 1c be 36 4c b2 3d
       0.19565444 -0.013479051 -0.15241292 0.08705942

network_body._body_endoder.seq_layers.2.bias f4 [128]
000000 16 d8 00 3b 4c dd 57 ba 05 66 f1 3a 6e c8 d2 ba
       0.0019660047 -0.0008234575 0.0018417245 -0.0016081461
000010 d5 8a 87 3a c8 24 31 bb 0e 30 34 bb 2f 26 fa ba
       0.0010341058 -0.002702998 -0.0027494463 -0.0019084866
000020 d3 6b a0 3a a8 29 60 3a 7a 62 db b9 7b e7 dd b9
       0.0012239165 0.0008551129 -0.00041844306 -0.0004232487
000030 4a 50 ab 3a 92 27 0a 3a 6d 13 27 ba 9a 2f ce 3a
       0.0013070193 0.00052701787 -0.0006373439 0.0015730739
000040 b6 8a 06 3a 68 dd 19 3b e8 d9 06 bb 7f 9e d1 3a
       0.0005132364 0.0023477916 -0.002057666 0.001599267
000050 ed 09 11 bb 81 54 01 bb 78 ee ab 3a 1b e5 14 3b
       -0.002213116 -0.0019734206 0.0013117334 0.0022719565
000060 da 44 09 bb 60 32 d6 ba a6 b1 80 3b 9e 97 1e bb
       -0.002094558 -0.0016341917 0.0039274273 -0.0024199258
000070 0f 7e 9b ba 05 a4 90 ba 78 9a e0 ba 26 de c9 39
       -0.001186313 -0.001103521 -0.0017135879 0.0003850322
000080 aa 05 86 ba 21 fb 62 b9 a3 d5 35 39 98 d7 35 3b
       -0.0010225077 -0.00021646592 0.00017341091 0.0027746912
000090 02 aa ae 3a f5 0d c4 ba 62 bb f8 3a fe 42 08 bb
       0.0013325813 -0.0014957773 0.0018976743 -0.0020791884
0000a0 03 85 da 3a 1a 61 b2 3a f1 16 19 3b f5 74 22 3b
       0.0016671721 0.0013609261 0.0023359621 0.002478895
0000b0 20 8b eb b9 d6 7b 88 3b 89 3e 45 bb d6 f2 99 b9
       -0.0004492635 0.004165153 -0.0030097088 -0.0002936336
0000c0 8b d0 47 ba dc 22 8e 3a 30 0a 55 3b f3 19 64 b9
       -0.0007622323 0.0010844129 0.0032507293 -0.00021753441
0000d0 82 23 81 3a 3f 2a 14 bb 35 60 50 b9 12 29 f1 b8
       0.0009852501 -0.0022608188 -0.00019872266 -0.000114994255
0000e0 2f 8b 89 3a 10 ec 09 ba 19 97 c0 ba 54 da e0 ba
       0.001049375 -0.00052613113 -0.0014693468 -0.0017154911
0000f0 ff a9 29 3b fa 58 bc 3a e4 c6 9e ba 4d ba 3b 3b
       0.002588868 0.0014369779 -0.0012113717 0.002864498
000100 6a c3 4f ba cf c3 18 ba 45 d6 0a bb e9 87 1c bb
       -0.00079255423 -0.00058275176 -0.0021184843 -0.002388472
000110 0f fa d0 3a 34 d7 b7 39 9d 3c 14 bb 67 84 f6 b9
       0.0015943664 0.0003506482 -0.0022619136 -0.00047019424
000120 a4 28 e7 3a cd 5f 16 3a 0e 28 c3 39 f0 48 5b 37
       0.0017636013 0.00057363213 0.0003722314 1.3070399e-05
000130 13 12 9c 3a 4e a3 07 bb 77 d9 a8 ba a0 88 bf ba
       0.0011907242 -0.0020696702 -0.0012882192 -0.0014612861
000140 95 ea 94 ba a4 91 a3 3a 97 8e 8d ba 3f 0f 09 ba
       -0.0011361415 0.0012479317 -0.0010799941 -0.0005228407
000150 17 7f 2a 3b fc 26 d0 3a 8a 69 82 39 9e af 81 39
       0.0026015693 0.0015880759 0.00024874165 0.00024735642
000160 c7 b9 9c ba 62 1b 17 bb 02 45 17 bb 18 da 32 3a
       -0.0011957221 -0.0023057093 -0.0023081903 0.00068226596
000170 ac b1 91 3a da f2 2a ba ea 52 a0 ba f8 5e 0e 3b
       0.0011115572 -0.0006521173 -0.0012231742 0.0021724086
000180 07 9f bb 3a 6f c9 9c ba 6f 8f 13 39 e7 46 d8 ba
       0.0014314362 -0.0011961887 0.00014072446 -0.0016500623
000190 b6 61 86 b9 af 7d a6 b9 83 4c c7 3a 17 18 c3 39
       -0.00025631272 -0.0003175563 0.0015205297 0.00037211247
0001a0 90 f2 a3 3a fa d3 b4 ba 1b f6 d1 ba 71 a0 16 bb
       0.0012508202 -0.0013796084 -0.001601878 -0.0022983814
0001b0 20 3d 86 39 43 3f 2c 3b 5a 9d 12 3a 89 0a 27 bb
       0.00025604013 0.0026282824 0.0005592905 -0.0025488457
0001c0 44 d2 07 bb 0b ca d8 3a 24 14 c3 ba de ee ab 3a
       -0.0020724693 0.0016539706 -0.0014883322 0.0013117453
0001d0 a0 08 ec 39 6f 83 26 bb f5 f6 f6 ba 52 bf de 39
       0.00045019854 -0.002540793 -0.001884191 0.00042485684
0001e0 ac d0 c2 3a a3 07 e5 3a 4b f2 a3 b9 08 3f 28 3a
       0.0014863214 0.0017473589 -0.00031270305 0.0006418084
0001f0 d4 7e 26 ba 60 a3 f1 3a 46 27 ab 3a 37 b5 c8 ba
       -0.00063512963 0.001843553 0.0013057969 -0.0015312795

action_model._discrete_distribution.branches.0.weight f4 [4, 128]
000000 68 0c 14 bc d7 5f 54 3a 80 c7 7a bc d8 d9 0b 3c
       -0.009036161 0.00081014395 -0.015306354 0.008535825
000010 77 31 b6 bb e1 3f e3 3b 41 26 b8 bb 76 54 c5 ba
       -0.005560096 0.006935105 -0.0056197946 -0.0015055079
000020 64 1c 8e bc cc f8 58 bc d2 ba ff 3b aa 0b bf 3b
       -0.017347522 -0.013242912 0.007804253 0.005830248
000030 eb ec db 3b 64 3e cc 39 7a a9 d3 3a d2 dc 84 3c
       0.0067115924 0.00038956397 0.001614853 0.016218577
000040 78 5f 95 bb 2e c6 00 bc d7 19 a9 3c 51 dc ab 3b
       -0.0045585 -0.00785975 0.020642204 0.0052447696
000050 91 a1 70 3c 38 c4 1c 3c 0b 44 01 ba 5c 73 ea ba
       0.014686958 0.009568267 -0.00049310987 -0.0017887163
000060 ba 26 24 bb 65 ea 08 3b 17 6e 45 bc 57 20 e2 ba
       -0.0025047497 0.0020891663 -0.012050173 -0.001725207
000070 50 9a 28 3c 1a 94 33 3b 05 4d 60 3c 84 e5 86 3c
       0.010290697 0.0027401508 0.013690238 0.016466863
000080 b9 72 52 3a 53 2d d1 bb 4c 8f 9d ba 00 54 e7 3b
       0.0008027959 -0.006383577 -0.0012020855 0.007059574
000090 e9 d1 10 3b cb 61 38 3c 6f 62 cd ba 88 cf 09 bc
       0.0022097772 0.011253784 -0.0015669594 -0.008411296
0000a0 91 fe d6 3b 1f ff 8a bb c8 91 67 bc 41 59 ec bb
       0.0065611084 -0.0042418386 -0.014133878 -0.0072127883
0000b0 34 bf 30 bc 27 dc 78 bb 83 bc 3e 3c b5 cd 96 3c
       -0.010787774 -0.0037973018 0.011641624 0.018408636
0000c0 81 ae 6c 3c 8e 0e 02 bc d6 f0 a6 b9 ce 15 8b bb
       0.014445902 -0.00793804 -0.00031841424 -0.0042445427
0000d0 76 ff 44 3a 1b 48 13 bb 91 29 9f bc b8 9b a7 bb
       0.0007514873 -0.0022473398 -0.019429 -0.0051149987
0000e0 24 de f9 bb cf 75 2f bc dc f1 93 3b 38 02 3c bb
       -0.007625358 -0.01070924 0.004514916 -0.0028687846
0000f0 c5 25 b1 bc bd 6b 25 bc c7 4a 2e bc 17 a0 bc bb
       -0.021624455 -0.010096488 -0.0106379455 -0.005756389
000100 93 a2 02 bc 98 0b 3c 3c f5 e7 9a bb 36 e0 9f 3b
       -0.007973331 0.011477374 -0.0047273585 0.004879023
000110 c4 32 bc 3b 00 62 a3 bb c1 21 ce 3c fc 78 d6 3c
       0.0057433564 -0.0049860477 0.02516258 0.026180737
000120 9b 7d a3 bc 5e ca 4d bc 2d 77 0c bc 17 07 af bc
       -0.019957354 -0.012560455 -0.008573336 -0.021365685
000130 d2 b8 73 bc 8d ff 51 bb 21 b2 2c 3c 57 33 8e bc
       -0.014875608 -0.003204319 0.010540516 -0.017358465
000140 b3 0c 2b bb 5a 7d 95 3b 60 c8 9b 39 63 6f 12 bc
       -0.0026100099 0.004562062 0.00029713195 -0.0089376895
000150 38 46 a5 bc b8 68 9b bb fb d2 54 3b 0e 05 28 bc
       -0.020175084 -0.004742708 0.0032474387 -0.010255111
000160 8b c2 9d bc b2 ec 1d bb 18 a4 7d 3c 3c 2f ad 3b
       -0.019257804 -0.002409738 0.0154810175 0.005285172
000170 67 e0 ab bc 10 a7 26 3c b1 54 e5 3b f9 11 2f bb
       -0.020981027 0.010171667 0.0069986214 -0.0026713593
000180 41 02 48 3b f1 bc 8f 39 71 af 90 bc 97 ab 90 3c
       0.0030518922 0.00027415858 -0.017661782 0.017659945
000190 86 3f 17 ba 94 72 1e 3c 85 11 b7 ba 2c 13 40 bb
       -0.00057696586 0.009670872 -0.0013967013 -0.0029308302
0001a0 4c 31 e6 3b d3 0f 06 bb ff 44 5d 3c 67 f6 76 3c
       0.0070249196 -0.002045621 0.0135052195 0.015073395
0001b0 af 10 77 3c e8 ea 02 bc 78 4d 21 bc 39 b2 93 bb
       0.015079661 -0.007990576 -0.00984513 -0.00450733
0001c0 10 7c 8c 3a bb 43 08 bc 41 8f 49 bc 5d 55 b1 bb
       0.0010718126 -0.008316929 -0.012302221 -0.0054117874
0001d0 0d cc b4 3b ce 4c 32 3c b9 58 c8 3b bd a6 64 3b
       0.005517489 0.0108825695 0.006114092 0.0034889423
0001e0 d4 07 0b 3c 65 a1 8f bb 04 47 a3 ba 63 df 52 3b
       0.008485753 -0.0043832534 -0.0012457077 0.0032176606
0001f0 40 10 bb b9 b3 a8 a5 ba 8e 8b 88 3a 22 29 2c 3b
       -0.00035679527 -0.0012638777 0.0010417567 0.0026269634
000200 a6 0c 91 3b 67 85 97 bc 63 c3 4b 39 b3 e4 f7 bb
       0.0044265566 -0.018496228 0.00019432376 -0.007565105
000210 da 5d dc 3a b4 ab 02 bc 50 a2 a6 bb 1a 8a 26 bb
       0.0016812638 -0.0079755075 -0.005085267 -0.0025411905
000220 49 e9 78 3c ad 33 e2 bb a7 85 c8 3b 28 7a 8b 3c
       0.015192338 -0.006903133 0.006119448 0.017026022
000230 12 9b ae 3b c2 c8 fc bb 03 e7 60 bb fa 8a 30 bb
       0.0053285444 -0.007714362 -0.0034317381 -0.0026938305
000240 60 2a 75 bc e2 b2 6b 3b a0 76 36 bb 82 7f dc ba
       -0.014963716 0.0035964777 -0.0027841702 -0.0016822668
000250 a3 26 4c bb 34 67 90 bc 9f 93 a4 3b 23 94 a4 bb
       -0.003115096 -0.017627336 0.0050224806 -0.005022542
000260 e3 74 06 bc 42 32 1d bc b3 1c dc 3b 90 80 16 3b
       -0.008206579 -0.009594502 0.0067172884 0.0022964813
000270 5f 32 c5 bc 54 de b1 ba 38 6f 17 3b fa bd af bb
       -0.02407187 -0.0013570287 0.0023107063 -0.005363223
000280 89 49 01 3c 74 a3 74 bb e4 4b d0 bb 20 80 88 3c
       0.007891067 -0.003732887 -0.006356703 0.016662657
000290 25 c9 06 3b ff d5 84 bb 6f bf d7 3a d1 df 1a bc
       0.0020566669 -0.0040538306 0.001646025 -0.009452776
0002a0 11 b7 91 3c 5b 99 62 3c 77 01 b1 39 d8 4f 5a 3c
       0.017787488 0.013830508 0.00033761162 0.0133247
0002b0 3f 97 19 bb 1d 16 58 3a da 44 d4 bb 14 1f 99 bb
       -0.0023436097 0.0008243041 -0.0064779343 -0.0046728943
0002c0 e3 7d ca bb a7 de 10 bc 17 cf e6 3b 9a 50 81 bb
       -0.0061795576 -0.008842147 0.00704373 -0.003946376
0002d0 a7 99 9a bb d7 52 16 bc 0d 77 80 3b 8e 7d 8e 3c
       -0.004718024 -0.009175024 0.003920442 0.017393854
0002e0 da f4 47 b9 00 03 bf bb 9e 61 96 bb 3c 48 ce ba
       -0.00019069333 -0.005829215 -0.0045892736 -0.001573808
0002f0 4a f6 9b 3c 64 79 60 3b cd 4a eb 3b de 67 66 bb
       0.019038338 0.0034252042 0.007180548 -0.0035157125
000300 15 88 87 bc c7 cf 97 bb bd 13 ff ba 55 7f b4 bb
       -0.016544381 -0.0046329233 -0.0019460839 -0.005508343
000310 32 1e 22 3c a4 ab 22 3c a5 d8 81 bb a1 3d a1 3c
       0.009894894 0.009928618 -0.0039625936 0.019682707
000320 8c 1a ed 3a 0d df f7 bb 94 76 83 bc 2a b2 1f 3c
       0.0018089577 -0.0075644315 -0.016047753 0.0097470675
000330 52 1d f8 3b fd 9f 10 bb ca d5 83 bb f0 6e 66 bc
       0.0075718546 -0.0022068017 -0.0040232884 -0.0140645355
000340 e9 66 49 3c 8e 88 25 3c 89 c2 1e bc 90 cb 6c bb
       0.012292602 0.010103358 -0.0096899355 -0.0036132075
000350 09 a0 49 3c b6 cd 3c bb 10 79 37 bc 6d cd 17 bc
       0.012306222 -0.0028809137 -0.011198297 -0.009265286
000360 6a 3d 1d 3c e7 85 34 3a 58 94 e8 bb da 4a 55 bc
       0.009597162 0.0006886408 -0.007097762 -0.013018334
000370 de 38 8c 3c 53 d7 22 bc d1 80 30 3c 0d cd 8d 3c
       0.01711696 -0.009939033 0.0107729 0.01730969
000380 4b 63 34 bc 6f 51 49 3b f2 3e 64 bb 72 70 31 bc
       -0.011010001 0.0030718704 -0.0034827557 -0.010830032
000390 15 a6 13 bc 3e 54 2c 3c 33 53 87 bc 37 a1 27 3c
       -0.009011765 0.010518132 -0.016519165 0.010231308
0003a0 51 e1 1a bb 70 0b 1b bc 86 f4 37 3a 8d f7 7d 3b
       -0.0023632834 -0.009463176 0.0007017333 0.0038752288
0003b0 bc c6 0c bc 8d 70 cd ba aa 83 f5 3b 64 e4 4f bb
       -0.008592304 -0.0015673802 0.007492502 -0.0031721825
0003c0 c1 ba 8e bc 5b ae 60 3c 50 53 51 bc f0 50 f4 bb
       -0.017423036 0.013713445 -0.012776211 -0.0074559376
0003d0 d1 44 55 3c 6d cb 96 bc 42 83 f3 3b 6e 43 1e 3c
       0.013016895 -0.018407548 0.0074314186 0.009659631
0003e0 fb 8f ed 3b e9 2e a2 3b a9 96 16 bc 52 da 2d bb
       0.00724983 0.00494944 -0.009191194 -0.0026527834
0003f0 ca ef 76 bb 14 ad 3c 3c ff 58 61 bc fc 80 87 bb
       -0.0037679547 0.011515874 -0.0137541285 -0.004135249

action_model._discrete_distribution.branches.0.bias f4 [4]
000000 36 5a e4 ba dd 53 d4 3a ed 78 2d 3a b3 38 b0 39
       -0.0017421904 0.001619931 0.00066174456 0.0003361158

action_model._discrete_distribution.branches.1.weight f4 [3, 128]
000000 ff 3a 37 ba 59 82 c1 ba 7b eb 80 3c 52 69 b3 bb
       -0.0006989687 -0.0014763578 0.015737286 -0.0054752016
000010 9d 8e a0 bb 62 cf 61 3c 3f bd 95 bb 0b c9 af 3b
       -0.0048998133 0.013782354 -0.004569679 0.0053645424
000020 7c e0 10 3b ec a1 38 39 fd 5d 48 bb 7a 99 36 bb
       0.002210646 0.00017607928 -0.00305736 -0.0027862475
000030 a7 70 fd bc 95 4c e5 3a 74 b6 b0 bb ef ed 0a 3c
       -0.030937506 0.0017494137 -0.005392844 0.008479579
000040 bd 1c a9 bc c6 cb 05 bc 5e 83 71 bc 34 f0 6b bb
       -0.020643586 -0.008166259 -0.014740793 -0.0036001327
000050 df fb 4a bb 09 89 04 3c be c9 b0 3b d9 b9 3b bc
       -0.003097288 0.008089312 0.0053951433 -0.011457884
000060 35 f0 30 3b 9c 13 33 bc 72 6f 81 3b a3 85 22 3b
       0.0026998643 -0.010929968 0.003950053 0.0024798892
000070 83 82 ba bb 52 7e 88 bb 43 7c 19 bc d6 8d 2f ba
       -0.0056918277 -0.004165449 -0.009368005 -0.00066968554
000080 3f 00 3f 3c 81 5c 79 3b ec 0e 79 3c 08 30 35 3b
       0.0116577735 0.0038049521 0.015201312 0.0027647037
000090 03 c0 9e 3b 40 2e 25 3c 32 3b 7f 3b c8 dd d0 3b
       0.004844667 0.010081828 0.0038945195 0.0063740946
0000a0 c6 91 11 bc bd 0f ae 39 84 76 0d bb 62 2d 7d b9
       -0.008884853 0.00033199592 -0.0021585533 -0.00024144867
0000b0 9c b9 d2 bb cf 71 b8 3b c6 4b 18 bc 97 fb 9d 3c
       -0.006430818 0.0056288014 -0.00929541 0.019285006
0000c0 d9 19 09 bb 21 9a a6 3b 5f 7f 01 bc 97 32 e7 bb
       -0.0020919947 0.0050842916 -0.007903903 -0.0070555913
0000d0 13 9a d6 3b eb e7 da bb 8a e5 2a bc be 36 f7 bb
       0.006549129 -0.006680479 -0.010430703 -0.0075443676
0000e0 99 8f 35 bb c8 ab d0 bb 8a b5 e1 bb c7 93 85 3c
       -0.0027704 -0.006368134 -0.006888096 0.016305817
0000f0 ff 45 c4 ba a0 7b 89 bb 3a 36 f8 39 4b ee 6d bc
       -0.0014974474 -0.0041956455 0.00047342648 -0.0145221455
000100 d6 01 9d bc 98 c4 0b bb 1c 88 6d bc f7 1a 55 3b
       -0.019165915 -0.0021326896 -0.014497783 0.0032517293
000110 69 da 29 3a 3d cb 4d bc f8 dd 56 3b f8 bc 77 bc
       0.0006479384 -0.012560663 0.0032786112 -0.015120737
000120 ab eb c2 bc fc 81 0a bc bf e4 ac 3b da 48 ac 3b
       -0.023794016 -0.008453842 0.005276292 0.005257708
000130 33 37 a5 3b 82 06 39 3c 78 2e 31 bc 5e a4 b7 ba
       0.0050419807 0.0112930555 -0.010814302 -0.0014010777
000140 bc 0e 38 bb 59 c2 28 3c 70 23 49 3b 87 07 99 3c
       -0.0028084954 0.010300242 0.0030691288 0.018680347
000150 8e b0 75 bc 86 cd 00 3a 5c f0 41 ba b6 d0 94 ba
       -0.014995707 0.0004913438 -0.0007398182 -0.0011353705
000160 f9 2a 2c bb 9c 2f 85 3c f6 dd e8 bb 68 63 83 3c
       -0.002627073 0.016258053 -0.007106538 0.016038612
000170 20 b0 8a 3c 1b fa 2e 3b 0a 86 9c 3b 14 44 f9 3b
       0.016929686 0.0026699367 0.004776721 0.0076069925
000180 8a 29 66 3b 10 46 82 3c 1d bd 0a 3b 96 9e 9f bb
       0.0035119974 0.015902549 0.002116985 -0.0048712
000190 0c 4f 84 3c 30 81 7e ba d3 0b 1c bb 7a 7e 84 3b
       0.016150974 -0.00097085815 -0.0023810759 0.0040433975
0001a0 fc 83 16 3b 8a 66 28 b8 08 0b d3 3c e4 65 ac b9
       0.0022966852 -4.014982e-05 0.025762096 -0.0003288231
0001b0 4c 9e 80 3c 46 c3 a4 3b 23 d4 c2 3b 32 5e 11 3b
       0.015700482 0.005028161 0.005945699 0.002218139
0001c0 b1 a0 0c 3c 85 be 94 b9 b4 bf b9 ba 64 67 aa bc
       0.008583234 -0.00028370708 -0.0014171512 -0.020801254
0001d0 08 17 e6 bc 2d 23 34 bb ee 59 4f 3c fc 50 e6 bb
       -0.028087154 -0.0027486787 0.012655718 -0.007028697
0001e0 fc 57 86 bc fd 0f a4 bc c8 ae 14 bc 5b e8 ab 3b
       -0.016399376 -0.020027155 -0.009074874 0.005246205
0001f0 c2 e0 90 bc a8 d1 3c 3c 48 4d 99 3b 50 bd b5 3b
       -0.017685298 0.011524595 0.004678402 0.0055462494
000200 1c 99 d1 bb ad 7a 1b 3c 78 d7 e7 bb 79 b3 b8 3b
       -0.006396426 0.009489697 -0.0070752464 0.005636629
000210 30 df 62 bb 38 b6 1e 3c 71 9f a4 3b 96 77 9e bb
       -0.0034617893 0.009686999 0.0050238897 -0.004836033
000220 6e c3 9d 3a 2e ad 2d bc 25 a8 23 ba bb a9 4a 3c
       0.0012036392 -0.010600371 -0.0006243012 0.012369568
000230 93 6c e7 b9 71 79 2d bc 24 3a cf 3b b9 b8 a0 bb
       -0.00044140648 -0.010588036 0.0063240696 -0.004904833
000240 7f 74 0d 3b 0c 46 cc bb df e0 22 bc f6 40 16 3c
       0.002158433 -0.006233936 -0.009941309 0.009170761
000250 df a0 3c 3c 62 3b a5 3c 7f f4 25 bb 3f 27 52 bc
       0.011512964 0.020169917 -0.0025322733 -0.01282674
000260 3f 73 8e 3b ed c8 fc 39 2d 4b ba bb 87 c8 15 3c
       0.0043472345 0.00048214887 -0.005685231 0.009142048
000270 4a ff 9c 3b 58 52 8d bb d1 74 eb bb 0e 34 cf b9
       0.004791175 -0.0043127947 -0.0071855565 -0.000395209
000280 48 fa d7 3a 75 02 0b 3b 9c 2e 8e bc 88 f1 41 bc
       0.0016477788 0.0021211181 -0.01735621 -0.011837371
000290 64 7e 15 bb c1 e4 88 3b 40 f2 d1 3b 6c 49 51 bb
       -0.002281093 0.00417766 0.0064070523 -0.0031934632
0002a0 c6 e2 17 3c 0c 27 b6 3b 53 9d ac bb ac 8f 0d bc
       0.009270376 0.005558854 -0.005267778 -0.008640211
0002b0 9c 93 9f ba 03 79 89 ba e0 c5 db 39 c6 51 ba 3b
       -0.0012174728 -0.0010488335 0.00041918363 0.0056860177
0002c0 97 3d 96 3a f5 d8 00 bc 2e e3 cd bb 33 2d 31 3c
       0.0011462447 -0.007864227 -0.0062831854 0.010813999
0002d0 ec 07 03 3b df 91 d8 3c 70 4a 85 3b 43 d2 65 bb
       0.0019993735 0.026436744 0.0040677115 -0.0035067953
0002e0 ef 6d 41 3b fa 24 a6 ba b5 0c 68 3b b3 6d 2f 3c
       0.0029514988 -0.0012675815 0.0035407965 0.010707307
0002f0 e1 26 24 bc a2 51 c0 3b f7 a3 35 3c ec 7c 08 bc
       -0.010019035 0.0058691064 0.011086456 -0.008330565
000300 a1 2f ed 3b 1c c2 59 bc b1 b8 66 bb 27 be ae bb
       0.007238344 -0.013290908 -0.00352053 -0.0053327265
000310 7a a2 1d 3c c9 db 90 3b b5 3d c7 b9 ce 79 7f 3b
       0.009621257 0.0044207317 -0.00038002213 0.0038982513
000320 34 aa ce 3a b5 99 83 3b fa b1 69 b9 a4 30 98 3b
       0.0015767277 0.004016126 -0.00022286913 0.0046444703
000330 8c 8f f8 3b 74 54 13 bc 20 ac e4 bb 45 40 40 3c
       0.0075854715 -0.008992303 -0.0069785267 0.011734073
000340 c9 3b 09 3c 73 7c 04 bc 8e 34 36 3c 95 68 8e 3c
       0.00837607 -0.008086312 0.011120928 0.017383853
000350 aa 56 c2 bb 04 ca ce bc 6f 5d d9 3b 31 e5 26 bc
       -0.0059307413 -0.025242813 0.0066334526 -0.010186479
000360 26 01 17 3c 77 9d 53 3c 76 47 24 bb d3 04 e7 bb
       0.009216582 0.0129159605 -0.0025067008 -0.0070501356
000370 0d d9 32 3c 7b 31 cb bb cc 9a 78 3c 39 e8 a1 3b
       0.010916007 -0.006200967 0.015173625 0.004941013
000380 89 e4 d5 bb a0 af 29 3b 70 e6 4c 3c a9 5d 48 3b
       -0.0065274877 0.0025892034 0.012506112 0.0030573404
000390 90 22 d3 b9 14 8f 80 3c 94 40 8b bc d9 fc cc bb
       -0.00040270807 0.015693225 -0.016998567 -0.0062557277
0003a0 eb 63 19 bc ea d4 c5 3a fe cf c2 3a 50 1b 29 bb
       -0.009362201 0.001509336 0.0014863012 -0.0025803633
0003b0 81 fd 9f bc 3b 22 16 bc b7 11 91 3b e2 24 31 3c
       -0.01953006 -0.009163435 0.0044271606 0.010812016
0003c0 5c ff 99 3b 01 b8 3c bb 74 56 f5 3a 9c 2f b6 bb
       0.0046996307 -0.0028796198 0.0018717782 -0.0055598747
0003d0 38 5b 24 ba fa ab c7 3b 68 fe 49 3c 4b 44 1a 3c
       -0.0006269696 0.0060934993 0.012328722 0.009415696
0003e0 f0 b3 92 3b 2a 3c 10 3b 1c f9 28 bc cc 6d 5b bc
       0.0044770166 0.0022008517 -0.010313299 -0.013392877
0003f0 c9 6a 52 3c 5c b5 7d bc a1 b0 2e bc 40 73 90 3b
       0.012842842 -0.015485134 -0.010662229 0.00440827

action_model._discrete_distribution.branches.1.bias f4 [3]
000000 7c a9 44 b9 00 7b fe ba 26 1a 2f 3b
       -0.00018755154 -0.0019415319 0.0026718467

exp_avg f4 [128, 30]
000000 a5 14 14 b5 01 2b 5d b4 00 00 00 00 0a 84 2f b5
       -5.516434e-07 -2.0597874e-07 0.0 -6.538472e-07
000010 a7 6f ba 33 5c 8c c7 b4 d2 a5 28 b5 00 00 00 00
       8.6816094e-08 -3.7168763e-07 -6.282618e-07 0.0
000020 b5 82 08 b5 cf 8d 12 b5 26 9e 61 b4 00 00 00 00
       -5.085415e-07 -5.4595597e-07 -2.1012292e-07 0.0
000030 da 67 17 b5 93 a6 3d b4 06 65 71 b3 00 00 00 00
       -5.640301e-07 -1.7662596e-07 -5.6204065e-08 0.0
000040 dc 91 a8 b5 9b 3f 75 34 2a 49 0b 33 00 00 00 00
       -1.2559426e-06 2.2840543e-07 3.2430002e-08 0.0
000050 0c b0 50 34 ce 28 62 34 aa 0e 59 32 00 00 00 00
       1.9435555e-07 2.1062735e-07 1.2634397e-08 0.0
000060 73 2d 0f 34 18 d8 24 b3 39 f7 72 b1 00 00 00 00
       1.3334447e-07 -3.838076e-08 -3.5356165e-09 0.0
000070 79 d3 cb b4 00 00 00 00 60 30 ad 36 20 70 27 35
       -3.7965563e-07 0.0 5.1614334e-06 6.237551e-07
000080 00 00 00 00 30 32 de b6 1e 0d 8e b7 6f 1a 21 36
       0.0 -6.621958e-06 -1.6933827e-05 2.4006256e-06
000090 12 db 37 b7 00 00 00 00 07 f5 3e b6 f0 e5 b5 36
       -1.0958656e-05 0.0 -2.845483e-06 5.4209886e-06
0000a0 e8 87 35 35 00 00 00 00 9c 78 b4 b6 52 ff a5 36
       6.7625524e-07 0.0 -5.378459e-06 4.9471064e-06
0000b0 31 07 c7 34 00 00 00 00 cc 45 c3 b6 01 ac db 36
       3.707187e-07 0.0 -5.8195783e-06 6.5467325e-06
0000c0 86 ef b4 32 00 00 00 00 0b e9 a1 34 39 16 f6 36
       2.106368e-08 0.0 3.0158148e-07 7.3339584e-06
0000d0 65 17 67 35 00 00 00 00 69 8e d0 b4 0e f5 88 34
       8.608825e-07 0.0 -3.8846636e-07 2.5510275e-07
0000e0 2f 1d 1c b4 00 00 00 00 77 72 76 b6 00 00 00 00
       -1.4539249e-07 0.0 -3.6723484e-06 0.0
0000f0 98 dd 0d b5 a9 21 79 b3 00 00 00 00 a4 fa 7b 37
       -5.2849055e-07 -5.8005444e-08 0.0 1.5019123e-05
000100 8b 44 ca 37 07 01 e1 36 86 18 57 37 00 00 00 00
       2.4112194e-05 6.705642e-06 1.2820708e-05 0.0
000110 62 af 1f 37 9b 65 75 b5 4d 2e dd b2 00 00 00 00
       9.517973e-06 -9.141747e-07 -2.5748841e-08 0.0
000120 49 60 58 37 1c e0 6c b6 b2 7a 22 b5 00 00 00 00
       1.2897021e-05 -3.529719e-06 -6.052825e-07 0.0
000130 2c b9 16 37 e1 8d a1 b6 81 84 63 b5 00 00 00 00
       8.98381e-06 -4.814691e-06 -8.475691e-07 0.0
000140 a1 6e d1 36 5a 54 b6 b6 87 c3 83 b5 00 00 00 00
       6.2415643e-06 -5.4338425e-06 -9.817167e-07 0.0
000150 2b 58 8e 35 b3 91 3c 36 44 bb c5 33 00 00 00 00
       1.0605485e-06 2.8098991e-06 9.207591e-08 0.0
000160 2c 51 22 37 00 00 00 00 9a 1a 04 36 fd b1 57 34
       9.674852e-06 0.0 1.9685017e-06 2.0088187e-07
000170 00 00 00 00 13 e3 33 35 9d e2 ce b4 fe 5d 12 b5
       0.0 6.701313e-07 -3.8535373e-07 -5.4526015e-07
000180 86 6b 02 35 00 00 00 00 32 f0 02 36 d8 56 09 36
       4.858524e-07 0.0 1.9511322e-06 2.046514e-06
000190 dd c3 82 34 00 00 00 00 56 cc ff 35 33 c6 24 36
       2.4356896e-07 0.0 1.905845e-06 2.4553271e-06
0001a0 fb 8d a1 34 00 00 00 00 a1 7e 88 35 22 10 69 36
       3.009189e-07 0.0 1.0169643e-06 3.4729096e-06
0001b0 bb 5d 09 35 00 00 00 00 03 fc 83 36 8e 2c 61 36
       5.1172873e-07 0.0 3.9334423e-06 3.3553547e-06
0001c0 b5 1f c6 34 00 00 00 00 ad 74 2c 36 f6 39 d6 32
       3.6903444e-07 0.0 2.5697911e-06 2.4939236e-08
0001d0 85 4a 89 32 00 00 00 00 e3 7c 2f 35 00 00 00 00
       1.5982787e-08 0.0 6.5374314e-07 0.0
0001e0 02 dd 53 b6 ae d8 a0 b5 00 00 00 00 e8 b4 cf b5
       -3.1570094e-06 -1.1983991e-06 0.0 -1.5475352e-06
0001f0 22 58 e9 b5 38 38 a3 35 89 95 56 b6 00 00 00 00
       -1.7385503e-06 1.2160808e-06 -3.1975526e-06 0.0
000200 b8 11 bd 34 35 0a 52 b6 15 97 a1 b5 00 00 00 00
       3.5216885e-07 -3.129838e-06 -1.2039405e-06 0.0
000210 ab 82 a9 b5 11 97 18 b6 83 e2 2e b5 00 00 00 00
       -1.2629511e-06 -2.2737697e-06 -6.514967e-07 0.0
000220 6a bf 26 b7 d1 26 38 35 09 f4 47 34 00 00 00 00
       -9.938938e-06 6.8601827e-07 1.8622099e-07 0.0
000230 c6 57 d0 35 87 6f 4b 35 76 84 81 34 00 00 00 00
       1.5522753e-06 7.5785687e-07 2.41245e-07 0.0
000240 71 9e 40 35 74 2e 97 33 7e ee 08 b2 00 00 00 00
       7.1756136e-07 7.039935e-08 -7.970469e-09 0.0
000250 0e 96 86 35 00 00 00 00 d5 d5 d8 b5 a4 f2 f4 35
       1.002745e-06 0.0 -1.6155487e-06 1.8250034e-06
000260 00 00 00 00 2a c7 a1 b6 db fc 8f b6 2c c2 0b b6
       0.0 -4.8213597e-06 -4.2911684e-06 -2.0825637e-06
000270 ba 00 e6 b6 00 00 00 00 6c f7 d9 b6 a1 45 e4 b5
       -6.8546187e-06 0.0 -6.4959077e-06 -1.7007588e-06
000280 62 c0 e3 35 00 00 00 00 79 e4 d9 b6 27 71 b7 b6
       1.6968809e-06 0.0 -6.4937017e-06 -5.4669977e-06
000290 94 bc 06 35 00 00 00 00 e7 00 54 b7 72 28 74 b6
       5.019331e-07 0.0 -1.2636395e-05 -3.6382376e-06
0002a0 34 af 9d 35 00 00 00 00 cd b2 aa b6 c1 fc a4 b6
       1.1748402e-06 0.0 -5.08721e-06 -4.9170053e-06
0002b0 d2 f2 43 35 00 00 00 00 89 0a 1c b7 9d 5d e6 b5
       7.299651e-07 0.0 -9.3007775e-06 -1.716358e-06
0002c0 79 c1 d9 b1 00 00 00 00 8f 4f 95 b6 00 00 00 00
       -6.3375265e-09 0.0 -4.449808e-06 0.0
0002d0 96 fe 6d b6 54 ef 66 34 00 00 00 00 39 e7 5b b7
       -3.546394e-06 2.1507486e-07 0.0 -1.3107253e-05
0002e0 12 4e 4b b7 63 cc 10 b7 fd c0 0f b7 00 00 00 00
       -1.211792e-05 -8.630656e-06 -8.568398e-06 0.0
0002f0 0f 96 25 b7 10 2d 67 b6 97 bf cb 33 00 00 00 00
       -9.869705e-06 -3.4447912e-06 9.487774e-08 0.0
000300 39 14 62 b7 ef 60 d3 b5 6e 2d d4 34 00 00 00 00
       -1.3475358e-05 -1.5748936e-06 3.9521132e-07 0.0
000310 6a e0 9f b6 62 07 18 b6 8a 72 f7 34 00 00 00 00
       -4.7646945e-06 -2.2654062e-06 4.6090673e-07 0.0
000320 e3 a6 2e b7 4f c6 07 b6 a1 4a 5e 34 00 00 00 00
       -1.04100645e-05 -2.0231998e-06 2.0702511e-07 0.0
000330 63 13 e3 b6 c2 ea 45 b6 a5 8e 10 32 00 00 00 00
       -6.767384e-06 -2.9491935e-06 8.414337e-09 0.0
000340 9a e3 14 b7 00 00 00 00 d9 bf 03 36 8b d1 bd 35
       -8.87448e-06 0.0 1.9632191e-06 1.4142582e-06
000350 00 00 00 00 a9 c2 93 b6 13 69 18 b7 4f 95 45 b6
       0.0 -4.403603e-06 -9.0843705e-06 -2.9442197e-06
000360 f9 99 9d b6 00 00 00 00 51 43 54 b6 d0 7b 0e 36
       -4.6968894e-06 0.0 -3.1629645e-06 2.1231717e-06
000370 eb 6b bf 35 00 00 00 00 a4 d1 6e b6 d3 aa d0 35
       1.4262017e-06 0.0 -3.558679e-06 1.5546924e-06
000380 14 9f 86 35 00 00 00 00 e2 1b d0 b6 23 8c 6d 36
       1.0030076e-06 0.0 -6.202129e-06 3.5397322e-06
000390 82 5e ce 35 00 00 00 00 9f 8f 63 35 ee 37 4f 36
       1.5375701e-06 0.0 8.4773086e-07 3.087796e-06
0003a0 b8 12 b9 35 00 00 00 00 0f 28 8f b5 33 1f f6 b5
       1.3789022e-06 0.0 -1.0665989e-06 -1.8337508e-06
0003b0 73 a2 6b b3 00 00 00 00 aa 12 b6 b6 00 00 00 00
       -5.4862948e-08 0.0 -5.4261955e-06 0.0
0003c0 49 5b 19 35 4b 82 a8 33 00 00 00 00 8a f2 99 36
       5.712978e-07 7.84681e-08 0.0 4.5879906e-06
0003d0 e0 4b d9 36 e9 7f 5e 36 27 dc b0 36 00 00 00 00
       6.475937e-06 3.3155031e-06 5.270838e-06 0.0
0003e0 27 3a 60 36 fb e6 f9 34 2e 45 aa 33 00 00 00 00
       3.341245e-06 4.6547925e-07 7.9288256e-08 0.0
0003f0 22 e6 56 36 93 e1 aa b5 0e cb 09 b5 00 00 00 00
       3.202244e-06 -1.2731638e-06 -5.133196e-07 0.0

exp_avg_sq f4 [128, 30]
000000 a0 5d a6 2a 7c 81 8b 28 00 00 00 00 9c 8e 1b 2b
       2.955249e-13 1.5488255e-14 0.0 5.526497e-13
000010 c3 c6 a8 2a f0 db dd 2b 43 16 04 2b 00 00 00 00
       2.9980714e-13 1.5764039e-12 4.6926715e-13 0.0
000020 bf 94 e6 2a 9d b4 9f 2a 3a 87 88 28 00 00 00 00
       4.095942e-13 2.83694e-13 1.5157678e-14 0.0
000030 f7 0d 6a 2b 0f a1 06 2a 32 08 85 27 00 00 00 00
       8.315288e-13 1.1957469e-13 3.69238e-15 0.0
000040 f0 e1 05 2b 0e bb 30 29 40 f3 3a 25 00 00 00 00
       4.7564643e-13 3.9242095e-14 1.6215345e-16 0.0
000050 05 94 65 2a af 05 2a 29 cb 9c 19 25 00 00 00 00
       2.039064e-13 3.7752513e-14 1.3323758e-16 0.0
000060 17 64 a1 2a 87 14 ed 26 b5 ce 88 23 00 00 00 00
       2.8668796e-13 1.6450742e-15 1.4832693e-17 0.0
000070 a6 9f 88 29 00 00 00 00 2d de 09 2e 79 b4 85 2b
       6.067308e-14 0.0 3.1347525e-11 9.50031e-13
000080 00 00 00 00 4e a4 0a 2f 3c 1c 17 2f b6 99 97 2e
       0.0 1.26094e-10 1.3743401e-10 6.8939895e-11
000090 76 f8 0c 2f 00 00 00 00 f9 1d d3 2e 0c 5a 06 2e
       1.2821197e-10 0.0 9.600493e-11 3.054805e-11
0000a0 2e bf 9a 2b 00 00 00 00 68 cc 24 2f 12 c3 b7 2d
       1.0995421e-12 0.0 1.4988333e-10 2.089132e-11
0000b0 90 d4 34 2b 00 00 00 00 6c d5 41 2f ea 58 42 2d
       6.4243836e-13 0.0 1.762907e-10 1.1047366e-11
0000c0 df 11 74 2a 00 00 00 00 29 9b 8c 2e 97 6f 23 2d
       2.1677754e-13 0.0 6.394025e-11 9.290255e-12
0000d0 be 29 16 2a 00 00 00 00 a6 3e 79 2e dc d2 dd 2b
       1.3337159e-13 0.0 5.6671688e-11 1.576152e-12
0000e0 c2 b8 37 28 00 00 00 00 a6 1e 17 2e 00 00 00 00
       1.0198604e-14 0.0 3.4360646e-11 0.0
0000f0 57 3e 9e 2d 0d a2 19 2b 00 00 00 00 62 1b 9d 2e
       1.7990205e-11 5.458141e-13 0.0 7.1443976e-11
000100 77 d1 a6 2e a8 41 94 2e b8 8b 73 2e 00 00 00 00
       7.5860145e-11 6.741924e-11 5.53759e-11 0.0
000110 28 50 4d 2e ff 56 97 2d 4f 29 23 2b 00 00 00 00
       4.6682797e-11 1.7205347e-11 5.796656e-13 0.0
000120 91 ad c2 2e 5c e1 13 2d 18 28 a7 2a 00 00 00 00
       8.85293e-11 8.406022e-12 2.969298e-13 0.0
000130 01 45 4e 2e c7 f9 04 2d d1 75 86 2a 00 00 00 00
       4.6900265e-11 7.558793e-12 2.3884933e-13 0.0
000140 a2 a4 36 2e af 4d ed 2c f3 b1 53 2a 00 00 00 00
       4.1528232e-11 6.7445697e-12 1.8802303e-13 0.0
000150 a4 7f 0e 2e 5f ed 2b 2c 9e ad bc 27 00 00 00 00
       3.240043e-11 2.443233e-12 5.236872e-15 0.0
000160 81 fa 16 2e 00 00 00 00 93 55 6d 2c 05 7f ed 29
       3.4328543e-11 0.0 3.3727229e-12 1.05469486e-13
000170 00 00 00 00 d1 2a 0e 2d 28 90 00 2d 06 ec f8 2c
       0.0 8.081273e-12 7.307967e-12 7.074788e-12
000180 5a 8f 11 2d 00 00 00 00 38 2b 03 2d c4 1a 68 2c
       8.274126e-12 0.0 7.456084e-12 3.298404e-12
000190 3a d5 05 2a 00 00 00 00 6e 77 42 2d 21 f1 26 2c
       1.1886751e-13 0.0 1.1054142e-11 2.3723872e-12
0001a0 f9 c0 cb 29 00 00 00 00 27 0e 19 2d e0 19 36 2c
       9.0484864e-14 0.0 8.7001855e-12 2.587812e-12
0001b0 5e 59 f2 29 00 00 00 00 c0 36 cb 2c a4 29 2a 2c
       1.07624616e-13 0.0 5.7756855e-12 2.4181568e-12
0001c0 0e 47 bd 29 00 00 00 00 1e 67 eb 2c ee 56 7a 2a
       8.405612e-14 0.0 6.69055e-12 2.223462e-13
0001d0 36 d6 d7 25 00 00 00 00 1b 2a 30 2c 00 00 00 00
       3.744171e-16 0.0 2.5034478e-12 0.0
0001e0 cb 3f 64 2c a2 ab 4f 2a 00 00 00 00 7e 64 bc 2c
       3.243616e-12 1.844484e-13 0.0 5.3544382e-12
0001f0 47 b8 2b 2c 26 ae 86 2d b3 19 7f 2c 00 00 00 00
       2.4402856e-12 1.5311374e-11 3.6251945e-12 0.0
000200 59 7b 9f 2c 72 91 5e 2c 9a 1e 5a 2a 00 00 00 00
       4.532746e-12 3.1628836e-12 1.9372907e-13 0.0
000210 95 c4 03 2d cd 92 e7 2b 47 0e ef 29 00 00 00 00
       7.490138e-12 1.6454283e-12 1.0616209e-13 0.0
000220 e0 cc b9 2d 6c 4d 7d 2a 52 16 65 28 00 00 00 00
       2.1123048e-11 2.2497775e-13 1.2716894e-14 0.0
000230 e2 c5 6e 2b f2 49 40 2a d7 10 22 28 00 00 00 00
       8.4829203e-13 1.707868e-13 8.996458e-15 0.0
000240 f6 2a 36 2b 09 b8 b5 28 cf 7c bb 24 00 00 00 00
       6.471901e-13 2.017485e-14 8.1309756e-17 0.0
000250 87 37 ca 2a 00 00 00 00 82 df 57 2d e0 af 3f 2b
       3.5920938e-13 0.0 1.2270964e-11 6.8100907e-13
000260 00 00 00 00 c5 3c 1c 2e 95 61 0a 2e c5 9d 0a 2e
       0.0 3.5524268e-11 3.1464237e-11 3.1517695e-11
000270 0f db 05 2e 00 00 00 00 74 6b cd 2d 1f 0b 54 2d
       3.0435262e-11 0.0 2.335352e-11 1.2053274e-11
000280 1e f0 41 2b 00 00 00 00 9b c9 4a 2e 29 f4 0e 2d
       6.8900604e-13 0.0 4.6108544e-11 8.12598e-12
000290 ef 56 b7 2a 00 00 00 00 20 1a 48 2e 2d 04 a8 2c
       3.2567652e-13 0.0 4.549794e-11 4.775311e-12
0002a0 ed 33 91 2a 00 00 00 00 f2 a0 9a 2d 62 57 90 2c
       2.5793205e-13 0.0 1.7579247e-11 4.1024276e-12
0002b0 0b 55 22 2a 00 00 00 00 63 1c 89 2d ef f8 90 2b
       1.4417996e-13 0.0 1.5587703e-11 1.0300908e-12
0002c0 e1 c7 65 27 00 00 00 00 19 f8 87 2d 00 00 00 00
       3.1888489e-15 0.0 1.54579e-11 0.0
0002d0 33 e4 67 2c b5 bd cc 29 00 00 00 00 0a 64 62 2d
       3.295375e-12 9.092329e-14 0.0 1.2868826e-11
0002e0 5d 75 92 2d 92 49 01 2e 26 7e 81 2d 00 00 00 00
       1.6650398e-11 2.9396548e-11 1.4721623e-11 0.0
0002f0 22 fe 34 2d 6f e3 5c 2c a8 f6 c3 29 00 00 00 00
       1.0288244e-11 3.1390131e-12 8.7025276e-14 0.0
000300 8a 10 80 2d 5f 4a 43 2b 78 39 09 29 00 00 00 00
       1.455926e-11 6.938113e-13 3.0469957e-14 0.0
000310 12 1a 0b 2d 75 54 21 2b db 49 e7 28 00 00 00 00
       7.907024e-12 5.73159e-13 2.5678182e-14 0.0
000320 d9 bf 6d 2d 0b ea e2 2a 8b 15 87 28 00 00 00 00
       1.3514489e-11 4.0308065e-13 1.4997354e-14 0.0
000330 07 f8 32 2d d1 e7 ff 2a d6 25 0e 27 00 00 00 00
       1.0173202e-11 4.5457954e-13 1.972697e-15 0.0
000340 77 cd 25 2d 00 00 00 00 e1 a1 80 2d 26 1f 19 2b
       9.4247865e-12 0.0 1.4623804e-11 5.4399746e-13
000350 00 00 00 00 39 f6 18 2e 7b 2c e5 2d 5d 9d 4f 2e
       0.0 3.477949e-11 2.605404e-11 4.7206117e-11
000360 7f a7 e2 2d 00 00 00 00 ef 19 01 2e f1 4a 7a 2d
       2.5767609e-11 0.0 2.9354238e-11 1.4227495e-11
000370 38 a8 28 2b 00 00 00 00 3a a6 48 2e 69 07 00 2d
       5.991904e-13 0.0 4.5622374e-11 7.277603e-12
000380 24 bf da 2a 00 00 00 00 a1 eb 18 2e 54 56 f1 2c
       3.885721e-13 0.0 3.477008e-11 6.8592163e-12
000390 95 33 f1 2a 00 00 00 00 18 d4 86 2d 62 cc e1 2c
       4.2845992e-13 0.0 1.5328225e-11 6.4175757e-12
0003a0 7f f0 b0 2a 00 00 00 00 6c 98 b2 2d e7 c6 97 2b
       3.1430758e-13 0.0 2.0303946e-11 1.0784402e-12
0003b0 d5 7d cc 26 00 00 00 00 17 60 80 2d 00 00 00 00
       1.418945e-15 0.0 1.4594588e-11 0.0
0003c0 0a 21 3c 2d 25 b0 97 2a 00 00 00 00 81 ea 04 2e
       1.0693899e-11 2.6945213e-13 0.0 3.0221606e-11
0003d0 e2 21 07 2e 2b ac a2 2e 66 f2 e5 2d 00 00 00 00
       3.072554e-11 7.39749e-11 2.6141932e-11 0.0
0003e0 50 4e f2 2d 1f ec 32 2d 32 48 a4 2a 00 00 00 00
       2.7546992e-11 1.0170558e-11 2.9182348e-13 0.0
0003f0 ec e5 31 2e a7 93 9c 2c 0b 4e 6b 2a 00 00 00 00
       4.0449352e-11 4.4501794e-12 2.089927e-13 0.0
